torch_model_storage_26_Jun_2025/model_Early_IA_Correct_v_Late_IA_Het VEH_Early_IA_Correct.pt (torch, 16137 bytes, 8 tensors)

model.encoder.0.weight f4 [9, 147]
00000000: a826 f6bc bd8e c43d 5d55 8a3d 6485 0f3d
00000010: c19e 15be cfac e8bd 8ead 2b3b 282b b93c
00000020: 55d2 23bd 0cf5 8a3e 9fc7 303e 342a 703d
00000030: 48c1 d3bc 7458 e33b db79 a6bc 025b f73d
00000040: 48bb 4a3e a4ff cc3d 121f 5d3e 6a65 43bd
00000050: 4178 963d def0 97b9 d218 7f3d 4465 483d
00000060: 61fd 083b ba25 373c 61da 423e d09a 1a3e
00000070: 7458 7b3c bb58 62bd 27e7 ba3d 4ddb e13c
00000080: bc7f 763d b585 e03d 6f52 1c3d c4ea fd3c
00000090: 695d 393c e0be 223e 8408 1a3d db28 c23d
000000a0: 0b6d 1c3e 2ff5 85bd 3435 3f3e 6ac0 573d
000000b0: 7ccf ef3c f59f 833d 9ed7 033d 24c6 30bd
000000c0: 9437 873e 1259 3e3d 3209 b03d a4dd 423d
000000d0: 367d 12bd ca85 093d 6737 c73c 7217 ef3b
000000e0: f751 8bbd e249 78bd 0609 8cbc 6b6f 343c
000000f0: 456e 313d 0a02 213c 0612 9abd c058 2e3e
00000100: aa6b cb3d 1dea f43d 3148 c73d 36bb 2e3e
00000110: 2cd9 fabb dff5 0fbc 8df1 223d a918 913d
00000120: ceec 203e 2cd2 8c3d fe75 f63d c7a7 623d
00000130: 20bf f83d eb29 ab3e 51ec 6a3e 35c3 02be
00000140: 8f73 233d c758 dd3d d921 f73d e71d 013c
00000150: 231b 373e ff4b 543d dc46 3b3d e1c1 0b3e
00000160: 1e32 a53d 164a 07bc 5330 2cbd ce40 4dbc
00000170: 0250 53be 5e01 103c 31bf 543e 6bdc 463e
00000180: 7fac 183e 2790 493d a140 8abd 7813 903e
00000190: faf8 f73d 3c9f 5b3d 112e 9b3d 4774 303d
000001a0: b4a4 903d 3769 3e3e baf5 053e 976a 0c3d
000001b0: 1141 7f3e 1333 4b3e 2bae 13be 464d 203e
000001c0: 5122 9d3d c2c2 123c ef6e 823d 000d 0a3e
000001d0: 27b6 3dbc c80d 853d 023b 2e3d 2a48 023e
000001e0: 483d b5bb 78cb ee3d 578b 063e b7da b83d
000001f0: ad6f 563e 3b6c 7f3d 444c 0f3e 3047 343e
00000200: 8be6 953e 0589 ab3d 100f 223e 0ffd dd3d
00000210: bd4c ff3d 5360 32bd c272 a93d 9ccf 633b
00000220: 8fbb 023d fc9b 413d 160c ad3d 0484 583d
00000230: f3d8 193c 1ed2 893c 5fbb d6bd 15af 7f3d
00000240: d85a d23d 601c a83d 7c92 0a3e 2131 0ebe
00000250: 579f a7bd ac96 fdbc 5f21 5bbd a99f 473e
00000260: 1283 8abc 6871 e5bc 8fb6 9d3b 10c1 183a
00000270: ad0f d1bd c7a5 1f3d 2050 9abd 9767 2bbd
00000280: 372e 8dbd 7e88 b4bc 640c 9fbd 15ed efbc
00000290: c1aa f5bc 5781 07bd ae17 edbc 354a 9cbd
000002a0: b85c 3bbe f92a c9bd 6a37 b9bd 9743 ae3c
000002b0: d05b e1bc 1fca 09be 0b81 dcbd 3ff7 8d3d
000002c0: 2fbe 3dbc 9371 15bd 6def 713d 3bcd 0dbe
000002d0: 85db be3c 58aa af3d 2090 12bd 6529 1dbd
000002e0: ccd0 00be a75e 363d dffd f6bc 6d3b 0dbd
000002f0: ac83 523a 4a6c 59bd 9c80 56bd 8490 a8bd
00000300: 9e76 18bd e868 ae3d 93e6 9c3d ad0a 6a3c
00000310: b210 cdbd 3991 afbd 2193 ba3d b417 393d
00000320: 3590 97bd 88f9 503d 12fe 4fbc 487c 24bb
00000330: c1f9 d6bc d9fc 5bbd 2a42 d23c 9ff6 083c
00000340: 2e87 a1bc 9efa 16be ba07 29bd d93f 5ebb
00000350: b136 84bd b3bb 04be 3a64 79bd 3215 7fbd
00000360: 60e3 abbc a7fd 3cbe c6cd 333d 15d4 5fbd
00000370: ed3b 14be 5795 85bd 5f75 22bd c06e edbd
00000380: 54cd e3bd 9ac6 033d a6fb 693c 53ad 3cbe
00000390: 549b 96bd 5524 93bd cb5a 263d 5050 f8bd
000003a0: 99b4 04be e114 2dbe c4f9 6cbc 3be6 043e
000003b0: d3d7 b3bc 4bd7 79bd a638 b1bd 5cfa 4e3e
000003c0: 9966 683c da48 14be e344 b0bd 00bc 95bd
000003d0: d019 ecbc f886 b53d dad1 2bbe 2829 a7bd
000003e0: 5147 28be 8e99 06bd 9e86 6dbd f34d 28bd
000003f0: 8d0d 14bd 2f4c 823d 7aca 09bd 722a 5fbe
-0.03004773 0.09597538 0.06754563 0.03503932 -0.14611341 -0.113610856 0.0026195976 0.022603586
-0.03999551 0.2714008 0.1726365 0.058633998 -0.025849 0.0069380347 -0.020321777 0.12077905
0.19798005 0.10009697 0.21593884 -0.047704138 0.07347155 -0.00028980424 0.06227953 0.0489247
0.0020902979 0.011178428 0.19028617 0.15098119 0.015340913 -0.0552604 0.0912612 0.027570391
0.06018041 0.109630026 0.038164552 0.030995734 0.011313775 0.15893126 0.037605777 0.09480449
0.15275972 -0.06540906 0.18672639 0.052673735 0.029273741 0.06426994 0.03218805 -0.04315771
0.2640959 0.046471663 0.08595504 0.047574654 -0.03576394 0.033574857 0.02431841 0.007296496
-0.06802743 -0.060617335 -0.017094146 0.011012892 0.04331805 0.009827146 -0.07522969 0.17026043
0.09932645 0.11958716 0.09730566 0.17063603 -0.0076552834 -0.008786648 0.039781142 0.07084782
0.15715334 0.068760246 0.12034224 0.055335786 0.12145829 0.33430418 0.2294171 -0.12769778
0.039905127 0.108079486 0.12067003 0.007880664 0.17881446 0.051830288 0.045721874 0.13648178
0.080662 -0.00825741 -0.042038273 -0.012527658 -0.2063599 0.008789388 0.20776059 0.1942002
0.14909552 0.04920974 -0.06750608 0.28139853 0.121080354 0.053618655 0.07577146 0.04307964
0.07062665 0.18594824 0.13082018 0.03428134 0.24927165 0.19843702 -0.14421909 0.15654477
0.07672561 0.008957567 0.06368815 0.13481522 -0.011579073 0.06496769 0.042536743 0.12722841
-0.005530987 0.11659902 0.13139091 0.090260915 0.20941038 0.062359076 0.13993937 0.17605281
0.29277453 0.08375744 0.15826058 0.10839283 0.124658085 -0.043548893 0.082738414 0.0034761196
0.03191715 0.0472679 0.08449571 0.052860275 0.009390104 0.016823824 -0.10484957 0.06242283
0.10271233 0.08208537 0.13532442 -0.13885929 -0.081846885 -0.030955635 -0.053498622 0.194945
-0.016908202 -0.028008178 0.0048130224 0.00058271084 -0.10208068 0.038976457 -0.07534814 -0.041846838
-0.068935804 -0.02203774 -0.07766035 -0.029287854 -0.029988648 -0.033082332 -0.028941955 -0.07631341
-0.18297088 -0.098226495 -0.090437725 0.021272464 -0.0275096 -0.1345601 -0.107668005 0.06931924
-0.011580988 -0.036485266 0.059066225 -0.1384782 0.023298034 0.08577412 -0.03578198 -0.038369555
-0.1257965 0.04452386 -0.030150352 -0.0344805 0.0008030485 -0.053081788 -0.052368745 -0.08230689
-0.037222497 0.08516103 0.07661166 0.014284772 -0.1001295 -0.08572621 0.09110094 0.04518862
-0.07400552 0.05101922 -0.012694852 -0.0025098491 -0.026242139 -0.05370793 0.025666315 0.00835958
-0.019717779 -0.1474404 -0.041267134 -0.0033912568 -0.06455744 -0.12962227 -0.0608866 -0.062276073
-0.020982444 -0.18456136 0.043897413 -0.054645617 -0.14475985 -0.06522625 -0.039662715 -0.115933895
-0.111231476 0.032171823 0.014281189 -0.18425493 -0.07353845 -0.07184664 0.04061393 -0.121246934
-0.12959518 -0.16902496 -0.014463846 0.12978451 -0.021953499 -0.060996335 -0.08653383 0.20212692
0.014184617 -0.14480916 -0.08606889 -0.07311249 -0.028820902 0.08863634 -0.16779271 -0.08162147
-0.16433455 -0.032861285 -0.05798971 -0.041089963 -0.036145736 0.06362187 -0.033640362 -0.21793535

model.encoder.0.bias f4 [9]
00000000: b8e8 5bbe d68b 3f3d 463d a53e 5219 3b3e
00000010: f194 383e 02a9 ebbd b727 74be a7a3 a43d
00000020: b911 a5bd
-0.21475494 0.046764217 0.3227331 0.18271378 0.18025567 -0.11506845 -0.23843275 0.08039027
-0.08060021

model.encoder.3.weight f4 [2, 9]
00000000: d53e 2b3e 4e71 e9bd b2e0 213e a07c ed3c
00000010: 7583 193d bc77 2ebe 918c 3f3e 8369 883e
00000020: 2882 833d 5a8d 57be 896a 7d3d 171f 673e
00000030: 39ae 923e abe9 2d3e 942c 7ebe 8c73 7fbd
00000040: 8ffb 503e 3732 c43d
0.16723187 -0.11398564 0.1580837 0.02899009 0.037478883 -0.17037863 0.18705966 0.26643
0.0642131 -0.21050015 0.061869178 0.22570454 0.28648546 0.16983669 -0.24821693 -0.062366053
0.20408462 0.0957989

model.encoder.3.bias f4 [2]
00000000: b5b2 a1be 86d2 ab3e
-0.31581655 0.33559054

model.decoder.0.weight f4 [9, 2]
00000000: 3202 9c3d 9d3b 4a3e 8e18 223f 5c1d 1b3e
00000010: e707 553e 76fc c93e 68d5 c4be 97a5 c43e
00000020: 383c 5c3e 1629 c73e 635a 1ebf 74b2 d73e
00000030: 4fb3 5ebc 60a0 2a3d d8a1 44bf 7fb7 263e
00000040: f423 593e 775e 0a3f
0.07617606 0.19749303 0.6331872 0.15147918 0.20803796 0.39450425 -0.38444066 0.38407585
0.21507347 0.38898534 -0.6185667 0.42128336 -0.013592555 0.04165685 -0.76809454 0.16280936
0.21205121 0.5405039

model.decoder.0.bias f4 [9]
00000000: 141e 9fbd d6cb 2f3e 7fca 663e 0ddb cbbe
00000010: f52e b4be 6a33 fdbd 49c5 f2bd 8f84 b8be
00000020: 96f5 88be
-0.07769409 0.17167601 0.22538184 -0.3981556 -0.35192075 -0.12363322 -0.118540354 -0.36038634
-0.26749867

model.decoder.2.weight f4 [147, 9]
00000000: b6d8 40be e05e 983c 7c0a 3abe 5ded 3cbb
00000010: e118 36bd c038 0c3e dbf7 8fbe ed72 2ebe
00000020: f7b7 f33d b52c 20bd c7f9 ad3e 482d d2bd
00000030: 7483 63be 5b71 163e 9b9f 5cbe 8799 093e
00000040: dd00 fe3d 2db3 a83c 5c61 80be a559 ce3d
00000050: 2a09 ba3e 2bdf 95be f282 83be a989 1d3d
00000060: cac7 e93d 7833 d03d c234 3bbe 890e a7bd
00000070: acdd 0c3e 4b62 a7be 0333 4c3d 6c4c 613e
00000080: 8499 d1bd 7485 5f3a e3a0 db3c a75a 583e
00000090: 3281 a93d d997 88be 72e1 6dbe 0ca5 f2bc
000000a0: b97c d8bd 9c78 c43e cbee 893c f2a3 543e
000000b0: 5a7e 36be 47e2 ccbc 0285 b53c eb95 003f
000000c0: d21d 1c3e 66e7 2f3e ef84 883e 8744 5a3e
000000d0: 70b4 78bd 6305 083e e44d 09be 9c0d e73d
000000e0: 428c cbbc ed0c f9bd 2aec a33e ae90 10be
000000f0: e0d1 633d 60f0 3c3e 9a55 aebe bc22 b0be
00000100: 643f 443d d351 eebd a5cf 84be de0b a3be
00000110: 965a 253d 3b23 6abe 2405 e13d f94e f13c
00000120: d94d 82bc fadd 81bd b9f7 b23e cb9e a6be
00000130: ed04 99be 78ee d63d 924d 88be ed7a a93d
00000140: 73d6 f1be d7d3 cebe ccd3 e03e 8212 90bd
00000150: 9495 f4be f047 2b3d 990d ebbe a73c 0fbe
00000160: d4bb dabe 36a1 28bd a7b3 03bf 6160 ddbe
00000170: 5a7d 9ebe 7456 f2be f92d 03bf b582 f0be
00000180: 6516 c9bc a0aa 003d e10d 09bf 85da 823d
00000190: 0226 01bc 86b3 2b3e c199 49be 9803 e1bc
000001a0: 1b3c dfbd 9343 83be e67e 31bd dc6e 07be
000001b0: 2a42 27bd 5ba5 36bd baf1 3f3e 3833 03bd
000001c0: a9ed 82be 837d f63d 44cb 09bf 4eb8 87bd
000001d0: ba14 dfbd 53db 803d 8387 893d aaa6 73be
000001e0: a1f4 19be c3b8 76bd 9a5f 0fbe bc33 b63c
000001f0: 680d 2b3c d9a7 193e 38d6 5b3d 88c1 ecbe
00000200: c6ce 073d beed 103e 6f6e e1be 1343 f8bd
00000210: 616d d43c 511b b53d da60 743d f837 02be
00000220: a9d5 153e 434a 02be 6bb5 27be 8b11 2abc
00000230: e47c e13d 8a67 8b3e e18d 3cbe a8cc 14be
00000240: 3741 633e c087 cb3d 7df7 cabe b33b 69be
00000250: bf61 50be c447 1abf 691d ab3e 4df3 603e
00000260: d4a4 1ebc 2719 a0bd befa ed3d 0ff0 40bb
00000270: 9f7a cf3c eba3 003e b934 98be b3b6 293e
00000280: 30d7 6c3d b10d c5ba ce61 1abc d641 3bbe
00000290: a229 f7bd 3da4 8b3c 86a8 a4bd ecd2 c4be
000002a0: 47e3 4bbe 62ea febe cb6a 99be 1ddd 28bc
000002b0: 326c 8a3e 28cb 0e3f 5808 2ebe a152 c9be
000002c0: 3b20 f93e df4d ebbe bb5f f5be 3645 2b3e
000002d0: 04d1 67bd 4737 9bbb 33d2 99be df1b ddbd
000002e0: 8014 2cbe 4d93 1c3d f6bf 65bd 06c5 abbe
000002f0: a9d8 0c3d df6c e1be 88c5 603c 6186 b23d
00000300: 7077 1cbe 350d c9be 2cf3 333e 6d1d b23d
00000310: bd9a bdbe b43c 8cbc e607 84bd b867 8abe
00000320: 5eca 843e 78cb 4abc dc21 143c ae79 33be
00000330: a3fc cbbe d055 a6be 8131 09bf 2f35 f8bc
00000340: 225a 4fbe 2297 9d3e 6d73 99be e656 a7bd
00000350: fb51 e93d 2fa1 4bbd 7f4a d3be f01a 03be
00000360: 8d53 d6be 1c89 17be c3d7 5e3e dccb c4be
00000370: 443f 023e 8e42 54ba f984 adbe 1e62 efbd
00000380: e9ea 1cbe 4057 4d3e 89de 133e 4dff 083d
00000390: d816 8cbe cb81 44be 8288 e13d 64a0 91be
000003a0: 852c 173d 1f94 76be b91b 99be 008d a0be
000003b0: 7e50 1c3e 0364 02bf 6da2 75be f909 93bd
000003c0: dfbe bb3b 47be 02bf 2c10 fcbe 5e7e 17be
000003d0: 5877 073e 0d66 b7bc 8184 8abe 4258 913c
000003e0: e01a 51be d3fe 913e 443c bcbe 1370 9bbe
000003f0: d7af d6be 788b 82be 8509 b0bd 9a1b a23c
-0.18832669 0.018599927 -0.18168062 -0.0028828003 -0.04445732 0.13693523 -0.28118786 -0.17036028
0.11900323 -0.039105136 0.33979627 -0.10262543 -0.22218114 0.14691679 -0.2154526 0.13437472
0.124025084 0.02059325 -0.2507428 0.10075692 0.36335117 -0.29271826 -0.2568584 0.03846136
0.1141506 0.10166067 -0.18281844 -0.08157069 0.13756436 -0.3269218 0.049853336 0.22001809
-0.10234359 0.0008526661 0.026810115 0.21128331 0.08276595 -0.2667835 -0.23230532 -0.029619716
-0.10570664 0.38373268 0.016837498 0.20765665 -0.17821637 -0.025010241 0.02215815 0.50228757
0.1524575 0.17178115 0.2666392 0.21315204 -0.060718954 0.13283305 -0.13408619 0.11281893
-0.024847154 -0.121606685 0.32016116 -0.14117691 0.055620074 0.18451071 -0.34049684 -0.344015
0.047912017 -0.116367005 -0.2593967 -0.3184499 0.040369593 -0.22865002 0.109873086 0.029456602
-0.015906261 -0.06341167 0.34954622 -0.32543024 -0.2988657 0.10494703 -0.2662168 0.08275399
-0.47233924 -0.40395996 0.43911588 -0.0703478 -0.4777037 0.04181665 -0.45908812 -0.13987981
-0.42721426 -0.041169368 -0.51446 -0.43237594 -0.3095501 -0.47331583 -0.51242024 -0.46974722
-0.024546811 0.03141272 -0.535368 0.063893355 -0.007882597 0.16767702 -0.19687559 -0.027467534
-0.10900136 -0.25637493 -0.04333391 -0.13225883 -0.040834583 -0.04459129 0.18744555 -0.032031268
-0.25571945 0.12035658 -0.53825784 -0.0662695 -0.10892625 0.06291833 0.067153 -0.23794046
-0.15034725 -0.060234796 -0.14001313 0.022241466 0.010440208 0.15005435 0.05367109 -0.46241403
0.03315618 0.14153191 -0.44029567 -0.121221684 0.025931062 0.08843101 0.059662677 -0.12716663
0.14632286 -0.12723641 -0.16377799 -0.010380159 0.11010149 0.27227432 -0.18413498 -0.14531195
0.22192846 0.09938002 -0.39641944 -0.2277668 -0.20349787 -0.60265756 0.33420876 0.21967812
-0.009682853 -0.078172974 0.11620091 -0.002943996 0.025327025 0.1256253 -0.29727724 0.165736
0.057822406 -0.0015033988 -0.0094227325 -0.18286833 -0.12068488 0.017046088 -0.08039956 -0.3844217
-0.19910918 -0.49788195 -0.2996429 -0.010306624 0.2703567 0.5577874 -0.1699537 -0.39320853
0.48657402 -0.45957848 -0.479246 0.1672562 -0.056595817 -0.004736814 -0.30043182 -0.107963316
-0.16804695 0.038226414 -0.05609127 -0.33548754 0.03438631 -0.44028375 0.01371897 0.08717037
-0.15279937 -0.3926789 0.17573231 0.08697019 -0.37032118 -0.01711879 -0.06446819 -0.27032256
0.25935644 -0.012377612 0.009041276 -0.17526886 -0.39841184 -0.32487345 -0.5359116 -0.030298797
-0.20249227 0.30779368 -0.29970875 -0.081708714 0.1139259 -0.049714264 -0.41267774 -0.12803245
-0.4186062 -0.14798397 0.21761994 -0.38436782 0.12719446 -0.00080970756 -0.33890513 -0.11688636
-0.15323986 0.20052814 0.14440359 0.0334466 -0.27361178 -0.19190137 0.11012365 -0.2844268
0.03690769 -0.24079941 -0.29903963 -0.31357574 0.1526508 -0.50933856 -0.23987742 -0.071796365
0.0057295407 -0.5107159 -0.49231088 -0.14794299 0.1322912 -0.022387529 -0.27054217 0.01774228
-0.20420408 0.28514728 -0.3676473 -0.30358943 -0.4193103 -0.2549703 -0.08595566 0.019788552

model.decoder.2.bias f4 [147]
00000000: b0a6 86bb 860f ee3d e5a2 c8bd 552b 0c3e
00000010: be51 213e cfa5 6e3e 920d 173d 5ff9 2f3d
00000020: e4e8 f8bd ac9d 303e ab9c 1f3e 4e38 7abd
00000030: f1d7 7cbc dfab bf3d 12dc 093e c9c1 8e3c
00000040: 6d38 1f3e b48f 213e 266c d33c c2d8 81bd
00000050: 6765 4c3e 15e2 bfbd f614 48bd af01 8bbd
00000060: 2ddc abbd 85ba 6abd eb7d 45bd 5c13 a3bb
00000070: 979e 183d 8d32 69bc c62a b43d d3e5 6d3e
00000080: 7e21 a43d 10b3 ba3d 0243 b33c 8c89 a33d
00000090: 0bbd 393d faf0 5c3d 6983 e03d 4352 3a3e
000000a0: 95c2 9bbd ba20 bd3d 0f00 c73d 998d 413c
000000b0: 30e8 66bd ce9e 23bd 48d7 ce3c 7d80 493d
000000c0: 24b7 a53d d59c 783e e3e0 09be 7bff a33e
000000d0: 211d 133e c558 86bd a8c6 e23c 47c2 0a3e
000000e0: cdcb fbbc d66d 743d 54e8 91bb 13fe 75bc
000000f0: 0e9f 1d3d 7f0e d6bc 9e52 873c 4d6c 623d
00000100: b355 e0bd 8cf3 b1bc b3b3 993e 9c91 853e
00000110: eb09 86bd 4e51 43bd 7581 1f3e 7a0a c33e
00000120: 4954 033e 20b3 bf3c 2b12 0b3e 8ddd b73b
00000130: 39a0 523d dba4 223d 022a 533e d297 09bd
00000140: 22e5 ca3c 4c89 1a3e a6cc 43bd 3cee 633c
00000150: 06f3 d33b dce4 52bd 4deb a1bd b564 7d3c
00000160: 605a cc3d 4e6c afbc 30a8 803b dba5 4b3e
00000170: 0907 ecbc 4e15 a7bd 64b0 383d bfa3 0e3e
00000180: bda1 21bc 33d3 8abd e4c4 593e f83f 253e
00000190: 7980 983d bc93 053e 23f5 68bd fec5 243c
000001a0: c296 033b db64 d93c 1b92 2e3e 13d2 233c
000001b0: 4ec1 413d 03c1 0f3d f757 97bd 7905 b63d
000001c0: cc57 05bd 7687 a1bd 5e72 a83d db7a 77bd
000001d0: 478b 163c 7119 86bd 64c0 173e ebc1 a23d
000001e0: 98a3 ca3d 84b2 103e 7489 b33c 5293 993d
000001f0: 8545 4a3e 4dbd 25bd af7d e13c 41f7 82ba
00000200: 518c 333e f969 c23d f94d 88bc a1ae 063e
00000210: 47eb eabd 11fe 2bbd 9dc7 2c3e 21d2 4b3e
00000220: bc82 8cbd 6126 5b3e 479a f33d 7b8d 8e3c
00000230: 25b8 033e f3fe ad3d 8105 c4ba ef9d ad3d
00000240: 9d42 603d d0e3 cf3d 3cb9 993c
-0.004109226 0.116240546 -0.09796695 0.13688405 0.15753838 0.23305438 0.036878176 0.04296243
-0.12153795 0.17247647 0.15587108 -0.061088853 -0.015432344 0.09358954 0.13462856 0.017426388
0.15548868 0.15777475 0.025808405 -0.063401714 0.19960557 -0.093692936 -0.048848115 -0.067874305
-0.083916046 -0.057306785 -0.048215788 -0.004976673 0.037260618 -0.014233244 0.08797221 0.23232202
0.08014201 0.09116185 0.021882538 0.07985219 0.0453463 0.05394075 0.109625645 0.18195443
-0.07605473 0.09234758 0.09716808 0.011813545 -0.056373775 -0.03994637 0.025249138 0.0491948
0.08091572 0.24278577 -0.13464694 0.32030854 0.1436658 -0.065599 0.027682617 0.13550673
-0.030736828 0.05967506 -0.0044527445 -0.015014189 0.038481764 -0.02612996 0.016518887 0.055279065
-0.10953846 -0.021722578 0.30019912 0.26087654 -0.065448605 -0.04768496 0.15576728 0.3809393
0.12825121 0.023400843 0.1358115 0.0056111277 0.05142233 0.039708 0.20621493 -0.033592053
0.024767462 0.15091437 -0.04780259 0.01391178 0.0064681796 -0.05148779 -0.07906208 0.015465905
0.09978175 -0.021413948 0.0039262995 0.19887488 -0.028811948 -0.081583604 0.045090094 0.13929652
-0.009865222 -0.06778564 0.21266514 0.16137683 0.07446379 0.13044637 -0.056874406 0.010056971
0.0020078872 0.02653735 0.17047922 0.009998816 0.04730349 0.03509618 -0.07389825 0.088877626
-0.032554433 -0.07887165 0.08224939 -0.0604199 0.00918848 -0.06547821 0.14819485 0.07947143
0.09894484 0.14130598 0.021916129 0.07498802 0.19753082 -0.040463734 0.02752575 -0.00099919
0.17533995 0.09492869 -0.016638743 0.13152553 -0.11470657 -0.041990343 0.16873021 0.19904377
-0.06860873 0.21401359 0.118946604 0.017401448 0.12863214 0.08495893 -0.0014955254 0.08477389
0.054751027 0.10150874 0.018765084
