torch_model_storage_26_Jun_2025/model_Early_IA_Correct_v_Early_RS_Correct_Het VEH_Early_IA_Correct.pt (torch, 14407 bytes, 8 tensors)

model.encoder.0.weight f4 [9, 117]
00000000: 7600 043e 2f2b ab3d 8474 a33b efad 9bbd
00000010: 0a31 3a3d 4557 93bc 68a7 4abc 1b96 3e3d
00000020: f46c 33be 6ee4 833d e844 303e 9cfc 9dbd
00000030: 1401 053d 81df cf3d c50f 943e 5b6b ec3d
00000040: 2079 fe3a beda a03d cc75 983d e83f 483e
00000050: 7311 adbc 84e5 bc3c 0f3e cdba 14cd 5fba
00000060: ac05 c73d fae2 cdbb a254 5fbe 7737 e9bc
00000070: 4b67 f73d 1c25 d93d e679 2d3d ecaa 1dbc
00000080: 4291 afbd 2184 2dbd 20b2 26bd e320 dd3d
00000090: 4a8d d43d c479 c73d edc0 073e 5a0d 8a3d
000000a0: b0f8 963a 9ddd d03d d4c6 043e 098e 383d
000000b0: 49ef d53d 46ce 3bbc b9e7 163e b084 fe3a
000000c0: a706 103e 507b b9be b7a0 8d3d 9304 b2bd
000000d0: 1ca3 31be e0ae 4b3e 40c2 513e 0f18 3dbe
000000e0: 0a93 163e 3017 013e e4f0 f53c 1904 07bd
000000f0: 0892 863d 6329 483e 3172 af3d ff5e fdbd
00000100: 58a9 f7bb ddf4 d43e a2f9 e9bc 9af7 363e
00000110: fa48 25bd f435 103d 1e3f 083e 3d8e fbbd
00000120: 1eeb 24bd ea89 18bc 839c 923c 6000 68bd
00000130: 5082 733c c9bc 9abc 0cf3 1a3c 3171 be3c
00000140: a5e4 bb3d e7e1 733d 3c08 783d 9da1 6f3c
00000150: 4624 d03c 02b8 633c 6611 d7bc 3ba5 cfbc
00000160: 3756 a0bc bac6 b23b 49b7 4dbd 56a7 bf3d
00000170: 5540 72bd 56c9 653d 2cd5 863d 7748 cf3c
00000180: f713 b73d ffb7 743d 35fa aa3d b0ee 5b3c
00000190: 7f5b 34bc 0ecf 173e aee3 6d3d a9fa fe3c
000001a0: 70f0 8a3d aa9c 2e3e b6cb 6cbc af56 3cbd
000001b0: 625a a13d 2bc7 443d 12ee ba3d b259 153e
000001c0: 71d3 56bd 7fe5 803e 9f51 253e e309 a53d
000001d0: 62ab ad3d dbb0 28be 428b e3bd 0fa3 54bd
000001e0: 07d4 46bb 5e70 21bd 08b8 a3bd 8dfc 8cbd
000001f0: 4aee c4bd 62fc 27be a922 73bd f5e8 2f3d
00000200: 1fff 80bc 2453 68bd 4093 903d d97c 08be
00000210: 0a28 dc3c 04b2 e0bd 4189 4bbd d380 17be
00000220: 014e 8fbd d54f fabd b5be 18bc 20a9 3bbb
00000230: 07a6 89bc cc56 8dbd 55c5 773d 7091 30be
00000240: f3f1 b5bd 20ba 1a3d 69a3 acbd 2573 4d3a
00000250: 4c98 26bd c8de a5bd 5062 83bd 3301 8a3d
00000260: bfbc 9fbd 9803 1ebd 218d 3cbc 1a86 08bd
00000270: b46d 90bd 6177 d6bd 5bbb cdbd 6c9d 913a
00000280: 1b71 9bbd f052 6b3d ca60 9bbd 6715 c53a
00000290: 848e 50bd 79aa b8bd 4b8a 31be 2b9d ccbd
000002a0: 6c6a c1bd 864e fbbd 004d e1bd b01a c33c
000002b0: 07b6 fdbc 74c8 9bbd 32f2 a53d da56 b83c
000002c0: 020b 26be be35 88bd 8741 5ebc fe7e 08be
000002d0: 6784 d2bd 1e68 37bd fcd5 3fbd 39a7 d9bd
000002e0: 412f 79bd ebd8 38be bf4f e3bc 5619 a33b
000002f0: 949e f2bc e6c8 74bd 3c5b ddbb a75a 53bc
00000300: b710 45bc 307e a0bd c257 14be 4c0b 5fbd
00000310: 179f 083d 6fa4 13be 0906 ab3c 01c0 bdbc
00000320: 954a fbbd 549a a53d 9d0f 69bc 4de0 af3a
00000330: 91fb b13d 323e 193c eeeb 69bd 94be 07be
00000340: 9383 1abd f639 5abc 37d2 93bd b447 3ebd
00000350: 773b 85bd de0e f0bd a73a 023c b12c 82bd
00000360: c536 33bc 383d f8bc 444c 763d e290 c7b9
00000370: b23b 373b 12df f7bd 8620 c8bd 54ce 2a3d
00000380: 10e7 4e3d d8fa 033c 5b95 85bd 9db8 4fbc
00000390: 62b4 8e3c bce5 65bc 0a04 6dbd 9a19 07be
000003a0: adad e8bd 44e7 4f3d 2fa8 23bd 0e5c d23c
000003b0: 175b bebd a50e ddbd 1c04 8dbc 8ded 1dbc
000003c0: 73cb 9bbd 6e52 9a3d fd1a 4d3e 5ece a0bb
000003d0: c0d9 09be 4769 00bd f0bb 40bd 85b3 35bd
000003e0: 28ff c53c 817c 68bd b3b2 a2bc af1f cebd
000003f0: 3521 c9bd 1594 d73d f815 96bc 8dbd bcbd
0.12890801 0.08357846 0.004988255 -0.076015346 0.045456924 -0.01798595 -0.012369014 0.04652987
-0.17522031 0.06440054 0.17213786 -0.07714197 0.03247173 0.10150052 0.2891828 0.11543914
0.001941476 0.07854222 0.07444343 0.19555628 -0.021126484 0.02305866 -0.0015658754 -0.0008537334
0.09717879 -0.006283161 -0.21809629 -0.02846883 0.120802484 0.10602781 0.04235258 -0.0096232705
-0.085726276 -0.042362336 -0.040697217 0.10797288 0.10378511 0.09740022 0.13257189 0.06740828
0.0011518206 0.101985194 0.12966472 0.04505733 0.10446031 -0.011462754 0.14736833 0.0019418206
0.14065038 -0.36226892 0.069154195 -0.08692279 -0.17347378 0.19890928 0.20484257 -0.18466209
0.14704528 0.12606502 0.030022092 -0.032962892 0.06570822 0.19547038 0.08566702 -0.12371635
-0.007558029 0.41593066 -0.028561417 0.1786789 -0.0403528 0.035207704 0.13305327 -0.12282989
-0.040263288 -0.009310225 0.017896896 -0.056640983 0.014862612 -0.018888848 0.009457361 0.023247333
0.0917447 0.05954161 0.060554728 0.014625934 0.025407922 0.013898851 -0.026253413 -0.025347343
-0.01957236 0.005455819 -0.050223622 0.09358089 -0.059143383 0.056100212 0.06583628 0.025303109
0.08939355 0.059745785 0.083485045 0.013423607 -0.0110081425 0.14825079 0.05807846 0.031125383
0.06784141 0.1705195 -0.014452865 -0.045981105 0.07878567 0.048041504 0.091274396 0.14584997
-0.05244774 0.25175092 0.16144417 0.08058526 0.08479954 -0.16473715 -0.11110546 -0.051913317
-0.003033878 -0.039413802 -0.079940856 -0.06884108 -0.096157625 -0.1640487 -0.059359226 0.042946775
-0.015746651 -0.056719914 0.07059336 -0.13328876 0.02687456 -0.10971454 -0.049691442 -0.14795236
-0.069973 -0.12222258 -0.009322812 -0.0028634742 -0.0168028 -0.06901321 0.060490925 -0.1724298
-0.08884039 0.03777516 -0.084296055 0.0007837287 -0.040672585 -0.08099133 -0.06415236 0.0673851
-0.07799672 -0.038577646 -0.011508257 -0.033331014 -0.07052174 -0.104719885 -0.10045501 0.0011109537
-0.075899325 0.057452142 -0.075868204 0.0015036286 -0.050917163 -0.0901689 -0.17337911 -0.09990915
-0.094441265 -0.122708365 -0.11001015 0.023816437 -0.030970586 -0.07606593 0.08102836 0.022502352
-0.16215137 -0.066508755 -0.013565428 -0.13329694 -0.1027916 -0.04477703 -0.04683493 -0.10627598
-0.06083608 -0.18051498 -0.027747987 0.0049773855 -0.029616632 -0.059761904 -0.0067552608 -0.012900031
-0.012027911 -0.07836568 -0.14486602 -0.054454133 0.033354845 -0.14418195 0.020876901 -0.023162844
-0.12270085 0.080860764 -0.014224914 0.0013418287 0.086905606 0.009353207 -0.057109766 -0.13256294
-0.037723135 -0.013319483 -0.0721783 -0.0464551 -0.06505483 -0.11721586 0.007948554 -0.063561805
-0.010938351 -0.030302629 0.060131326 -0.00038064184 0.0027959165 -0.12103094 -0.09771828 0.041700676
0.050513327 0.008055411 -0.06522628 -0.012678293 0.017419998 -0.014031824 -0.05786518 -0.1319336
-0.11361251 0.05075766 -0.039955314 0.02567866 -0.09294718 -0.10793809 -0.017213874 -0.009639156
-0.07607164 0.075352535 0.20029826 -0.0049074134 -0.13461971 -0.0313504 -0.04705423 -0.044360656
0.02416952 -0.05675936 -0.019860601 -0.10064637 -0.09820787 0.10526291 -0.018321022 -0.092158414

model.encoder.0.bias f4 [9]
00000000: c27a 5e3c c09d 93ba 2cae 0c3c da68 3cbd
00000010: c651 ccbd 9cdc 40be 3dc2 06bb daa7 263d
00000020: 3859 f5bc
0.013579072 -0.0011262223 0.008586448 -0.04599843 -0.099765345 -0.18834156 -0.0020562552 0.04068742
-0.02994977

model.encoder.3.weight f4 [2, 9]
00000000: 84e3 47be 1de2 e0bd 9af7 883d f447 4c3e
00000010: 1a0e e53a 271b 093e bfef a63d 603b 9e3e
00000020: 38ea debd 9c68 19be c0d7 6bbe 0270 363e
00000030: d707 57bd 2336 53be 9fef 37be c93a b1bd
00000040: 46ba 373e c3c1 98be
-0.19520384 -0.10980628 0.06687851 0.19949323 0.0017475516 0.13389264 0.08151197 0.30904675
-0.108845174 -0.14981312 -0.23031521 0.17816165 -0.05249771 -0.2062612 -0.17962502 -0.086537905
0.17942151 -0.29835328

model.encoder.3.bias f4 [2]
00000000: e96d cdbd 5ea3 2bbe
-0.10030729 -0.16761538

model.decoder.0.weight f4 [9, 2]
00000000: 7778 07bf 5b95 2a3d 3dc2 ee3e 72e8 46be
00000010: 2bf2 9d3e c609 7d3e 8029 fbbd 5480 bebe
00000020: 5299 e7be 7b4d 4f3f 349e d03e 19b9 adbe
00000030: 9e00 0bbe 466f 67be c112 8abf 27e1 8abe
00000040: aae7 c63b b3ae a63e
-0.5291819 0.041646343 0.46632567 -0.19424608 0.30848822 0.2471076 -0.12263775 -0.37207282
-0.45234162 0.809776 0.407457 -0.3393028 -0.13574454 -0.22601041 -1.0786973 -0.27124903
0.006070097 0.3255516

model.decoder.0.bias f4 [9]
00000000: 3337 913e 6a0b 513e 0278 a8be 0541 7f3b
00000010: 73ec 023e a4c6 5b3d 9c80 96be ce47 23be
00000020: dab1 b4be
0.28362426 0.2041451 -0.3290406 0.0038948667 0.1278551 0.053656235 -0.29394996 -0.1594536
-0.3529194

model.decoder.2.weight f4 [117, 9]
00000000: 247e 48be b21c 2e3e 5867 a73e 875a 8abe
00000010: 467a a2be 0f5d 95be 2619 8d3e 2d8d 8a3e
00000020: 42b4 1b3e a57d a13e 8ea6 253e 5b30 2ebe
00000030: b20a 4ebe 7db5 733e dcb2 e5bc 77bc ee3d
00000040: d7b1 2abd 818f 3b3e cc33 4bbe 5d45 d0bd
00000050: 8341 23be 82ff a03d defd 8fbe 67a5 413e
00000060: 82ea 683e d788 2e3e 5d61 e33d 0a7c ee3d
00000070: 0de5 d03d 4f20 91be acb3 1ebd a58d f5bc
00000080: 07bc 403d 8402 c1bd e882 32be 47f9 eb3c
00000090: 1731 94bd 56ac 28bd fb79 8a3e fc43 153d
000000a0: 72bb c1be 849c 6a3e e6d1 0d3e f6a4 aabd
000000b0: c528 28be 0044 8b3d 9239 e03d 5c9f 8d3e
000000c0: 5007 85bc 0ea9 b2be 19ea 43be 6cf1 1cbe
000000d0: 6e06 5ebe 7181 a43e a289 f53b ed51 ec3d
000000e0: cc25 6d3e 12b0 653e e154 1dbe facc 63be
000000f0: ec7d 90be 1eb2 a23b 6721 86be 61d7 febc
00000100: f30f cfbd f591 7c3e 58af e73d c0ff d73b
00000110: 56ea 853d ccd6 693e 7fd4 77be 9c56 eb3d
00000120: d0b2 ddbe 72cf 4d3e 6f26 d13d 6d1a 193e
00000130: daa4 253f d0c7 743e 13f9 f7bd 06c3 d0be
00000140: 018f 8a3e 3d63 a93e eba8 d53e 003a 6bbe
00000150: bc74 b03e 0036 333e e923 b8bd 3444 60bc
00000160: 18e5 41be 5560 1cbe 12bd 16be 6bee 28bd
00000170: 4ddf c5be d39d 593e 272e cebe a2a7 0b3f
00000180: c8da 9b3c ef73 883e ff9f a7be 7f0f 8d3e
00000190: 449f 80bd c5d4 7abe 5644 ba3c 345f f4bd
000001a0: 2f27 7c3e 33dd a5be 280f 18be 9ce8 a9bd
000001b0: bef9 9f3c e847 783e 53c3 b0ba c3bc b3bd
000001c0: 431c 90bc 5989 383e 9108 d5be 16e2 2fbd
000001d0: aefe c1be b9a8 033f 330a cdbb aea9 96be
000001e0: 9878 313b b174 7a3e 8fa6 803e dfe3 133e
000001f0: b51b 5cbd 56be c8be 7b6f 173e e330 a33e
00000200: 6b97 503e 5d03 523e 25b2 1fbd 48b9 aebd
00000210: 8b50 823d f1db f93e ef55 4e3d 75a5 e63d
00000220: 1b7f 8fbd 7019 7c3e 3e34 c5bb b67b e8be
00000230: 178f 8b3e c71d aa3d 01c0 d43d 2967 7c3d
00000240: 4a61 b9be 806c b03c 5d7b 97bd ecbe 9b3c
00000250: 78a6 efbe 5206 eb3e 23b0 44bb d636 dfbd
00000260: 7240 5ebe aae5 17be 34d9 913e 0603 e2be
00000270: 7147 0abd 8e2a e13d 06e1 da3e 6e5c 8cbe
00000280: edb3 4b3e a345 193e 2973 71be 1285 903e
00000290: 9571 51be 9c27 f23c 94d0 69be 66eb fc3c
000002a0: 7483 15be 656c 6b3c 1114 3b3e 0976 bebd
000002b0: 3577 b4be 0a42 1fbe 1260 02be 7b8a a13e
000002c0: d40b e9bc 1f74 9c3e d598 343e a0a3 893d
000002d0: 1795 6bbd 7ebe 723c 0a0c 7bbe ba08 85bd
000002e0: e027 95be 7cea a33d e57a 2e3d a56d 9fbe
000002f0: e52a fb3d dff0 d63d dace 8d3e 518c 9bbe
00000300: 3cbb 88bd 0fc6 27be 7070 e63c 2856 933e
00000310: 70c4 b7bd 081a c3bc 4da8 d93c 28ec 6e3e
00000320: d892 6c3e 09b7 1b3e aed5 8bbe 4c45 b6be
00000330: a7d1 6d3e 5461 6cbe ee46 27be 33b5 343d
00000340: 0d95 31bd b3a8 72be 71a2 fb3e c4ee 763b
00000350: f0a6 6d3e 6b86 f3be b8f8 8fbd 9ffc a9be
00000360: 3b54 00bd 93aa c23e 650c 4d3d fe95 b33e
00000370: 802f a53d 4f73 dfbd 9f9b 86be 0500 803e
00000380: 0939 583e 45e4 053e 047e 623d a263 4f3e
00000390: 8fd8 8e3e 52b4 76be e6d5 1d3e 4c79 203c
000003a0: a465 f83d ae94 a33e ef54 963e a0a6 013f
000003b0: 800f a7bd d175 633d ab6a 103f 40dd dabd
000003c0: 8ca2 82be fd3f 41bf a4bf 92be 5fba 2bbd
000003d0: 9596 ae3d c681 513e 91d3 853d c87f 7cbe
000003e0: 3aa7 ce3e d004 aabd 2e17 46bd 2434 16be
000003f0: ab14 d13c be7a 93be 6df3 7dbe f73c 6e3e
-0.19579369 0.17003134 0.32696033 -0.27022192 -0.31733912 -0.2917256 0.2755825 0.27060834
0.15205482 0.31541172 0.16176817 -0.17010634 -0.20121267 0.23799701 -0.028039388 0.116570406
-0.041673508 0.18316461 -0.19843978 -0.1016948 -0.1594296 0.07861234 -0.28123373 0.18910752
0.22745708 0.17044388 0.11102555 0.11644752 0.10199938 -0.28344962 -0.038745567 -0.029974768
0.047054317 -0.09424308 -0.1743275 0.028805388 -0.07235926 -0.041179977 0.2704619 0.036441788
-0.37838322 0.22911268 0.13849601 -0.08332245 -0.16421802 0.06800079 0.10948481 0.27660644
-0.016238838 -0.34894603 -0.1913227 -0.1532647 -0.2168214 0.32130006 0.0074932138 0.115390636
0.2315895 0.22430447 -0.1536441 -0.22246161 -0.2822107 0.004965081 -0.2619736 -0.03110856
-0.10110464 0.24665053 0.11312741 0.006591767 0.06538837 0.22835845 -0.24202155 0.11491129
-0.43300486 0.20098665 0.10212409 0.14951487 0.6470467 0.23904347 -0.12108054 -0.4077379
0.27062228 0.33083525 0.41730437 -0.22971344 0.3446406 0.17501068 -0.08991224 -0.013688136
-0.18935049 -0.15271123 -0.14720562 -0.041242998 -0.38646927 0.21251611 -0.40269586 0.5455266
0.019025221 0.2665095 -0.32739255 0.27550885 -0.062803775 -0.24495228 0.022737663 -0.11932221
0.24624322 -0.32395324 -0.14849532 -0.0829632 0.019528266 0.2424618 -0.0013485946 -0.08776238
-0.017591601 0.18021144 -0.41608098 -0.04294022 -0.37889618 0.51429325 -0.0062573194 -0.2942633
0.0027079936 0.24458577 0.25127074 0.14442395 -0.05373736 -0.39207715 0.1478862 0.31873235
0.20370261 0.20509095 -0.03898825 -0.08531433 0.063630186 0.48800614 0.05037492 0.11262027
-0.07006665 0.24619079 -0.0060181906 -0.45406884 0.27257606 0.08306461 0.10388184 0.06162182
-0.36207038 0.021536112 -0.073965766 0.019011937 -0.46806693 0.4590326 -0.0030012212 -0.10899131
-0.21704271 -0.14833704 0.28486025 -0.44142932 -0.033759538 0.10994445 0.42749804 -0.27414268
0.19892855 0.1496797 -0.23579086 0.28226525 -0.20453484 0.029559903 -0.22833472 0.030873965
-0.14600927 0.014369105 0.18269373 -0.09299857 -0.35247198 -0.15552536 -0.1273196 0.31550965
-0.028448023 0.30557343 0.17636426 0.06720662 -0.05751523 0.014815925 -0.24516311 -0.06495805
-0.29131985 0.08003709 0.04259767 -0.3113834 0.12264041 0.10495161 0.27696878 -0.3038049
-0.06676337 -0.16384147 0.028129786 0.2877667 -0.08973014 -0.023816124 0.02656951 0.23332274
0.23102891 0.15206541 -0.27311462 -0.35599744 0.23224507 -0.23084003 -0.16335651 0.044118118
-0.043355037 -0.23697166 0.4914737 0.0037678936 0.23208213 -0.4756349 -0.07029861 -0.33200547
-0.03133033 0.38020763 0.05006065 0.35075372 0.080657005 -0.10910665 -0.26290604 0.25000015
0.21115507 0.13075359 0.05529596 0.2025285 0.27899596 -0.24092224 0.15413627 0.009794544
0.121287614 0.3194937 0.29361674 0.50644875 -0.08157253 0.05553228 0.5641276 -0.10686731
-0.25514638 -0.75488263 -0.28661835 -0.041925784 0.08524815 0.20459661 0.06534494 -0.2465812
0.4036196 -0.08301699 -0.04836195 -0.14668328 0.02552255 -0.28804582 -0.24799891 0.23265444

model.decoder.2.bias f4 [117]
00000000: 26b8 483e 119b db3d 0976 d83d 88eb c7bd
00000010: 2da8 b83d 558c 2d3e ee95 44bd 43cc 4a3e
00000020: 030c 4e3e 1e71 f13d 6a98 1b3e 556a 22be
00000030: abb9 5ebd d0ff ccbd 1c6a 183e 0f7e b83d
00000040: 3f51 5b3d b4d2 c2bd cf40 013d 3aec ad3e
00000050: 5456 5e3e 4590 69bd 8751 d73d 8ddc 1dbe
00000060: 4c0c 933c 5106 a43d b30d 2e3d 14ff c03b
00000070: 02b8 003e e4ef 113e f90d 863d e179 59bd
00000080: ca29 393d daf6 63bc 206b 713d 4c91 60bd
00000090: 7785 ce3d f4ef ed3d 4170 1d3e fb13 1b3e
000000a0: 0245 84bd 4ded 393d b906 af3d 4ee7 473e
000000b0: 25a4 c83d e0bf e53c bf81 1dbc fc98 d9bc
000000c0: 1fbd 233e 58fb af3e 7ec6 ebbd 6fb0 193d
000000d0: 9344 cb3d 72e1 433e 9625 0f3e a9f6 f93d
000000e0: ed49 91bc e22b da3d c67a e93d b938 633c
000000f0: 6ccf e7bd a5d1 363e ef58 0b3e 100d a73d
00000100: ef9f 863d f7ef 413e 1b73 a63e 5da7 a93c
00000110: e637 223d 9102 85bd 359a b93d 6ed0 573d
00000120: be35 f13c 812e 913d c84d 0f3d c92f bf3d
00000130: c5ee 643d a273 063d 7c99 aa3d c87a 0c3e
00000140: 4cb0 983b 6dad f43c a034 043e e161 08be
00000150: 477f 7fbd 3e25 0ebe 7fec 8cbc dedf bc3b
00000160: 0883 6ebc ddc2 023e 738d e1bd e7c0 e43b
00000170: ebd3 03be b4d4 c53d 7e7d 263e 1651 a4b9
00000180: 729d 573e 7bb3 33be 9c8b 5f3e 61eb f3bd
00000190: 85f5 283e 6c06 0fbe d73e 933d ba27 c63d
000001a0: fc03 4e3e ee77 ad3d f5f2 823b 06de 99bd
000001b0: b021 1fbd 4e36 0dbd c1d1 bcbd ef6e 33bd
000001c0: f691 27bc 88d5 333e 30f5 343e 52be 8cbd
000001d0: 2ae7 003e
0.19601497 0.10722936 0.105693884 -0.09761721 0.09016452 0.16948064 -0.047994547 0.19804482
0.2012177 0.117891535 0.1519486 -0.15860875 -0.054376286 -0.1000973 0.14884228 0.09008419
0.05354428 -0.09512845 0.031555947 0.3396929 0.21712619 -0.05702235 0.10513597 -0.15416165
0.0179502 0.08009017 0.042493533 0.0058897827 0.12570193 0.14251667 0.06545634 -0.05309475
0.04520587 -0.0139138345 0.058940053 -0.054826066 0.1008405 0.11618033 0.15374853 0.1514434
-0.06458475 0.045392323 0.08546204 0.1952183 0.09796933 0.028045595 -0.009613453 -0.026562206
0.15990113 0.34371448 -0.11512469 0.037521776 0.09925189 0.1912897 0.13979182 0.1220525
-0.017735446 0.10652901 0.1140037 0.013868504 -0.113188595 0.1785341 0.13608144 0.08156788
0.06573474 0.18939196 0.32509694 0.020709688 0.03960409 -0.0649463 0.09062616 0.05268901
0.029444572 0.07088948 0.034986287 0.09335286 0.05589177 0.03282512 0.08330056 0.13718712
0.004659688 0.029867852 0.129107 -0.13318588 -0.06237724 -0.13881394 -0.017202614 0.0057639917
-0.0145576075 0.12769647 -0.110133074 0.0069810036 -0.12873809 0.096597105 0.16258809 -0.0003134093
0.21056154 -0.17548935 0.218306 -0.11910129 0.16499908 -0.13967294 0.0718972 0.09675546
0.20118707 0.084701404 0.003996248 -0.07513051 -0.038850486 -0.034475617 -0.09219695 -0.043806966
-0.010227671 0.17561924 0.17671657 -0.06872238 0.12588182
