torch_model_storage_26_Jun_2025/model_Early_IA_Correct_v_Early_RS_Correct_WT CLNZ_Early_RS_Correct.pt (torch, 9671 bytes, 8 tensors)

model.encoder.0.weight f4 [9, 54]
0	0xbdab5517	-0.08365839
1	0xbe4895e8	-0.19588435
2	0xbe2332d4	-0.15937358
3	0x3c08eb38	0.008356862
4	0xbd5c9f8f	-0.053863104
5	0x3ca87410	0.020563155
6	0xbd3a5c6f	-0.045498308
7	0xbdad11a4	-0.0845063
8	0xbddb98e7	-0.10722523
9	0xbc560547	-0.013062782
10	0xbdfdd5fc	-0.1239433
11	0xbddbda0d	-0.10734949
12	0xbe34ca16	-0.17655215
13	0xbd9ef34e	-0.077612504
14	0xbac8b9c4	-0.0015314152
15	0xbda7ab89	-0.081870146
16	0xbdf4ce84	-0.11953452
17	0xbe648423	-0.22316031
18	0xbdc5e291	-0.09662355
19	0xbc9d4697	-0.019198699
20	0xbd205f3b	-0.03915332
21	0xbbae8333	-0.0053256988
22	0xbd30d518	-0.043171972
23	0x3c4f8db7	0.012668065
24	0xbe388d00	-0.18022537
25	0xbe572892	-0.2101157
26	0xbd01d3b8	-0.03169605
27	0x3cb3dd5b	0.021956136
28	0xbe32893b	-0.17435162
29	0xbe893aa9	-0.26802567
30	0x3d99b1ab	0.075045906
31	0xbcb2194b	-0.021740576
32	0xbe11f44d	-0.1425335
33	0x3d17ac95	0.03702982
34	0x3bc39fe7	0.0059699896
35	0xbe6a6e1c	-0.22893566
36	0xbdc2a575	-0.09504215
37	0xbdeb9dbd	-0.115046956
38	0xbde662bc	-0.11249301
39	0xbe3ccca7	-0.18437444
40	0xbcaf2788	-0.021381155
41	0x3bdeb010	0.0067958906
42	0xbd10d822	-0.03536237
43	0x3b6d8502	0.003624261
44	0xbe2275ec	-0.15865296
45	0xbbeec19a	-0.0072862627
46	0xbe272300	-0.16321945
47	0xbbadb632	-0.0053012604
48	0xbd06db19	-0.03292379
49	0x3cb8c099	0.022552775
50	0xbd87386f	-0.06602561
51	0xbd8820ea	-0.06646903
52	0xbe357d08	-0.17723477
53	0x3b862a15	0.004094372
54	0x3deecca2	0.11660124
55	0x3d3d4fd1	0.046218697
56	0x3d924e45	0.07143835
57	0xbdb0f1fd	-0.086399056
58	0x3ca4c8ef	0.020115344
59	0xbc731519	-0.014836573
60	0x3e5728f6	0.21011719
61	0x3a82c10e	0.0009975748
62	0x3cd723c2	0.026262168
63	0xbc6817ac	-0.0141658
64	0x3bccec0f	0.0062537263
65	0xbb3ebdbf	-0.0029104797
66	0x3dbce9e2	0.09224297
67	0x3e011f1b	0.12609522
68	0xbcd5b45c	-0.026086979
69	0x3c406f13	0.011745232
70	0x3de43257	0.11142414
71	0x3d001dcf	0.031278428
72	0xbb1cfb15	-0.0023953367
73	0x3d296ed3	0.041365456
74	0x3d32d18a	0.043656863
75	0xbd52d5c8	-0.05147341
76	0x3dfb04b2	0.12256755
77	0x3debfb67	0.115225606
78	0x3e5abe53	0.21361665
79	0x3e4075f9	0.18795003
80	0x3e026c3c	0.127366
81	0xbdc5cacb	-0.0965782
82	0x3db47b59	0.08812589
83	0x3ebcff82	0.36913687
84	0x3dcfb0c8	0.1014114
85	0x3b1b750a	0.0023720884
86	0x3dfc3e7c	0.123166054
87	0xbc6027c5	-0.013681357
88	0x3dd309a4	0.10304573
89	0x3d72c0ee	0.059266023
90	0x3e909b0d	0.28243294
91	0x3dd03d26	0.10167913
92	0x3ebc112c	0.3673185
93	0x3da53352	0.08066429
94	0xbc2c9364	-0.010533188
95	0xbddf7873	-0.10911646
96	0x3d4ac326	0.049502514
97	0x3e3bf7f1	0.18356301
98	0x3ca4d3e4	0.020120569
99	0xbeb1fa18	-0.3476112
100	0x3c7878ff	0.0151655665
101	0x3e286a61	0.1644683
102	0xbc7385e9	-0.01486347
103	0x3dcda932	0.10042037
104	0x3df064d5	0.11737982
105	0x3df5a512	0.11994375
106	0x3e386e38	0.18010795
107	0x3dc55930	0.09636152
108	0xbd8e6b25	-0.0695403
109	0x3de5d540	0.11222315
110	0x3dbc25ab	0.09186872
111	0xbcd3105a	-0.025764633
112	0x3dff4140	0.12463617
113	0x3e027ff4	0.12744123
114	0x3d9131be	0.07089566
115	0x3dad7033	0.08468666
116	0xbd2c3e40	-0.042051554
117	0xbd7bd985	-0.06148674
118	0x3dc0d11c	0.094148844
119	0x3cd44bc9	0.025915043
120	0x3d02d57b	0.031941872
121	0x3e24a327	0.16077863
122	0xbe0e2620	-0.13881731
123	0x3dd9dee9	0.1063822
124	0x3e1aa1b8	0.15100753
125	0x3d8fc745	0.070204295
126	0x3a9e7e8e	0.001209216
127	0xbc4f0cf7	-0.012637368
128	0x3d6028cd	0.05472641
129	0x3e3239f9	0.17404927
130	0xbd94db52	-0.072683945
131	0x3e7bcd50	0.24590039
132	0x3e868043	0.2626973
133	0x3e5a9d4a	0.21349064
134	0x3d8691b4	0.065707594
135	0xbdcb8f27	-0.099394135
136	0xbcf2ea41	-0.029652717
137	0x3dfe361a	0.12412663
138	0xbbe0b8b2	-0.006857955
139	0x3d579bfd	0.052638996
140	0x3df97fcc	0.121825784
141	0xbcc1936f	-0.023629872
142	0xbd483e81	-0.048887733
143	0xbdf078e7	-0.1174181
144	0x3e8b613f	0.2722263
145	0x3c6f46aa	0.01460425
146	0x3ea12e11	0.31480458
147	0xbd2cf35c	-0.042224273
148	0x3dd54e85	0.10415367
149	0xbd58efa2	-0.052962907
150	0x3d6ef976	0.058343373
151	0x3e19cfdb	0.15020697
152	0x3dc2c8b9	0.09510941
153	0xbe74ee79	-0.23919095
154	0x3da91329	0.08255608
155	0x3cd3d0f0	0.025856465
156	0x3e275010	0.16339135
157	0x3d7a7d6a	0.06115476
158	0x3e2c4af2	0.16825464
159	0x3dca0a04	0.098651916
160	0x3d0a1f41	0.033721212
161	0x3bbf0868	0.0058298595
162	0xbd632e60	-0.05546415
163	0xbd13a572	-0.036046453
164	0xbe20d41c	-0.15705913
165	0x3cb04e7d	0.021521801
166	0xbd9610c0	-0.073274136
167	0x3def8793	0.116957806
168	0xbd499b41	-0.049220327
169	0x3cffbb52	0.031217251
170	0x3e2a86a6	0.16652927
171	0xbdbf9871	-0.09355248
172	0x3b000c0e	0.0019538435
173	0xbc0974e0	-0.008389682
174	0x3d837e6d	0.06420598
175	0xbd2f325d	-0.04277264
176	0xbd69a0b7	-0.057038035
177	0xbd8f90d6	-0.07010047
178	0xbc200c49	-0.009768554
179	0x3ea31b82	0.31856924
180	0xbe2d39d8	-0.16916597
181	0xbe34a92c	-0.17642659
182	0xbdb1e331	-0.086859114
183	0xbe65023c	-0.22364134
184	0x3de08039	0.109619565
185	0x3d984aff	0.07436179
186	0xbd28d36a	-0.041217245
187	0x3c60c416	0.0137186255
188	0x3c06d930	0.0082304925
189	0x3d1d07b5	0.038337428
190	0xbb8ba191	-0.0042612036
191	0xbe8a821c	-0.2705239
192	0xbca1cfa7	-0.019752337
193	0xbdcc2584	-0.09968093
194	0xbe219db1	-0.15782811
195	0xbe5805ae	-0.21095917
196	0x3c822c30	0.01589021
197	0xbe1f5d5b	-0.15562956
198	0xbe0c5f9a	-0.13708344
199	0xbbd32900	-0.0064440966
200	0xbdaf0f46	-0.08547835
201	0xbe0602d0	-0.1308701
202	0xbda658f1	-0.08122433
203	0xbd4a750b	-0.049428027
204	0x3d364778	0.04450175
205	0x3d97bc09	0.07408912
206	0xbd654c2d	-0.05598085
207	0x3efbe561	0.4919844
208	0x3d0496ce	0.03237038
209	0xbdd2b783	-0.10288908
210	0x3ce2ef6a	0.027702052
211	0xbd14260d	-0.0361691
212	0xbd5f5966	-0.054528616
213	0xbe255f19	-0.16149558
214	0x3d7f04a8	0.0622603
215	0x3d2074b1	0.039173786
216	0xbc1caca8	-0.009562649
217	0x3e5e9777	0.21737467
218	0x3e4d4165	0.20044477
219	0x3bac4248	0.005256925
220	0x3d07e50f	0.03317743
221	0x3c8027d1	0.015643986
222	0x3df5738a	0.11984928
223	0x3df5f63c	0.12009856
224	0x3d5c3ae4	0.0537671
225	0x3cae8865	0.021305272
226	0xbdc7714a	-0.09738405
227	0xbd49e472	-0.049290128
228	0x3c66b90b	0.014082204
229	0x3e0a7eef	0.13524984
230	0xbdfce67b	-0.12348648
231	0xbc936726	-0.017993521
232	0xbe22eca9	-0.15910591
233	0x3d87b175	0.06625644
234	0x3e1b3e8a	0.15160576
235	0x3e56d9f0	0.20981574
236	0x3d26f365	0.040759463
237	0x3d3c6f7e	0.046004765
238	0x3dc341ed	0.09534059
239	0x3e7e6a40	0.24845219
240	0x3ec37fa7	0.38183329
241	0xbe05ca19	-0.13065375
242	0x3ea3995a	0.31952935
243	0x3dc580d5	0.096437134
244	0x3db736ab	0.08945974
245	0xbd18b0e2	-0.037278064
246	0x3dd82baa	0.10555203
247	0xbd363aa0	-0.044489503
248	0x3d20f0fa	0.039292313
249	0x3de6ec97	0.11275595
250	0x3e034140	0.1281786
251	0xbe1c45a9	-0.15260948
252	0x3eb9d6af	0.36296603
253	0x3e8dd3be	0.2770061
254	0x3ef47b83	0.47750482
255	0x3dfd3a88	0.123646796

model.encoder.0.bias f4 [9]
0	0xbdd1818b	-0.102297865
1	0xbc8c6c53	-0.017141497
2	0x3cc2df85	0.023788223
3	0xbeaba77d	-0.3352622
4	0xbdb130ec	-0.08651909
5	0x3dd96036	0.10614054
6	0xbd9b1ae5	-0.07573489
7	0xbdfca965	-0.12336997
8	0x3b0722d2	0.002062012

model.encoder.3.weight f4 [2, 9]
0	0xbd5df1c1	-0.054185633
1	0x3e549cb4	0.20762902
2	0x3d8030a7	0.0625928
3	0xbec5e149	-0.3864844
4	0xbe605777	-0.21908365
5	0x3db6ba76	0.08922283
6	0x3de34663	0.110974096
7	0xbe3fcb24	-0.18729836
8	0xbe9299fd	-0.2863311
9	0xbc2063ce	-0.00978942
10	0x3ebfa2f7	0.3742902
11	0x3e7fbe94	0.24975044
12	0x3d51c2f0	0.051211298
13	0x3e68115f	0.22662877
14	0x3e291bdc	0.16514534
15	0xbdba6e13	-0.09103026
16	0x3ddf0280	0.10889149
17	0x3d8d0706	0.06886105

model.encoder.3.bias f4 [2]
0	0x3ef08cbd	0.46982375
1	0x3df87f3c	0.12133643

model.decoder.0.weight f4 [9, 2]
0	0xbebcbac8	-0.36861253
1	0xbf47c65d	-0.78037053
2	0xbec6cdc2	-0.38828856
3	0x3dedcc9c	0.11611292
4	0xbda38218	-0.07983798
5	0xbf23fd14	-0.6405804
6	0xbefe316d	-0.49647084
7	0xbef28ac7	-0.47371504
8	0xbecd784d	-0.40130845
9	0x3dccc190	0.099978566
10	0xbf439aae	-0.764079
11	0xbec63153	-0.38709506
12	0xbe7d4374	-0.24732763
13	0x3cda0d35	0.026617626
14	0x3f0d8b06	0.5529026
15	0xbea83ce3	-0.32858953
16	0xbee2e1de	-0.44312948
17	0x3e4de6f5	0.20107634

model.decoder.0.bias f4 [9]
0	0x3e4da293	0.20081548
1	0x3ea708a8	0.32623792
2	0x3ed75396	0.42055959
3	0x3ee6ff42	0.4511662
4	0x3ec36bb0	0.38168097
5	0x3ee425ad	0.44559994
6	0xbee6693d	-0.45002165
7	0xbea1f192	-0.31629616
8	0x3dcf172d	0.10111842

model.decoder.2.weight f4 [54, 9]
0	0xbea8a577	-0.3293874
1	0xbe65b4bc	-0.22432226
2	0xbcf3f23f	-0.029778598
3	0xbd8e07e1	-0.069350965
4	0xbe2caa23	-0.16861777
5	0x3ddf73de	0.10910772
6	0x3e4b2e5a	0.198419
7	0x3e136013	0.14392118
8	0x3d125a1c	0.035730466
9	0xbe93af5f	-0.28844735
10	0x3df4ab1d	0.119467
11	0xbe166dcb	-0.1469032
12	0x3d6b3356	0.057422005
13	0x3d9b92c3	0.07596352
14	0x3e35ada9	0.17742027
15	0x3e230c5d	0.15922685
16	0xbe936241	-0.287859
17	0x3e95717f	0.29188153
18	0xbe33a57c	-0.17543596
19	0x3e23b84e	0.15988275
20	0x3d1c65ba	0.03818295
21	0xbeef5076	-0.46741074
22	0xbdab4cd8	-0.08364266
23	0xbd22d6fe	-0.039755814
24	0x3e882ba2	0.2659579
25	0xbef599cb	-0.47968897
26	0x3d8cc827	0.068741135
27	0x3d884ed4	0.0665566
28	0xbe21e362	-0.15809396
29	0x3ead83a5	0.338895
30	0x3be9b136	0.007131721
31	0x3e70814b	0.23486821
32	0xbe56204d	-0.2091076
33	0xbeb75981	-0.35810474
34	0xbeeafd54	-0.458964
35	0x3e87f378	0.2655294
36	0xbe7643f0	-0.24049354
37	0x3e1eaa05	0.15494545
38	0xbdec88dc	-0.11549541
39	0x3e2b5dac	0.16734952
40	0xbda5a0d3	-0.080873154
41	0xbccff121	-0.025383534
42	0xbd841bfe	-0.064506516
43	0x3da9c1a5	0.08288888
44	0x3e4f228a	0.2022802
45	0xbdaee734	-0.08540192
46	0xbd8345b2	-0.06409778
47	0xbd1dedba	-0.03855679
48	0xbc8f4f71	-0.017493935
49	0x3e378931	0.17923428
50	0x3e12cfc0	0.14337063
51	0x3e4f7128	0.2025801
52	0xbe1d5eec	-0.15368241
53	0xbd00a925	-0.03141131
54	0x3da5a789	0.080885954
55	0xbd887279	-0.06662459
56	0xbe81f7db	-0.2538441
57	0xbd9798a2	-0.07402159
58	0x3ecb4b1e	0.39705747
59	0xbed92818	-0.42413402
60	0x3eafcfdb	0.3433827
61	0xbe344dbc	-0.17607778
62	0x3d1280d3	0.035767388
63	0x3dcb4899	0.09925956
64	0x3c730503	0.014832738
65	0x3d9ae3c0	0.07562971
66	0xbe443daa	-0.19164148
67	0x3e5c3961	0.21506263
68	0x3d093ac9	0.033503328
69	0xbdee6e7b	-0.11642166
70	0xbed01d82	-0.40647513
71	0x3da94382	0.08264829
72	0xbe219086	-0.15777788
73	0xbe32014c	-0.17383307
74	0x3ced8bb1	0.028997274
75	0x3d2899e2	0.04116238
76	0x3e232ec8	0.15935814
77	0xbcb2c479	-0.021822201
78	0x3e60fe4d	0.21972008
79	0x3e420f03	0.18951039
80	0x3ebfffb9	0.37499788
81	0xbe95fbaf	-0.29293582
82	0x3e965dee	0.29368538
83	0x3e6c2b64	0.23063427
84	0xbd2604d7	-0.04053196
85	0xbd5e615a	-0.05429206
86	0x3d68c092	0.056824274
87	0xbe27bf7d	-0.1638164
88	0xbe698c73	-0.22807483
89	0xbd559ee4	-0.052153483
90	0x3e0e6d8a	0.13908973
91	0xbcdee717	-0.027209802
92	0xbe00a2ec	-0.1256215
93	0xbd439ef9	-0.04775903
94	0xbde5f2bd	-0.11227939
95	0xbd8c354f	-0.06846105
96	0xbd8113de	-0.063026175
97	0xbeb3a7e4	-0.35089028
98	0xbdf64d1b	-0.120264255
99	0x3de85d24	0.1134589
100	0x3e168916	0.14700732
101	0xbd898447	-0.06714683
102	0xbdda43d3	-0.10657468
103	0x3e3bd6c0	0.1834364
104	0x3e1c6ee0	0.1527667
105	0x3e59e070	0.21277022
106	0x3d6a02b0	0.05713147
107	0xbe5f2719	-0.21792258
108	0x3e39e0e6	0.18152198
109	0x3d9266e8	0.07148534
110	0xbd6ba792	-0.057532854
111	0xbda7cdd6	-0.08193557
112	0xbc6f8404	-0.014618877
113	0xbe0ebb1f	-0.13938569
114	0xbd8269f0	-0.06367862
115	0xbec94091	-0.39307073
116	0x3d025234	0.031816676
117	0xbee549ee	-0.44782966
118	0x3db41c50	0.08794463
119	0xbe40e2a8	-0.18836462
120	0xbe8dc22b	-0.276872
121	0x3d93357f	0.07187938
122	0x3d84fac9	0.06493146
123	0xbe8077b0	-0.25091314
124	0xbe63c8d6	-0.22244582
125	0x3d069134	0.03285332
126	0x3e20ec36	0.15715107
127	0x3d20c37c	0.03924893
128	0x3ef497a9	0.47771958
129	0xbdf110a5	-0.11770753
130	0x3e444cf7	0.19169985
131	0x3d00440b	0.03131489
132	0xbcfd9753	-0.030955946
133	0xbe11cc76	-0.14238152
134	0x3e2d66d1	0.16933753
135	0xbe34ec48	-0.17668259
136	0xbe002a16	-0.12516055
137	0x3e5d420d	0.21607228
138	0xbdc2fa3f	-0.09520387
139	0x3e28100d	0.16412373
140	0xbd657ece	-0.056029133
141	0xbdc9d2a0	-0.09854627
142	0xbea90821	-0.33014014
143	0x3dfe8803	0.12428286
144	0xbeb427be	-0.3518657
145	0xbde50281	-0.11182118
146	0xbe8576e5	-0.26067272
147	0x3d5581f4	0.052125886
148	0xbe424462	-0.18971398
149	0x3e5864d5	0.21132214
150	0xbe669728	-0.22518599
151	0x3e0412a2	0.12897733
152	0xbdc1bd91	-0.09459985
153	0x3e98edd0	0.29868937
154	0xbd00d2ae	-0.03145092
155	0xbea33668	-0.31877446
156	0xbd67e183	-0.05661155
157	0xbdceaa6a	-0.10091098
158	0xbdc36061	-0.09539867
159	0x3e84e6e8	0.25957417
160	0xbe2692fa	-0.16267005
161	0x3cf1fa9b	0.029538443
162	0xbdb55221	-0.088535555
163	0x3e0be640	0.13662052
164	0x3e7ab589	0.24483313
165	0xbe42685e	-0.18985125
166	0xbdccaeaf	-0.09994256
167	0xbdae6106	-0.085145995
168	0x3e028e05	0.12749489
169	0xbe89608d	-0.26831475
170	0x3ce2c283	0.027680641
171	0xbbaa2dde	-0.005193456
172	0x3e05bace	0.13059542
173	0x3daa695c	0.08320877
174	0x3de1e0ff	0.11029243
175	0x3e82f709	0.25579098
176	0xbee2859d	-0.44242564
177	0xbe8f8a95	-0.28035417
178	0xbdb7c27d	-0.089726426
179	0x3e84a0c3	0.259039
180	0xbe98b1cb	-0.29823145
181	0x3e331d36	0.17491612
182	0x3dc1a8d0	0.094560266
183	0xbe0079f3	-0.1254652
184	0x3ea03db2	0.3129707
185	0x3da71dcb	0.081599794
186	0xbe855f08	-0.26049066
187	0x3e1335fe	0.14376065
188	0xbd72af53	-0.059249233
189	0xbd588807	-0.0528641
190	0xbdbadc95	-0.09124104
191	0xbea13fe9	-0.31494072
192	0x3deb6bf4	0.114952
193	0x3dd7bd09	0.105341025
194	0x3cd9ec9b	0.02660208
195	0xbe3e061a	-0.18557015
196	0x3dfe863c	0.12427947
197	0x3e9fa283	0.31178674
198	0x3e93138e	0.28725857
199	0x3d0e50a5	0.034744877
200	0xbe55bbb1	-0.2087238
201	0xbe1fc691	-0.15603091
202	0x3ea91acf	0.33028266
203	0xbdf40818	-0.11915606
204	0x3d06e442	0.032932527
205	0x3e1cf5bd	0.15328117
206	0xbdd358b1	-0.10319651
207	0xbebd1a42	-0.36934096
208	0x3e96d14e	0.29456562
209	0xbe781338	-0.24226081
210	0xbe73d9da	-0.23813573
211	0x3d81c726	0.06336813
212	0x3e460892	0.19339207
213	0x3dc55b4e	0.096365556
214	0xbd852853	-0.06501832
215	0x3e3c5773	0.18392734
216	0xbe24ddd6	-0.16100249
217	0x3e8ce315	0.27517
218	0xbe4bf241	-0.19916631
219	0xbf1da8ac	-0.615855
220	0x3eda935a	0.42690545
221	0xbe1e41eb	-0.15454833
222	0x3ddabf8f	0.10681068
223	0xbc791654	-0.015203077
224	0x3eedbc2b	0.46432623
225	0xbe1f1435	-0.15535052
226	0xbeb1fffa	-0.34765607
227	0xbec932c0	-0.39296532
228	0xbe97684c	-0.2957176
229	0xbdcf080d	-0.101089574
230	0x3d90563f	0.070477
231	0xbe39ffca	-0.18163982
232	0x3d468874	0.048469976
233	0xbe91446d	-0.28372517
234	0xbeb99fc9	-0.3625472
235	0x3f1086ae	0.56455505
236	0xbcddfc25	-0.027097771
237	0x3d9bb7e7	0.07603436
238	0x3d3467eb	0.044044416
239	0x3e46281e	0.19351241
240	0xbd448c85	-0.047985572
241	0xbec4a1a3	-0.3840457
242	0x3f1dabe2	0.615904
243	0x3e9f51ff	0.31117246
244	0x3eb140c0	0.34619713
245	0x3b64ef54	0.003493269
246	0x3e9861f9	0.29762247
247	0xbd613ebe	-0.054991476
248	0x3e610eda	0.21978322
249	0xbeb86ad0	-0.3601899
250	0xbecd929d	-0.4015092
251	0x3f02364e	0.5086411
252	0xbeeaeab9	-0.45882204
253	0x3e157826	0.14596614
254	0xbd8863ca	-0.06659658
255	0x3e9a516f	0.30140254

model.decoder.2.bias f4 [54]
0	0x3e44a372	0.19202974
1	0x3dd54efc	0.10415456
2	0x3d42b8e2	0.0475396
3	0xbdc33b24	-0.095327646
4	0x3d3aa95b	0.045571666
5	0x3dd58880	0.10426426
6	0x3db25270	0.0870713
7	0xbd5ae065	-0.053436656
8	0x3d865bb8	0.06560463
9	0xbde15359	-0.110022254
10	0x3d7974b0	0.060902297
11	0x3db6f42d	0.089332916
12	0xbb7d2892	-0.0038628918
13	0xbd7bae26	-0.061445378
14	0x3d89d29e	0.06729625
15	0xbda84314	-0.08215919
16	0x3d9a88bb	0.075456105
17	0x3e2255e2	0.15853074
18	0x3cff9ab6	0.031201702
19	0xbe00a0a9	-0.12561287
20	0xbe0316cc	-0.12801665
21	0x3cb897b0	0.022533268
22	0x3d3f0180	0.04663229
23	0x3d3a8605	0.045537967
24	0x3dff0eb7	0.124539785
25	0x3e280707	0.1640893
26	0xbd31a3ee	-0.043369226
27	0x3cc5b463	0.024133867
28	0xbd1a7025	-0.037704606
29	0x3e68b003	0.22723393
30	0xbdae9222	-0.08523966
31	0x3dcf24f8	0.10114473
32	0x3d0593d5	0.032611687
33	0xbdfc53c8	-0.123206675
34	0x3d139987	0.036035087
35	0xbe076463	-0.13221888
36	0x3d000799	0.031257246
37	0xbdab0f97	-0.08352583
38	0x3dd7fa67	0.10545807
39	0xbdab2c26	-0.0835803
40	0xbdef56c6	-0.116864726
41	0x3cb2b186	0.021813165
42	0x3b8bf7d2	0.004271486
43	0x3deff99f	0.11717533
44	0xbdb9d49e	-0.09073757
45	0x3d7186a9	0.058966313
46	0x3d0d1ee2	0.03445328
47	0x3da8e091	0.08245958
48	0xbdb0bc3e	-0.08629654
49	0xbdf358aa	-0.11882146
50	0x3d7f967f	0.062399384
51	0x3d085af0	0.03328985
52	0xbb9e44d4	-0.0048299823
53	0x3c23a676	0.009988418
