torch_model_storage_26_Jun_2025/model_Early_IA_Error_v_Early_RS_Error_Het CLNZ_Early_RS_Error.pt (torch, 9153 bytes, 8 tensors)

model.encoder.0.weight f4 [9, 53]
00000000: c7c4 b73d 7aa4 b13e 3975 a93c 292c e23d
00000010: fdf4 2dbe 7850 d63e be86 16bd be6a 24be
00000020: 453e 71bd b8df ba3d 44f2 443d 118d 433d
00000030: a609 263e 1e91 633e 3563 833e e24f 5f3e
00000040: 8317 dc3d acb7 ba3d 7c16 533d 14df 053e
00000050: bc3a 253e 9adc ef3d 8dab f53d 8cd5 413e
00000060: 20f9 0b3e e0d4 f93d 9290 2abc c829 0b3e
00000070: 4e9e 023e 92dc 813e 9148 503e 01da 483d
00000080: 2952 0e3c 5cd2 543e 1c47 2b3d 3bab 963e
00000090: 3d3a a8bd bfd7 513d 922e 6f3c d320 b83c
000000a0: 9514 9f3d ff73 9d3e 9e42 5e3e 423e 473e
000000b0: a71f 04be 7af4 b13e f29e 46bc a132 393e
000000c0: 76ca 093e ef99 03be 9b5a a93d 43ec 09bc
000000d0: 16a2 123e 9f12 24bd be29 2dbe eb3d cabd
000000e0: 41ce a6bd fac6 3cbe cc44 7fbe 4755 c6bd
000000f0: 472e 6f3e 8aab 753d 5ef3 57be f391 bcbd
00000100: 5b58 20be a885 0cbe 6717 8dbe ca9d 9abe
00000110: 8f46 a5be 8591 67be 8d09 cb3d 2e72 9ebe
00000120: 7acd bf3b 37ca bfbd 5ea7 d6bd 93ce b2be
00000130: 9149 77be 0268 223d 78c4 58be ff58 ed3d
00000140: 53a7 51be 30c5 09be bb33 24be c49c 51be
00000150: d78a 79be e3d7 853d be2e 6abe 12ee 95bd
00000160: eac0 22be dfd8 acbd 01c8 fabd c489 943d
00000170: 9315 2bbd b31b b1bd 1315 ffbd 024d 08be
00000180: db8d 913b 5cc8 03bd ed0c abbd d72e 4f3c
00000190: f4a7 b6bd a907 63bd c539 c4bd 4b8a 93bd
000001a0: 9928 75bc a64b 5ebe 14c2 74bd 6055 3cbe
000001b0: be8f 72be 4656 04be 9a08 1a3b 5ad7 3ebe
000001c0: 267d f1bd 85ee 933d 6f1e debd 72c3 76be
000001d0: bb64 6fbd 63ce 053d 0ba4 b5bd 7a9f 06be
000001e0: dfa3 dabd 7bfa 49bd e408 c8bc e896 30bd
000001f0: 5a72 5dbe 039b f1bc c18e 143d edfe 09be
00000200: 920c 32be 6a00 2dbe d9b2 96bd 49b9 79be
00000210: f795 75bc 8d5a f43d 500c 32bd d85c 45be
00000220: 63f9 36be ed8b 01bd 4202 2fbd 4a6f 66bc
00000230: 4dde 2cbe 6374 89be f243 6abc 8764 38be
00000240: 6b03 383d c49a e73b e5ce d9bd 169b 0bbe
00000250: 78c0 2abe 393a 2fbe 4851 153d e20b d7bd
00000260: e8d5 c43c c35a 73be eb25 2dbd 2f20 6fbd
00000270: 0b80 46be f50d ffbc db88 81bc 3327 10bd
00000280: faa7 51be 0bd6 15bd b05b 18bd 1883 62be
00000290: e098 05be ed2c 963c 3c15 7f3e 071e 1fbe
000002a0: 6b08 92bb 9d9b 163d 4a16 bcbc da38 f7bd
000002b0: 8a40 2bbd d21f dcbd 3d14 b7bd d524 6e3d
000002c0: a850 2bbe ee29 3abe 23e5 eabd a994 f33c
000002d0: 9365 a8bd 793c 89bd aa70 b23c 6477 a1be
000002e0: b5c1 653d 7e92 96bd ece5 42bb 978b ebbd
000002f0: 28a5 2dbd 3343 813d 736f 73bc 8ecd 11bd
00000300: 9f32 aabc ebfe b03d 9028 66be 503a 8ebd
00000310: 5141 1fbe c718 9c3d f813 67be 2f37 16be
00000320: 7dbc 02bd c8f0 08be a798 0e3d b457 793e
00000330: eb89 f9bd b6aa b6bd c473 fabd b922 fbbc
00000340: 92f2 babc 57e9 403d 7bb4 273e 0d69 41be
00000350: 7706 353e 632b 813e 0751 fc3b b5fa 473d
00000360: cbc5 c93e 4260 213e 6703 62bc 3643 913a
00000370: 319a 9f3c ed9e 443b 8499 b13d 49de f43d
00000380: f973 b83d c356 673e 1dca 853e b03f e03d
00000390: 04a5 2d3e ef09 4a3d fcc6 c33d de53 c03d
000003a0: b656 023e 3adc 4cbd 811d 843e e8ab 203e
000003b0: 01e4 cebc c413 4c3e bb56 d2bd a85f d43c
000003c0: cf8a 643e f7b2 ff3c e81e c73d bf0e b73d
000003d0: 8fe4 40be 3034 ff3d ac37 80bd ed06 1a3e
000003e0: d9ac 9d3c f2e6 a33d 698f 39bc ac91 7ebc
000003f0: 5494 f63b 03a9 2d3e d4bc 213e f7dd 603d
0.08973079 0.34695798 0.020685779 0.11043579 -0.16987987 0.41858268 -0.036749594 -0.16056344
-0.058897275 0.09124702 0.048082605 0.047741953 0.16214618 0.22223327 0.25661626 0.21807817
0.10746672 0.09117064 0.051535115 0.13073379 0.16135687 0.11711998 0.11995611 0.18929118
0.13669252 0.12198806 -0.010410445 0.13590157 0.12755701 0.25363594 0.20340182 0.04903603
0.008686581 0.2078337 0.041815862 0.29427513 -0.08214233 0.051231142 0.014598506 0.02247659
0.077675976 0.3075256 0.217051 0.19457343 -0.129027 0.34756833 -0.012122856 0.1808572
0.13456139 -0.1285169 0.08269235 -0.008418146 0.14319643 -0.04005682 -0.16910455 -0.09875091
-0.081448086 -0.18435279 -0.24928588 -0.09684234 0.23357497 0.059978046 -0.21088931 -0.09207525
-0.15658705 -0.13722861 -0.27556917 -0.30198509 -0.32280394 -0.22614105 0.09913931 -0.30946487
0.005853352 -0.09364741 -0.104811415 -0.3492323 -0.24149157 0.03964997 -0.21168697 0.1158924
-0.20473985 -0.13454127 -0.16035359 -0.20469958 -0.2436937 0.06535318 -0.22869393 -0.07320799
-0.15893903 -0.084398024 -0.12245179 0.07252839 -0.04176862 -0.08647861 -0.124551915 -0.13310626
0.0044419593 -0.0321735 -0.08352075 0.012645445 -0.08918753 -0.055427227 -0.09581331 -0.07204112
-0.0149632925 -0.21708545 -0.0597554 -0.18391943 -0.23687646 -0.12923536 0.0023503662 -0.18636838
-0.11791448 0.07223228 -0.108456485 -0.24097994 -0.058445673 0.03266753 -0.08869179 -0.13146773
-0.10675787 -0.049311142 -0.024418302 -0.043112665 -0.21625653 -0.02949286 0.036268953 -0.13476153
-0.17387608 -0.16894689 -0.07358331 -0.24387087 -0.014989368 0.11931334 -0.043468773 -0.19273698
-0.17868571 -0.031627584 -0.042726763 -0.014064619 -0.16881676 -0.2684661 -0.014298426 -0.18007098
0.044925135 0.00706801 -0.10635165 -0.1363338 -0.16674984 -0.17112054 0.03645447 -0.10500313
0.02402778 -0.23765092 -0.04227249 -0.058380302 -0.19384782 -0.031134585 -0.015812328 -0.035193633
-0.20474234 -0.03658108 -0.037196815 -0.22120321 -0.13046598 0.01833197 0.24910444 -0.15538798
-0.00445657 0.0367695 -0.022959847 -0.120713905 -0.041809596 -0.10748257 -0.08939407 0.058140595
-0.16729987 -0.18180057 -0.114694856 0.029733973 -0.08222499 -0.06700987 0.021782238 -0.315364
0.056092937 -0.0735216 -0.0029739095 -0.11501234 -0.042393833 0.06311645 -0.0148581145 -0.035596423
-0.020776091 0.08642372 -0.22476411 -0.06944716 -0.1555226 0.076219134 -0.22566211 -0.14669488
-0.031918038 -0.13373101 0.03481355 0.24349862 -0.12184509 -0.08919279 -0.12229112 -0.030656205
-0.022820745 0.04709753 0.16377442 -0.1888773 0.17678247 0.25228414 0.007700089 0.048823077
0.39408717 0.15759376 -0.0137947565 0.0011082652 0.019482704 0.0030001954 0.08671859 0.1195646
0.09006495 0.2259169 0.26130763 0.109496474 0.1695748 0.04932588 0.09559438 0.093909964
0.1272839 -0.050014712 0.2580376 0.15690577 -0.025255205 0.19929415 -0.10270449 0.025924519
0.22318576 0.031213267 0.09722692 0.089383595 -0.18837188 0.12461126 -0.062606186 0.15041704
0.01924746 0.08003034 -0.011325696 -0.015537661 0.0075250063 0.16959004 0.15794688 0.054899182

model.encoder.0.bias f4 [9]
00000000: 67e9 47bb 9f08 563d 925b a83c 2f6a 14bd
00000010: 774b 823d e0fa 30be 65a4 883d 4b10 5ebe
00000020: 138d 923e
-0.003050411 0.052254315 0.020551477 -0.036234077 0.0636205 -0.17283201 0.06671981 -0.21685903
0.28623256

model.encoder.3.weight f4 [2, 9]
00000000: 4e47 45be 8a99 b3bd d431 af3d f1ee 88bd
00000010: ff4e 693e 8b88 053e 75c1 53be 65cb 9bbe
00000020: 4965 f53e c9ed 26bd 1772 783e a156 f13d
00000030: 957c 2a3d cf90 45be 1bdc 22be b247 9c3e
00000040: c83d a3be 4213 303e
-0.19265482 -0.087695196 0.08554426 -0.066861995 0.22784041 0.13040368 -0.20679267 -0.30428615
0.47928837 -0.040754113 0.24262272 0.11784101 0.041622717 -0.19293521 -0.15904276 0.3052345
-0.31883073 0.17194846

model.encoder.3.bias f4 [2]
00000000: 676b 443d 460a bb3e
0.04795399 0.36531276

model.decoder.0.weight f4 [9, 2]
00000000: c786 7dbe dd4d e13e 495e 873e 975b 53bf
00000010: e178 14bf c542 3c3b 9023 d6be 8cb7 813e
00000020: ab29 27bf 5e39 a03e 010a 7e3e 99f6 263f
00000030: 9aba f0be e20f d9bd bf71 f43e 87e3 403d
00000040: e166 b3be bf37 61bd
-0.24758445 0.44004717 0.2643912 -0.8256163 -0.57996947 0.0028726321 -0.41824007 0.25335348
-0.65297955 0.31293768 0.24808504 0.6522003 -0.47017366 -0.105987325 0.4774303 0.047091987
-0.35039428 -0.054984804

model.decoder.0.bias f4 [9]
00000000: ec53 86be 3e41 fe3d c698 95be 33cb 5e3e
00000010: 4872 28bd fb55 97be 5708 653e 62ea 923e
00000020: 7c3e 8d3e
-0.26235902 0.12414788 -0.2921812 0.21757202 -0.041124612 -0.29557785 0.22366463 0.28694445
0.27586734

model.decoder.2.weight f4 [53, 9]
00000000: e94b 783e ea7d 943e 8d08 2a3d 2ace a7be
00000010: 5893 0cbe 4af1 263e 552f 7d3e 1f41 15be
00000020: 0a48 f2bd d9df 2c3e 1e8c cc3e e2c6 773e
00000030: b506 b9be 6411 873e 2cff 90be f3dc f93d
00000040: 1b2a 213d a966 48be 50b5 73bd ba4d 03be
00000050: 4411 89bd f4d0 0abe fb04 6d3e 7800 78be
00000060: d64b 873d a028 2dbd 75e5 8abd 08ce c8be
00000070: ae93 d93d 7410 223d 14af 413e 1fca 45be
00000080: e599 e5bd 55a2 4e3d 66e2 8f3d 9c0b 3d3e
00000090: 13b7 a2be fae5 243f d519 f1bd de62 12bf
000000a0: 5bb9 30bf 45cb 0e3f 447e 2dbf e16d 063f
000000b0: 9a32 3ebf f466 593e 0ee2 d23e 2fb1 1c3e
000000c0: 6d79 0fbe 2308 c93e e23d 95be 0947 e4bd
000000d0: e1f6 513c 9292 593c b37f 1ebe 7879 e03d
000000e0: ae6e 1538 e625 32be 0c9a 253e 0155 0a3e
000000f0: cdaf 47be f52f 9abe 9df9 453e de29 9d3c
00000100: bd08 4bbb faa0 a3bd f57e 573e 5e68 01be
00000110: f49e 493e db8a 4e3e 3dd2 42bd d270 75be
00000120: b4dc 4f3e ec5b 773d 5c8c 6ebd 1e1b f53d
00000130: ad86 2fbe 3ab4 073e 20a4 413e f5c2 ae3e
00000140: d402 2abe 5696 15be 3f53 693c 65c2 a53d
00000150: 5b07 b2be ce9a 89bc b1f5 afbe 8e88 82be
00000160: 6679 2ebe 5f4e 863e 52fe dfbe 562c 533e
00000170: 17f5 9ebe c705 ca3e 4195 863e cc98 40be
00000180: cf9c 323e 2017 c93d 332b 1abe 05a5 83be
00000190: e456 b73d 3f39 ba3e 7904 2a3e df29 bdbe
000001a0: 9fec eb3c c7d5 093e 658b 77bd 9f83 6b3d
000001b0: 536a 00be 89bc 1fbe a185 323c 561f 53bd
000001c0: 4242 40be 32e8 60be 27db 8c3e 6f91 8f3d
000001d0: 544a 13be 5dd4 40be 445e bd3e 79ac 883d
000001e0: 0618 a4bd 8cc7 623e 78e5 4fbd 46ae 87be
000001f0: 0874 b8be 85d6 80be 8669 01bc f3f3 0d3f
00000200: e2a4 d0be 0a26 d0bd 35df 57be 0fa4 c6be
00000210: ab8c c13e 72fd 943e d261 b73d db87 dfbe
00000220: 3c9c 323d 8aeb e2be 7466 00bd ba9c 00be
00000230: 8114 adbe c272 02bc b2d6 fd3d f252 573e
00000240: 5454 95be e7aa 803e 3abe bfbd 5047 7e3e
00000250: ff1a aebc f324 cebd 2020 38be d758 e5bd
00000260: 0d03 293e 1b06 00be 5cb1 0bbe 2192 8bbe
00000270: f48f 653e f828 54bd fc7a cfbd 45ee 1dbe
00000280: 01c4 acbe 2cd6 a4be 4dae 12be fee3 ba3e
00000290: 6eeb 303d 1c22 9ebe bc84 b6bd bdf9 93be
000002a0: 8d9f db3b 9a12 11be 5c3e c13e 62e0 843e
000002b0: aeaf 4a3d 9621 b8bd eba8 98be 7f0f 783d
000002c0: 8642 83be e95b b43d ff2c 133e d6c0 1a3e
000002d0: 1699 08be ce0f aa3e 183a fabd 496b 3f3d
000002e0: a78c 37bd 18c2 343d a4eb 2cbd b807 7ebe
000002f0: 1981 b8be c0cd 963d 7a66 0a3e 1c63 8f3e
00000300: 4dfe 283e 3cd1 a0bd 4ca9 03be a585 87be
00000310: 8922 cabd f807 0b3d c180 87be c45e a63e
00000320: 4198 18bf fb02 70bd 74df b4be 7624 84be
00000330: f6b8 c4be d166 943e ed54 923c 938b 8cbe
00000340: 86c0 8c3d 2f16 adbe eee9 0ebe 27a6 823d
00000350: a0d6 b6be b0de 89bd d0cf e0bd eb0c f23e
00000360: e60e 103e a22a d33d 1f2d ef3d f5dd f13c
00000370: 33a7 6b3d cbfa b6bc 3966 42be b3ed 1a3b
00000380: 3fdd 5c3e a1a4 e9be 4832 83bb e923 643d
00000390: 5d9d 793d 88ce 06be c290 e3be 7d26 ed3e
000003a0: 9514 233e 841c 9fbd b5c9 19be 7b0f aebe
000003b0: ed6b 823c dac5 133c a019 043d 1152 a63e
000003c0: 47ff ae3e b129 883e 57f1 b63e 03d0 6bbe
000003d0: ad75 523e 73de 98be 0358 543e ad74 de3d
000003e0: b6dd 6a3e 884e 90bd c92b 17be e104 3fbd
000003f0: aff2 4abe 613e eb3e 6fa8 25be bfcf e9bd
0.24247707 0.29002315 0.04151206 -0.32774478 -0.13728082 0.16302982 0.24725087 -0.14575623
-0.118301466 0.16882266 0.3995065 0.24196962 -0.3613793 0.26380455 -0.2831968 0.12200346
0.039346796 -0.19570412 -0.059499085 -0.12822619 -0.06692746 -0.13556272 0.23146431 -0.24218929
0.066062614 -0.04227507 -0.06782047 -0.3921969 0.10623871 0.039566472 0.18914443 -0.19315384
-0.11210994 0.05044778 0.07025604 0.1846146 -0.317803 0.64413416 -0.11772505 -0.5718211
-0.6903283 0.55778915 -0.6777079 0.5251141 -0.7429596 0.2123068 0.4118809 0.15301965
-0.14011164 0.3926402 -0.29148775 -0.111463614 0.012815208 0.013279574 -0.15478401 0.10960668
3.5627447e-05 -0.1739727 0.16172045 0.13508989 -0.19500656 -0.30114713 0.19333501 0.019185003
-0.003098055 -0.07989688 0.21044524 -0.12637469 0.19689542 0.20170157 -0.04756378 -0.23968819
0.20299035 0.060390398 -0.058239326 0.11968063 -0.17141218 0.13252345 0.18910265 0.34133115
-0.16602641 -0.1460813 0.014241039 0.080937184 -0.34771237 -0.01679745 -0.34367135 -0.25494808
-0.17038497 0.26231667 -0.43748719 0.20622382 -0.31046364 0.39457533 0.26285747 -0.18808287
0.1744263 0.09818864 -0.15055542 -0.25711837 0.0895212 0.363718 0.16603269 -0.36946008
0.028799353 0.13460456 -0.06043567 0.05749857 -0.1254056 -0.15599264 0.010896117 -0.051543556
-0.18775275 -0.21963575 0.2751095 0.07010161 -0.14383823 -0.1883101 0.3698598 0.066735215
-0.080123946 0.22146434 -0.050755948 -0.26500148 -0.36026025 -0.25163665 -0.007898694 0.5545036
-0.40750796 -0.101635054 -0.2108124 -0.38797042 0.37802634 0.29099613 0.089542046 -0.43658337
0.043606028 -0.44320327 -0.031347707 -0.12559786 -0.33804706 -0.007961931 0.123944655 0.21027735
-0.291659 0.25130388 -0.09362455 0.24831891 -0.021253107 -0.10065641 -0.17981005 -0.111985855
0.1650507 -0.12502329 -0.13641876 -0.27259925 0.22418195 -0.051796883 -0.10130879 -0.15422924
-0.3374329 -0.3219465 -0.14324303 0.3650207 0.043193273 -0.30885398 -0.08912036 -0.28901473
0.0067023695 -0.14167252 0.3774289 0.2595244 0.049483947 -0.08990781 -0.29816374 0.060561653
-0.2563669 0.08806593 0.14372633 0.15112624 -0.13339648 0.33215183 -0.12218112 0.046733174
-0.04481187 0.044130415 -0.042216912 -0.24807632 -0.36035994 0.073634624 0.13515654 0.28005302
0.16503258 -0.07852408 -0.1285755 -0.2646915 -0.09869868 0.033943146 -0.2646542 0.32494175
-0.5960732 -0.058596592 -0.3532673 -0.25809067 -0.38422364 0.28984693 0.017862761 -0.27450237
0.068726584 -0.33805987 -0.13956425 0.06379347 -0.3571062 -0.067319274 -0.10977137 0.4727548
0.14068183 0.10310866 0.11678528 0.029524783 0.0575325 -0.022336384 -0.18984307 0.0023640215
0.21568774 -0.45633414 -0.0040037967 0.05569831 0.06094109 -0.13164723 -0.4444638 0.46318427
0.1592582 -0.07769111 -0.15018351 -0.33996186 0.015920604 0.009019339 0.032251 0.32484487
0.34179136 0.26594308 0.35731003 -0.23028569 0.20552702 -0.29857215 0.20736699 0.10862098
0.22936139 -0.07046229 -0.14762796 -0.046635512 -0.19819139 0.4594603 -0.16177534 -0.114165775

model.decoder.2.bias f4 [53]
00000000: ee98 2d3e eb93 0a3e 484a b23d 9b02 353d
00000010: ce0d d23d 90e6 fd3d e452 ed3d 24c4 753d
00000020: e0d2 a73d b1e5 b93d 0247 01be a830 d23c
00000030: c504 18bd 2f90 4a3e 2ca6 27bd 75fe 0cbe
00000040: a631 aebc ee37 723e c97f d03d 77d4 21bc
00000050: ee4a eb3d 75a0 cf3d afb3 863c e4a1 f9bc
00000060: 1756 093d ce40 c8bc 0ed5 a73d b1c0 0dbd
00000070: 7658 173d 3ced a8bd 4498 e1bd 954b 203d
00000080: 1581 aa3d c2b7 fb3d cfa8 a53c 3d14 993d
00000090: d89e 083d 6b90 f8bc df08 d8bd edf4 54bd
000000a0: 2a75 a73c 31bd 913d 1ab4 9cbd 891a edbd
000000b0: c083 123e ddc1 063e a02a 073e be35 a7bd
000000c0: 1fdd 3ebd de2a 3b3a 2176 8a3e 1945 cc3d
000000d0: 7b8c d4bd
0.1695287 0.13532989 0.08705574 0.044191938 0.10256539 0.12397492 0.11588076 0.060001507
0.08194518 0.09077013 -0.12624744 0.025657967 -0.037113924 0.19781564 -0.04092996 -0.13768943
-0.021263909 0.23654148 0.10180623 -0.009877316 0.11488901 0.101380266 0.016443102 -0.030472703
0.033529367 -0.024444964 0.08194934 -0.034607593 0.036949597 -0.08248374 -0.110153705 0.03913458
0.08325402 0.122909084 0.020222096 0.07474563 0.03335461 -0.030342301 -0.10548567 -0.051991392
0.02044161 0.071161635 -0.07651539 -0.11577327 0.14308071 0.1315989 0.13199854 -0.081645474
-0.046597596 0.00071398716 0.2704325 0.09974117 -0.10378357
