torch_model_storage_26_Jun_2025/model_Early_IA_Correct_v_Early_RS_Correct_WT CLNZ_Early_IA_Correct.pt (torch, 13703 bytes, 8 tensors)

model.encoder.0.weight f4 [9, 107]
0	0xbd9df79a	-0.07713242
1	0x3b048302	0.0020219688
2	0x3df96d90	0.121791005
3	0xbd797df0	-0.06091112
4	0xbcba6778	-0.022754416
5	0x3c6dbe8c	0.014510762
6	0xbd01e7d8	-0.031715244
7	0x3d614cdd	0.055004943
8	0xbe5673d3	-0.20942621
9	0xbc53e845	-0.012933795
10	0x3c1548ed	0.009111625
11	0x3b20efe9	0.002455706
12	0xba953290	-0.0011382867
13	0xbdfe03c3	-0.12403061
14	0xbde06b2a	-0.1095794
15	0x3e18530e	0.14875433
16	0x3c7dd364	0.015492294
17	0x3d0cee18	0.03440675
18	0xbe1cc990	-0.15311265
19	0xbe04765b	-0.12935774
20	0x3de9cea5	0.114163674
21	0x3c5d91cc	0.01352353
22	0xbdca9cff	-0.09893226
23	0xbba69f8f	-0.005084939
24	0x3d67eb56	0.05662092
25	0xbe04ab26	-0.12955913
26	0xbdc97807	-0.098373465
27	0xbaf9e162	-0.0019064362
28	0xbdd6658e	-0.10468589
29	0xbc0f5a7c	-0.0087496005
30	0xbe25ec05	-0.16203316
31	0xbdf3bfd1	-0.119018205
32	0x3c906d01	0.017630102
33	0xbd292564	-0.041295424
34	0x3d232384	0.039828792
35	0xbd1e34e6	-0.038624667
36	0x3ca4d221	0.020119729
37	0xbd9b01ce	-0.075687036
38	0xbe0ead89	-0.13933386
39	0x3ce6d9b7	0.028179986
40	0xbc2e37f7	-0.01063346
41	0xbc722301	-0.014778853
42	0xbdccbe90	-0.099972844
43	0x3ddfcfac	0.10928282
44	0xbe05db48	-0.1307193
45	0xbb508535	-0.0031817679
46	0xbc6961c0	-0.014244497
47	0xbdfd18a5	-0.12358216
48	0xbe20550e	-0.15657446
49	0xbe7bb9a8	-0.24582541
50	0x3cbdbea1	0.023162188
51	0x3c2c66aa	0.010522524
52	0xbe3e74a5	-0.18599184
53	0x3db94aa6	0.09047441
54	0xbd8cc873	-0.0687417
55	0xbe3ee6f7	-0.18642794
56	0xbdb67cc9	-0.0891052
57	0xbd269646	-0.040670656
58	0x3b54fe35	0.0032500152
59	0xbd51affa	-0.051193215
60	0xbcda16ee	-0.026622262
61	0xbdd90b71	-0.105978854
62	0x3d99bfb4	0.075072676
63	0xbc99b902	-0.018764976
64	0x3d0c20db	0.03421102
65	0x3d8d9358	0.06912869
66	0xbd9bf778	-0.0761556
67	0xbd6b6db2	-0.05747766
68	0xbd32543f	-0.043537375
69	0xbd96e7e6	-0.0736845
70	0xbddee259	-0.10883016
71	0xbcb268fc	-0.021778576
72	0x3d338773	0.043830346
73	0xbd65edc8	-0.05613497
74	0x3dbd4606	0.092418715
75	0xbddc2a69	-0.107502766
76	0xbe39b9c3	-0.18137269
77	0x3c495c11	0.012290017
78	0xbcd90e30	-0.026496023
79	0xbe0f8a45	-0.1401759
80	0xbd58d511	-0.05293757
81	0xbe128ffa	-0.14312735
82	0x3a93a8a4	0.0011265469
83	0x3ce2b441	0.027673842
84	0xbe110883	-0.14163403
85	0xbda3ba8b	-0.079945646
86	0x3d8d2417	0.06891649
87	0x3c0db057	0.008648
88	0xbda42137	-0.08014148
89	0x3ce33ed6	0.027739923
90	0xbda3cbde	-0.07997869
91	0xbe7766b1	-0.24160267
92	0x3d2cfd7f	0.04223394
93	0xbcd7f674	-0.026362635
94	0xbc27c894	-0.010240693
95	0x3e307da2	0.17235425
96	0xbddeae62	-0.10873105
97	0xbda4d6c3	-0.08048775
98	0x3da941a0	0.0826447
99	0x3c8b10fc	0.016975872
100	0x3d5f9581	0.054585937
101	0xbd0c0591	-0.034184996
102	0x3c936ac1	0.01799524
103	0x3ddec30e	0.108770475
104	0x3da1e719	0.079054065
105	0x3c6b7bfd	0.014372823
106	0xbcdac4f2	-0.026705239
107	0xbba6de0a	-0.005092387
108	0xbd7ce36b	-0.06174032
109	0x3e1fd6c7	0.15609275
110	0x3ce419c2	0.027844314
111	0x3cd9e7af	0.026599733
112	0xbda8d889	-0.08244426
113	0xbd87ec5b	-0.06636878
114	0x3e043310	0.12910104
115	0xbdde1dd7	-0.10845535
116	0xbdb5e3be	-0.08881329
117	0xbdf5a541	-0.1199441
118	0xbddac57b	-0.10682198
119	0xbda0dacb	-0.078542314
120	0xbe0b98da	-0.13632527
121	0xbda101ac	-0.07861647
122	0xbdadf8e0	-0.08494735
123	0xbe021731	-0.1270416
124	0xbdbb6b6d	-0.09151349
125	0xbb9e26c7	-0.0048264
126	0xbd0de05d	-0.034637798
127	0xbde87df4	-0.11352149
128	0xbc25890b	-0.010103474
129	0xbde483e6	-0.1115797
130	0x3d80b12f	0.06283795
131	0x3d9217ad	0.07133422
132	0xbdc35f58	-0.0953967
133	0x3cdaa61c	0.026690535
134	0x3c28d8c6	0.010305589
135	0xbd87c709	-0.0662976
136	0xbbe0cdf1	-0.0068604876
137	0xbd1c6eeb	-0.038191717
138	0xbd78b671	-0.060720865
139	0xbe0cfd01	-0.13768388
140	0xbd1a8839	-0.03772757
141	0xbde9f377	-0.1142339
142	0xbce383dd	-0.027772838
143	0xbcbf4bb2	-0.023351524
144	0xbe017f11	-0.12646128
145	0x3dbb84aa	0.09156163
146	0x3dc4ed4a	0.09615572
147	0xbca99f06	-0.020705711
148	0xbd408b52	-0.047007866
149	0xbde607d4	-0.11231962
150	0x3dc9e9e6	0.09859066
151	0xbdb44e43	-0.0880399
152	0xbcfa7111	-0.030571492
153	0xb9152fbc	-0.0001422753
154	0xbe00a138	-0.125615
155	0xbe2f35db	-0.17110388
156	0xbe1cd48f	-0.1531546
157	0xbe44f741	-0.19234945
158	0x3a614a86	0.00085941737
159	0xbd5c8910	-0.05384165
160	0x3e34fa63	0.1767364
161	0xbd86c942	-0.06581356
162	0xbd7ae0d4	-0.06124957
163	0xbd1106ad	-0.035406757
164	0x3d07b822	0.033134587
165	0xbd1f1068	-0.038834006
166	0x3b157e0e	0.002281073
167	0xbe0e284f	-0.13882564
168	0x3cfef44d	0.031122351
169	0x3c7a342c	0.015271228
170	0xbd88d3c8	-0.06681019
171	0xbd840826	-0.06446867
172	0x3cb71484	0.02234865
173	0xbd76e571	-0.060277406
174	0xbad3a432	-0.0016146956
175	0xbdcdfa12	-0.10057463
176	0xbd572fea	-0.05253593
177	0x3c51fa8d	0.012816084
178	0xbd5153f1	-0.051105443
179	0xbd9793d3	-0.07401242
180	0xbca3f0b9	-0.020012246
181	0xbc686406	-0.014184004
182	0x3d206060	0.03915441
183	0xbe337a4f	-0.17527126
184	0xbdde98b8	-0.108689725
185	0xbdad8e02	-0.084743515
186	0xbe244bbf	-0.1604452
187	0x3c546f9d	0.012966064
188	0xbdaee2ee	-0.08539377
189	0x3d3c6d80	0.046002865
190	0xbcb0ce84	-0.02158285
191	0xbe070448	-0.13185227
192	0xbcbb92aa	-0.022897083
193	0x3d5ea965	0.054360766
194	0xbe01e9c4	-0.12686831
195	0xbd5fa12b	-0.05459706
196	0xbe35211e	-0.17688414
197	0xbdf109db	-0.11769458
198	0xbe301844	-0.17196757
199	0xbd72834c	-0.059207246
200	0xbdaeba8f	-0.08531677
201	0xbde57ac4	-0.11205056
202	0xbc1a4b2b	-0.0094173355
203	0xbc97c369	-0.018525796
204	0x3e1d8496	0.15382609
205	0x3dc30d76	0.09524052
206	0xbe198e05	-0.14995582
207	0xbd9591e6	-0.073032185
208	0xbd9d7626	-0.07688551
209	0xbe012472	-0.12611559
210	0x3d4ecdef	0.050489362
211	0x3e40d706	0.18832025
212	0xbd8af99d	-0.06785891
213	0xbcdfe6c3	-0.027331715
214	0xbc12ea14	-0.008966941
215	0xbd87829f	-0.06616711
216	0xbdc61456	-0.096718475
217	0xbd5496f0	-0.051901758
218	0xbd14178b	-0.036155265
219	0x3dd72494	0.105050236
220	0xbd90dc04	-0.07073215
221	0xbe666025	-0.22497614
222	0x3e997a49	0.2997611
223	0x3d76c8f8	0.060250252
224	0xbc2da551	-0.0105984965
225	0xbd8a53a7	-0.06754237
226	0x3c8d692d	0.017262066
227	0x3df72707	0.12067991
228	0xbe012ebd	-0.12615485
229	0xbd055a6a	-0.03255693
230	0xbd92f46f	-0.07175528
231	0xbd88dff3	-0.0668334
232	0x3d9a2a0e	0.075275525
233	0xbd1ef470	-0.038807333
234	0xbe1f5ba1	-0.15562297
235	0xbb3a2271	-0.0028401876
236	0x3b6b4c0c	0.0035903482
237	0xbd9c30cd	-0.076264955
238	0xbe35141f	-0.17683457
239	0x3d83a7ed	0.06428514
240	0xbd28a026	-0.041168354
241	0xbd9d560e	-0.07682429
242	0x3c5437c6	0.012952751
243	0x3d582c96	0.052776895
244	0x3cf95717	0.030437035
245	0x3d5a7c49	0.053341184
246	0x3d88bd86	0.06676774
247	0x3d89839f	0.06714558
248	0xbdb603a3	-0.088874124
249	0x3d3bb878	0.04583022
250	0xbd4e6f62	-0.05039919
251	0x3c1fe69b	0.0097595705
252	0xbd10098a	-0.035165347
253	0xbda32c42	-0.07967426
254	0xbcec1db8	-0.028822765
255	0x3cb78ebd	0.02240693

model.encoder.0.bias f4 [9]
0	0xbeae4904	-0.34040082
1	0xbd8e694f	-0.0695368
2	0x3da0a89e	0.07844661
3	0x3e1c7c9d	0.15281911
4	0xbe3c4d69	-0.18388905
5	0xbdc36143	-0.095400356
6	0xbcb58c4a	-0.022161622
7	0xbe4edfd0	-0.20202565
8	0xbe87820c	-0.26466405

model.encoder.3.weight f4 [2, 9]
0	0x3e73e5bc	0.23818105
1	0x3e2d72c7	0.16938315
2	0xbe3edc9b	-0.18638842
3	0xbe6cb2b5	-0.23115046
4	0x3d0e962a	0.034811176
5	0x3dc782da	0.09741755
6	0xbdcbe9e2	-0.09956719
7	0xbdc2fa36	-0.0952038
8	0x3e6db7b2	0.23214605
9	0xbe5278e9	-0.20553936
10	0x3e390ed4	0.18072063
11	0x3d451211	0.048112933
12	0xbcb9d7e3	-0.02268595
13	0xbd66afaf	-0.05631989
14	0xbe600f5e	-0.21880862
15	0xbe4622af	-0.19349168
16	0xbd0fe239	-0.035127852
17	0xbe000bef	-0.12504552

model.encoder.3.bias f4 [2]
0	0xbeb6c6d1	-0.3569856
1	0xbdb8fdb6	-0.090327665

model.decoder.0.weight f4 [9, 2]
0	0x3e13a995	0.14420159
1	0x3f04465c	0.5166986
2	0xbea519d3	-0.32246265
3	0x3e65ef52	0.22454575
4	0x3eb39af1	0.35079148
5	0x3eba6667	0.36406252
6	0x3eee5fbd	0.46557418
7	0x3f16d8c6	0.5892452
8	0xbf19659a	-0.59920657
9	0xbd54d884	-0.051964298
10	0x3e5d2377	0.2159556
11	0x3f0e6862	0.55628026
12	0x3eb46136	0.35230416
13	0x3d1dd482	0.03853274
14	0xbe32a809	-0.17446913
15	0xbf18b03d	-0.5964392
16	0x3f4c584e	0.7982224
17	0xbebbbd71	-0.3666797

model.decoder.0.bias f4 [9]
0	0x3e8f3e5e	0.2797727
1	0xbebc8986	-0.36823672
2	0xbe17b1fa	-0.14813986
3	0x3eec87b8	0.46197295
4	0xbe3f25f6	-0.18666825
5	0xbe22c88d	-0.15896817
6	0xbee692b0	-0.4503379
7	0xbd67c1ba	-0.056581236
8	0x3e9430dc	0.28943527

model.decoder.2.weight f4 [107, 9]
0	0xbc21e995	-0.00988235
1	0x3e3610b9	0.17779817
2	0xbe8204cb	-0.25394282
3	0x3e17acb0	0.14811969
4	0x3d98fff9	0.07470698
5	0xbe7b4dd0	-0.24541402
6	0x3e2a9e2f	0.16661905
7	0x3dd1eb32	0.10249938
8	0x3db0f856	0.08641116
9	0xbed4c860	-0.41559124
10	0xbe2fb216	-0.17157778
11	0xbea85e7f	-0.32884595
12	0xbd51e26e	-0.05124133
13	0xbdb225dd	-0.08698628
14	0xbe1d2578	-0.15346324
15	0xbdf519cb	-0.1196781
16	0x3e14103e	0.14459321
17	0x3e815c87	0.25265905
18	0x3ea47d6b	0.32126936
19	0xbe7aeea7	-0.24505101
20	0x3b169206	0.002297522
21	0xbdb11e79	-0.0864839
22	0xbee70f52	-0.45128876
23	0x3cae0bfe	0.021245953
24	0xbeb2e44c	-0.34939802
25	0xbd95e711	-0.07319463
26	0x3f15312a	0.58278143
27	0xbeb97fdc	-0.3623036
28	0xbe31037f	-0.1728649
29	0xbe953c35	-0.29147497
30	0x3dd4bb95	0.10387341
31	0x3da99063	0.08279493
32	0x3d8fa9a9	0.07014782
33	0xbdd48aa3	-0.10378005
34	0x3e4c9f3a	0.19982615
35	0x3ce7d4a4	0.028299637
36	0xbe08d38c	-0.13361949
37	0xbc5b8e76	-0.013400665
38	0xbde243e0	-0.110481024
39	0xbd2ebb64	-0.04265918
40	0xbe068043	-0.13134865
41	0xbeee40f1	-0.4653392
42	0xbe0168ab	-0.12637584
43	0x3e2888bc	0.1645841
44	0x3daf37d2	0.08555569
45	0xbe438293	-0.19092779
46	0xbe421aea	-0.1895558
47	0xbd1c6eda	-0.038191654
48	0xbe936c77	-0.2879369
49	0x3ecd72f9	0.4012678
50	0x3ddc8270	0.107670665
51	0x3e3c8946	0.1841174
52	0x3c6a33f3	0.014294612
53	0xbd1cb1e5	-0.03825559
54	0x3e919012	0.2843023
55	0xbeac77ca	-0.33685142
56	0x3d838471	0.064217456
57	0xbe05ac42	-0.13053992
58	0xbdaa7ca3	-0.08324554
59	0xbdba17b9	-0.09086556
60	0xbd2af2c8	-0.04173544
61	0x3efff794	0.49993575
62	0x3e0c3f86	0.13696107
63	0x3d95b3b7	0.073096685
64	0xbedd46b5	-0.43218008
65	0x3dda9d12	0.1067449
66	0x3c9c7b13	0.019101655
67	0xbec646e6	-0.38725966
68	0xbe26f0d6	-0.16302809
69	0xbd7d350b	-0.061818164
70	0xbca02a55	-0.019551435
71	0x3f33fe8f	0.703103
72	0xbebdf7c6	-0.371031
73	0x3e5b7b7a	0.21433821
74	0xbe30159d	-0.17195745
75	0xbebeef17	-0.37291786
76	0x3ec0008c	0.37500417
77	0x3e3ddf86	0.18542299
78	0x3e309e5b	0.17247908
79	0x3c7a126d	0.015263182
80	0xbedec5cc	-0.43510282
81	0xbd607d79	-0.05480716
82	0x3d6cf1b5	0.057847697
83	0xbe8a12de	-0.2696752
84	0x3e50e028	0.20398009
85	0x3e8cf1d0	0.27528238
86	0x3e6f6366	0.23377761
87	0xbe1bc722	-0.15212682
88	0x3e9b65d4	0.30351126
89	0x3d8dac29	0.069176026
90	0xbdc5c8e4	-0.096574575
91	0xbe2f652d	-0.17128439
92	0xbed35eca	-0.41283256
93	0x3ea10027	0.3144543
94	0x3c30584a	0.010763237
95	0x3b9391fa	0.0045034857
96	0x3e101322	0.14069799
97	0x3eb66916	0.3562705
98	0xbdcfb862	-0.1014259
99	0x3ea3d70a	0.32
100	0x3e0da830	0.1383369
101	0xbde63a36	-0.112415716
102	0xbdb365eb	-0.08759674
103	0x3d725a3f	0.059168097
104	0x3df900e4	0.12158373
105	0x3e4e9c69	0.20176853
106	0x3e2ef90d	0.17087193
107	0x3e3b2479	0.18275632
108	0xbcdfdd9f	-0.027327357
109	0x3d37d513	0.044880938
110	0x3e8a7c0f	0.27047774
111	0xbe48ceec	-0.19610184
112	0xbe7289bc	-0.23685354
113	0x3de03f8c	0.109496206
114	0x3e854293	0.26027355
115	0x3e379fb8	0.17932022
116	0xbe2738d1	-0.16330267
117	0xbeeda2f4	-0.46413386
118	0x3e34c70d	0.17654057
119	0x3e58a753	0.21157579
120	0xbe41ae4e	-0.18914148
121	0x3e09903c	0.13433927
122	0xbdf4dee1	-0.11956573
123	0xbdc01e6c	-0.093808025
124	0xbde5db98	-0.11223525
125	0xbdf530c3	-0.11972191
126	0x3ce4bd63	0.027922338
127	0xbe392aed	-0.18082781
128	0xbe422718	-0.18960226
129	0xbdb3065e	-0.08741449
130	0x3dd08d90	0.10183251
131	0xbe965728	-0.2936337
132	0xbeb6accc	-0.3567871
133	0x3d52f467	0.05150261
134	0x3dd77c3c	0.10521743
135	0xbd334a89	-0.043772254
136	0xbe9259fa	-0.28584272
137	0xbe3f686c	-0.18692178
138	0xbe2bed03	-0.16789632
139	0xbd833799	-0.06407089
140	0xbef47dea	-0.47752315
141	0xbe6b50e6	-0.22980079
142	0x3f1705f0	0.58993435
143	0x3f1bd106	0.6086582
144	0xbdb93e56	-0.09045093
145	0xbe9574d0	-0.29190683
146	0x3e69074d	0.22756691
147	0xbea54a11	-0.3228307
148	0xbe0755a7	-0.13216268
149	0xbd101936	-0.035180293
150	0x3e37c492	0.1794608
151	0xbc4a5623	-0.012349638
152	0xbdd8af6c	-0.10580334
153	0xbe10294b	-0.14078252
154	0x3e36e671	0.17861344
155	0xbe0a3bf1	-0.13499428
156	0xbed4923b	-0.41517815
157	0xbe925aa8	-0.2858479
158	0x3eb93bc8	0.36178422
159	0x3e70b8f5	0.23508056
160	0x3d721c37	0.05910894
161	0x3e09ed15	0.13469346
162	0xbcdbe037	-0.026840312
163	0xbcb113cf	-0.02161589
164	0x3e9e0729	0.30864838
165	0xbe429277	-0.19001184
166	0x3db2a6c8	0.08723217
167	0x3e781fe7	0.2423092
168	0xbd59b704	-0.053153053
169	0x3decdb69	0.11565287
170	0xbd2e49b5	-0.04255076
171	0x3e10d6db	0.14144461
172	0xbe2f9491	-0.17146517
173	0x3e833d26	0.2563259
174	0xbeab7d24	-0.33493912
175	0x3c9730f1	0.018455954
176	0xbe046c45	-0.12931927
177	0x3ea68132	0.32520443
178	0x3c603cd8	0.013686381
179	0x3ed7da03	0.42158517
180	0x3e846656	0.25859326
181	0x3c490c98	0.012271069
182	0xbef23f46	-0.473139
183	0xbcdf4390	-0.027253896
184	0xbed75203	-0.42054757
185	0xbdd29a43	-0.10283329
186	0x3da8e7a5	0.08247308
187	0x3ee5ac40	0.4485798
188	0x3eb21643	0.3478261
189	0xbe16a10d	-0.14709873
190	0x3e828cfd	0.2549819
191	0xbe5b1ea5	-0.21398409
192	0x3bcddb3c	0.0062822383
193	0x3d4d818b	0.05017237
194	0x3e5c0da3	0.21489577
195	0xbe3b1ba5	-0.18272264
196	0x3e3fd7f7	0.18734728
197	0x3da672bb	0.08127352
198	0xbee70866	-0.45123595
199	0x3d8c724a	0.068577364
200	0xbe0a9000	-0.13531494
201	0xbdf6cd1a	-0.12050839
202	0x3e5e76cc	0.21725005
203	0xbcd36a9f	-0.025807677
204	0x3d3ab451	0.04558212
205	0xbda27251	-0.079319604
206	0x3b6c8e98	0.0036095735
207	0xbcc34000	-0.023834229
208	0xbe20f2ee	-0.1571767
209	0xbd1baa68	-0.03800431
210	0xbbbc6933	-0.0057498454
211	0xbc9cb33b	-0.019128432
212	0xbe701a0b	-0.23447435
213	0x3ca5ac00	0.020223618
214	0x3d2f8dd7	0.04285988
215	0x3dc7f72b	0.097639404
216	0xbdaa0539	-0.083017774
217	0x3cbde362	0.023179714
218	0xbec5684a	-0.3855613
219	0x3d959235	0.073032774
220	0xbeb22c67	-0.347995
221	0xbe8d955c	-0.27653015
222	0xbe94d47c	-0.29068363
223	0x3eaef903	0.34174356
224	0x3ef98a5e	0.48738378
225	0xbde26364	-0.110541135
226	0xbe8938c9	-0.26801136
227	0xbecaeee3	-0.3963538
228	0xbd067e71	-0.032835428
229	0x3e0eec38	0.13957298
230	0xbe8037c6	-0.25042552
231	0xbdedfa91	-0.116200574
232	0x3dacf140	0.08444452
233	0xbdf75031	-0.12075842
234	0xbde3ffbe	-0.11132763
235	0xbea89b42	-0.32930952
236	0xbebca6f6	-0.3684613
237	0x3d0545d5	0.0325373
238	0x3d9e9af6	0.077444
239	0x3e4c7cc7	0.19969474
240	0x3ccc1484	0.024912126
241	0x3e11a83b	0.14224331
242	0x3d81c8f9	0.063371606
243	0xbf00082d	-0.50012475
244	0xbe90c42d	-0.2827467
245	0x3e81cdc3	0.25352296
246	0x3e252249	0.1612636
247	0xbe516fc5	-0.20452793
248	0xbe4abbd8	-0.19798219
249	0x3df34d05	0.11879925
250	0x3e071f10	0.13195443
251	0xbe4e2d59	-0.20134486
252	0x3c8c42cb	0.017121693
253	0xbd94ab3c	-0.07259223
254	0x3d9a2214	0.07526031
255	0xbd49de09	-0.049284015

model.decoder.2.bias f4 [107]
0	0x3d669403	0.0562935
1	0xbdae711c	-0.08517668
2	0x3d921477	0.071328096
3	0xbd5805df	-0.052739974
4	0xbdc74d4d	-0.09731541
5	0x3deba876	0.11506741
6	0xbd5ef57c	-0.05443333
7	0x3dc10d31	0.09426344
8	0x3e450839	0.19241418
9	0xbda06f38	-0.07833713
10	0xbdd0390c	-0.10167131
11	0x3d4af848	0.049553186
12	0x3e2f4381	0.17115594
13	0x3dcf4506	0.10120587
14	0xbe2d1a22	-0.169045
15	0xbd1fc036	-0.039001666
16	0x3de359c2	0.11101104
17	0x3e56fa85	0.20994003
18	0x3e130e2d	0.14360876
19	0x3ddf40e3	0.10901048
20	0xbdd8c964	-0.10585287
21	0x3d678c29	0.05653015
22	0x3d81c3dd	0.06336186
23	0xbd291b63	-0.041285884
24	0xbe24e910	-0.16104531
25	0xbe12e0b8	-0.14343536
26	0xbd8d46b2	-0.0689825
27	0x3db6defd	0.089292504
28	0xbb252cf6	-0.00252038
29	0x3dca3a1b	0.09874364
30	0xbd745537	-0.05965158
31	0x3d3e8fa0	0.04652369
32	0x3e96cd17	0.29453346
33	0x3e146f15	0.144955
34	0xbd6e33da	-0.05815492
35	0x3e040d8f	0.12895797
36	0xbda4acbc	-0.08040759
37	0x3de8c94a	0.11366518
38	0x3c03801f	0.008026152
39	0x3e0466c8	0.12929833
40	0x3d5296f4	0.05141349
41	0x3df7420f	0.120731466
42	0xbd4f4266	-0.05060043
43	0xbd14436d	-0.036197115
44	0xbd68691c	-0.056740865
45	0xbd0ff6eb	-0.03514759
46	0x3e0e063e	0.13869569
47	0xbd4e1113	-0.050309252
48	0x3ce2c24e	0.027680542
49	0x3d063782	0.03276778
50	0x3e1e94da	0.1548647
51	0x3e30b99b	0.17258303
52	0x3e14d756	0.14535269
53	0x3e8438e3	0.2582465
54	0xbd2780aa	-0.040894188
55	0x3e267525	0.16255625
56	0xbdea31ed	-0.11435304
57	0xbe160e78	-0.14653957
58	0xbe0a85a5	-0.13527544
59	0xbde936b4	-0.11387387
60	0x3e31f65c	0.17379135
61	0xbda6f590	-0.08152306
62	0xbe17d532	-0.14827421
63	0xbe111e6a	-0.14171758
64	0x3c7543bc	0.014969762
65	0x3dea7018	0.114471614
66	0xbdd28795	-0.102797665
67	0x3ddd3f55	0.10803095
68	0x3df4acb6	0.119470045
69	0xbddb0890	-0.106949925
70	0x3ca098b8	0.019604072
71	0x3daedff5	0.0853881
72	0x3df0dbc5	0.11760668
73	0xbd78e3b9	-0.06076405
74	0xbcbe8cec	-0.023260556
75	0x3d717a56	0.05895456
76	0x3de95daa	0.11394818
77	0x3d085d99	0.033292387
78	0x3d8d30a2	0.068940416
79	0x3d68a3d2	0.056796856
80	0x3e80ae34	0.25132906
81	0x3d65de2b	0.05612008
82	0x3da025c7	0.078197055
83	0x3dd71d1c	0.10503599
84	0xbb2dc9cd	-0.0026517988
85	0xbcca90fb	-0.024727335
86	0xbd78e351	-0.06076366
87	0xbd178911	-0.03699595
88	0xbdc46402	-0.095893875
89	0xbe02b8a3	-0.12765746
90	0xbcf037c3	-0.029323464
91	0x3e401236	0.18756947
92	0x3df40314	0.119146496
93	0xbdd469e8	-0.103717625
94	0x3db3558a	0.0875655
95	0x3d9b1062	0.07571484
96	0x3c871ec6	0.016494166
97	0x3e0fe36d	0.140516
98	0x3e3701e3	0.17871813
99	0x3e478ad0	0.19486547
100	0xbd8aefc5	-0.06784014
101	0x3e673ee3	0.22582583
102	0xbd629428	-0.055317074
103	0xbc851fef	-0.016250579
104	0x3dd0b48d	0.10190687
105	0xbd92ef57	-0.07174557
106	0xbdd2ce38	-0.10293239
