torch_model_storage_26_Jun_2025/model_Early_IA_Correct_v_Late_IA_WT VEH_Late_IA.pt (torch, 12733 bytes, 8 tensors)

model.encoder.0.weight f4 [9, 105]
000000 10 a3 7f 3d 1e 75 ea bd b9 f8 c7 bd 19 77 88 3c
       0.062411368 -0.114481196 -0.09764237 0.016658353
000010 6a 39 58 bd 97 fb f1 bd ce 99 9b bd 16 e9 83 bd
       -0.05278913 -0.11815565 -0.07597695 -0.06440942
000020 0b b0 10 be d6 e5 d4 bd cd 2a dd bd d0 01 de bd
       -0.14129655 -0.103954 -0.10799179 -0.108401895
000030 cb c9 a2 bc f9 11 76 bd 7b ac f5 bd d5 f4 a0 bd
       -0.019871613 -0.060075734 -0.11995789 -0.07859198
000040 59 a6 2e be 4f 32 99 bc fe 3b 18 bd 0b 87 be bd
       -0.17055644 -0.018700747 -0.037166588 -0.09303101
000050 a9 da da bd 6b cf 0c bd 26 f8 00 bd ea 6a e1 bd
       -0.10686237 -0.034377497 -0.031486653 -0.1100672
000060 a6 41 d8 bc 1b a3 4b bc c2 9c 91 bc 58 ae b0 bd
       -0.026398491 -0.012429024 -0.017774943 -0.086270034
000070 99 05 1a be 1a 26 4d be c5 1d a8 bd 47 0a 15 be
       -0.15041198 -0.20034066 -0.08208803 -0.14554702
000080 ab 42 cc bc e0 2f 0e bd d8 4c 7d bd e3 66 83 bd
       -0.024934134 -0.034713626 -0.061840862 -0.064161085
000090 e2 99 10 be 6d d8 89 bd 61 e5 ca bd 36 e7 4b be
       -0.14121202 -0.06730733 -0.09907032 -0.19912419
0000a0 9e 13 2b bd 35 50 b5 bc 2d e1 94 bd e4 07 e4 bc
       -0.041766755 -0.022132972 -0.07269511 -0.027835794
0000b0 53 70 10 be 1e 14 4d ba 11 7b 9d bd 70 c4 b0 bd
       -0.14105348 -0.0007823127 -0.07689489 -0.086312175
0000c0 20 f7 f5 bc 38 c0 b5 bd 32 8f d5 bd 9e 33 c5 bd
       -0.030025065 -0.088745534 -0.10427703 -0.09628986
0000d0 0c 89 0c be 29 fe 56 bd 26 38 21 be 71 67 07 be
       -0.13724154 -0.05248848 -0.15744075 -0.13223054
0000e0 af 81 52 bd aa d6 22 be 3a 25 fd bd 3d 7a df bc
       -0.051393207 -0.159022 -0.12360616 -0.027279967
0000f0 04 5e e9 bd 18 42 e1 bd 94 1f cf 3c f7 b3 cf bd
       -0.11394885 -0.109989345 0.025283612 -0.101417474
000100 3a 02 cf bd 87 ff 58 bd 09 04 da bd f6 9c d2 bd
       -0.101078466 -0.052978065 -0.10645301 -0.10283844
000110 3e 90 b4 bd fb 2b c3 bd 1e 52 17 bc 63 9b 4c be
       -0.088165745 -0.09529873 -0.009235887 -0.1998115
000120 eb 73 46 bd cf b8 7a bd 63 22 0f be 44 3c 05 be
       -0.04845039 -0.061211403 -0.13977961 -0.13011271
000130 ea 16 1b be 99 9b 0e be 19 33 06 be 78 03 51 be
       -0.1514546 -0.13926543 -0.1310543 -0.2041148
000140 fe 6e 6f bd 52 d9 eb 3c 3e 27 d5 bd cb 2c 3c bd
       -0.05845546 0.02879015 -0.104078755 -0.045941155
000150 99 8f 3c bd 2b 08 1c bd e8 a6 7e bd 60 d2 44 37
       -0.046035383 -0.038093727 -0.062170893 1.1731492e-05
000160 01 c2 22 bd 4b 0a 5c 3c f0 8b 02 be 8c b4 c4 bd
       -0.039735798 0.013430188 -0.12748694 -0.09604749
000170 77 a2 57 bd 83 23 1c bd 23 21 1b bd 14 c6 1f be
       -0.052645173 -0.038119804 -0.0378734 -0.15602905
000180 cc a0 ab bd ae e2 2a be c6 1a 39 be a6 0b e3 bd
       -0.08380279 -0.16688034 -0.1807662 -0.11086206
000190 a8 4f 4d bd 44 61 16 be bc ff 26 be 6a ed 0e be
       -0.050124794 -0.14685541 -0.16308492 -0.13957754
0001a0 61 25 19 be 0c 6d 58 3d b9 fe da bd 43 d0 39 be
       -0.14955665 0.05283837 -0.10693116 -0.18145852
0001b0 b9 37 4b be dd 98 2e bd 60 af 30 bd b0 6a ca 3d
       -0.19845475 -0.04262625 -0.043136 0.0988363
0001c0 44 c0 7d bc 20 38 94 3c 6f 3d ca bd 68 d6 9f bb
       -0.015487734 0.018093169 -0.09874999 -0.004877854
0001d0 16 72 ba 3d 30 30 05 3d f2 71 26 bd 38 70 9f bd
       0.091037914 0.03251666 -0.04063601 -0.07785076
0001e0 61 16 1a be a6 80 4d be 93 7c c4 3d 53 06 46 bc
       -0.150476 -0.20068607 0.09594073 -0.012086469
0001f0 ff 3b 96 3d 3c d5 61 be eb d8 3e 3e 7d 9b 90 bd
       0.07335662 -0.22053999 0.18637435 -0.07060907
000200 87 19 84 bd a7 48 49 bc 05 e9 fe bd d9 06 59 bd
       -0.064501815 -0.012285388 -0.12446789 -0.052985046
000210 58 19 01 be 7d 75 b8 bd fc e5 a8 bb 67 b4 3d be
       -0.12607324 -0.09006784 -0.0051543694 -0.1852585
000220 35 39 67 bd 93 f3 f1 bd 8c 42 14 be 89 fc 12 be
       -0.05645104 -0.11814036 -0.1447851 -0.14354147
000230 0e 43 0c bc 53 e3 a3 bd 61 ee 5b bd 4d 30 15 3d
       -0.008560909 -0.08002343 -0.053694133 0.036423016
000240 a7 28 32 be 87 08 b5 bd e2 4c d9 3c 90 6d 04 be
       -0.1739832 -0.08839517 0.026525918 -0.1293242
000250 06 9c 73 bc fa bc 90 bd 25 9c 40 be d5 ee 3a be
       -0.014868742 -0.070672944 -0.18809564 -0.1825517
000260 8a e2 c4 3d 38 6c 36 3e aa 5a 09 be 97 a8 f0 3c
       0.096135214 0.1781472 -0.13413492 0.029377265
000270 fb 92 e2 bd 5c ea a5 bd 6c cc 40 be 19 ec f1 bd
       -0.110631905 -0.08101341 -0.18827981 -0.1181261
000280 21 9b 34 be aa 79 8a bd 68 0f 65 be 15 25 01 be
       -0.17637302 -0.06761487 -0.22369158 -0.12611802
000290 36 32 c7 bd fe 48 ea bd cf 6c 08 be f3 e4 ae be
       -0.09726374 -0.114397034 -0.13322757 -0.3415905
0002a0 b9 81 73 bd 8d a4 3d be 9b b3 b6 bb 37 37 31 3e
       -0.059449885 -0.18519802 -0.00557561 0.17306219
0002b0 f3 b9 82 be fa c1 25 be c5 a1 76 bd 34 e9 da 3c
       -0.25532493 -0.16187277 -0.06021287 0.026722528
0002c0 9e f3 18 3e 9b 85 12 3c 70 50 38 3d c0 74 3c be
       0.14936683 0.008942987 0.044998586 -0.18403912
0002d0 6d 02 98 bd 3c ba 15 be 4a 3b 1e be 81 c7 44 3e
       -0.07422338 -0.14621824 -0.15452304 0.1921673
0002e0 45 c3 7c be dd db 8d bd 2a d0 db bc 11 ab 4e 3d
       -0.24683864 -0.06926701 -0.026832659 0.05045611
0002f0 6d f0 ba bd 66 74 bf 3b 43 92 1c be 58 d0 2c 3c
       -0.09127889 0.005842733 -0.1529017 0.01054772
000300 e3 c0 90 bd d5 13 04 bd b6 fb 05 be ea 93 10 bd
       -0.0706804 -0.032245476 -0.13084301 -0.03529731
000310 70 29 98 bd 14 15 13 3b e8 9b 3c 3d 76 d4 04 be
       -0.074297786 0.0022442983 0.04604712 -0.12971672
000320 2a 39 ca bd 7e 57 9c 3d 78 0e 4d be e4 f9 5d be
       -0.098741844 0.07633875 -0.2002505 -0.21677357
000330 18 05 0d bc c4 2c b0 bd 4e 3f f0 3b 4f 4c 0b 3d
       -0.0086071715 -0.08602288 0.0073317653 0.03400832
000340 c6 22 a2 bd 07 d5 b5 3c a5 1f 87 bd 25 cf bc bd
       -0.07916789 0.022196306 -0.065978326 -0.09219197
000350 40 08 0d be 45 b5 83 be bc 30 a7 bd 73 b8 f7 bb
       -0.13772678 -0.25724235 -0.08163592 -0.00755983
000360 22 33 12 3e c9 ed f1 bc c4 69 03 be 41 4f 38 be
       0.14277318 -0.02953233 -0.12833315 -0.17998983
000370 12 06 88 bd 03 66 83 3d 48 d7 aa 39 28 c4 7f 3d
       -0.06641783 0.064159416 0.00032585324 0.06244293
000380 4f ff 22 be a4 9c 6c 3c f3 ea 3c be 69 c1 d9 3d
       -0.15917705 0.014441643 -0.18449001 0.10632593
000390 c2 78 8e bd 5e 5b 82 bd 65 fa 7b bd 17 39 33 3d
       -0.069566265 -0.06365083 -0.06151809 0.043755617
0003a0 01 b2 b0 bd 2a 41 1e be 47 a0 89 bc dd 55 96 bc
       -0.086277016 -0.15454546 -0.016800059 -0.01835149
0003b0 e0 65 a7 3d 15 03 da 3d 5a 7d 17 be 13 f0 c8 3c
       0.08173728 0.10645119 -0.14793912 0.024528539
0003c0 cc d7 2c be c4 2d e2 bd db 56 f8 bd 58 c3 83 3d
       -0.16879195 -0.11043885 -0.12125941 0.06433743
0003d0 f1 4c f4 bd d5 0e d5 3d f4 24 3f bd 9a 43 d1 bd
       -0.11928738 0.104032196 -0.0466661 -0.10217972
0003e0 38 10 ef 3d a1 10 d7 3c fa 3a fc bd 25 25 67 bd
       0.11673015 0.026253046 -0.123159364 -0.05643191
0003f0 4a 47 eb 3c b8 24 2f 3c 0f 8a 91 bd cc 1a 00 3d
       0.028720517 0.010689907 -0.07106411 0.031275555

model.encoder.0.bias f4 [9]
000000 26 55 1f bd b2 e0 50 be e1 59 99 bd 07 25 1a bd
       -0.038899563 -0.20398214 -0.07487846 -0.03763297
000010 75 34 5f bd 04 75 45 3e 0a cc dd 3b 3b eb 92 bc
       -0.054493386 0.19282919 0.006768708 -0.017934432
000020 5f c6 ff 3d
       0.12489008

model.encoder.3.weight f4 [2, 9]
000000 92 56 e1 3c 97 dd a9 be e7 67 0d be d4 6c b6 3c
       0.0275071 -0.33176872 -0.13809167 0.02226869
000010 a2 39 ee bd 8d a1 81 be 8a fc b8 3d 6f 18 23 be
       -0.11632086 -0.25318566 0.09032543 -0.1592729
000020 b0 7f c7 3e c4 90 a5 3d de 6f 41 bd e9 3a 32 be
       0.38964605 0.080842525 -0.047225825 -0.17405285
000030 bd 2d 62 bd 09 b9 66 bd 64 f4 93 be b2 6d 68 3c
       -0.0552194 -0.056328807 -0.28897393 0.01418631
000040 e2 6f 0f be 0a 35 99 be
       -0.14007524 -0.29923278

model.encoder.3.bias f4 [2]
000000 9d 45 81 3e 85 a3 65 3e
       0.25248423 0.22425659

model.decoder.0.weight f4 [9, 2]
000000 c5 bc 62 be 9a a7 ab be dd 24 9a 3e 96 a7 6f 3d
       -0.22142322 -0.33526307 0.3010625 0.05850943
000010 68 ef 00 bf 56 d1 4c 3e c9 cd 62 bd 30 a6 77 bd
       -0.50365305 0.2000173 -0.055372033 -0.060461223
000020 f6 ee 0a 3d 71 70 dc 3e 7f ea 86 3e 30 17 14 bf
       0.033919297 0.43054536 0.2635078 -0.5784788
000030 b1 11 95 be 90 ea 55 be 9a 84 37 3f f3 4c f0 bd
       -0.2911506 -0.2089026 0.7168671 -0.11733427
000040 93 88 e7 be 6a ff 1b bf
       -0.45221385 -0.60936606

model.decoder.0.bias f4 [9]
000000 d1 44 70 3e 55 ba 65 be 01 97 ec 3e 1e 2a c9 be
       0.23463751 -0.22434361 0.46208957 -0.39289945
000010 5b ea 31 3e 42 f7 03 bf be 92 94 bd eb c2 36 be
       0.17374556 -0.5154916 -0.07254551 -0.17847793
000020 55 d1 b8 3e
       0.36097208

model.decoder.2.weight f4 [105, 9]
000000 b9 45 b6 3d 7f 7d 33 3c b2 08 50 3d bf 39 1c 3b
       0.08900017 0.010955214 0.050789542 0.002383813
000010 33 88 d7 3e 24 05 dd be fd c1 56 3d 27 e2 85 be
       0.420961 -0.43167984 0.052431095 -0.26149103
000020 e2 2c 0a be 50 07 22 3e da 2e 17 be 20 38 d8 3c
       -0.13493684 0.15823102 -0.14763966 0.02639395
000030 e2 f9 e2 bd 23 10 3d be 95 06 2d be a8 8c 76 3e
       -0.110828176 -0.18463187 -0.16897042 0.24077094
000040 11 be db 3e b3 f2 8f 3d ab 55 10 3e 81 e4 1d be
       0.42918447 0.07028713 0.1409518 -0.15419199
000050 ef 85 c2 bb a2 fc 6d 3e 6f 68 6c 3d ee 6c f6 3e
       -0.0059363763 0.23240903 0.057716783 0.48129982
000060 e8 de f5 bd d0 72 15 bd 20 d5 d1 ba 4c 27 91 be
       -0.120054066 -0.036486447 -0.0016008951 -0.28350294
000070 27 51 19 3f 3e a3 a5 be a3 e4 91 be 98 4d b8 3e
       0.59889454 -0.32351106 -0.28494748 0.359967
000080 b2 51 93 be 07 8c c8 be a2 19 c3 3e 74 a0 14 bf
       -0.28773266 -0.39169332 0.38105494 -0.5805733
000090 9b 5e 8a 3b 3c 5d 7f 3a ba 21 0d 3d f9 f4 e2 3e
       0.0042227036 0.0009741371 0.034455992 0.44327524
0000a0 b9 16 1c be 3d a0 d4 bd 1d f0 73 3d 29 5d 82 3b
       -0.15243043 -0.103821255 0.05955516 0.0039783907
0000b0 49 44 f0 3d ce 2e ca 3e a2 15 3f 3d ff dd 26 3d
       0.11731774 0.39488834 0.04665149 0.040739056
0000c0 5c 6f 56 3e 72 cb 3d 3e 14 76 be 3e 62 84 1f 3e
       0.20940918 0.1853464 0.3719946 0.15577844
0000d0 c5 fc 0e be 1e 81 02 3b 1a ca f1 3e 66 5c bd be
       -0.13963611 0.0019913386 0.47224504 -0.36984557
0000e0 05 2a 38 3d 8f ae 97 3e f8 00 4b bc 40 d1 af 3e
       0.044961948 0.29625365 -0.012390368 0.34339333
0000f0 b8 0b 9a 3d 65 28 78 3d b2 23 f5 3e b3 82 f1 bb
       0.075217664 0.0605854 0.47878796 -0.007370317
000100 e9 4f a4 be 1f cf 60 be 8c a0 3b 3d bb 53 0a be
       -0.32092217 -0.2195401 0.045807406 -0.13508503
000110 1d 68 39 be 8a 5a a7 3d 0e 85 91 3d 8b 0e 5e 3e
       -0.18106122 0.08171566 0.07105456 0.21685235
000120 1a 9d a3 3d c3 4f a9 3d 1f ae 2e bd b9 36 86 be
       0.07988949 0.082671665 -0.042646524 -0.26213625
000130 b3 4b a2 bd 1c f9 b1 be d8 59 41 3e 0f b3 9e 3e
       -0.07924595 -0.34760368 0.18881929 0.30995986
000140 12 64 85 3d a6 0d ef 3d 8b 53 c6 3d a9 51 5b 3e
       0.065132275 0.11672525 0.09683903 0.2141787
000150 a2 ca d1 3d cc a5 24 3e d8 9d 58 3c b9 95 8a be
       0.10243727 0.16078871 0.013221227 -0.27067354
000160 30 e4 c5 3e fa 5f 54 3c 03 93 7d bd 9b 5e 57 3d
       0.38650656 0.012962336 -0.06190778 0.052580457
000170 54 2c 0f 3e a2 9d 12 be 41 f3 a4 3e 5d 61 af be
       0.13981754 -0.14317945 0.32216838 -0.3425397
000180 6d 27 2f bd e9 1c 34 3e bf e7 85 3e d3 98 88 3e
       -0.04276221 0.17589153 0.2615337 0.26679096
000190 cd 54 b2 be e1 8b ef 3d 79 b8 6b be e3 ed c1 3d
       -0.34830323 0.11696602 -0.2301959 0.094692014
0001a0 b6 0c dd 3d 22 7c 16 be cb 71 92 3e cd 69 44 bb
       0.1079344 -0.1469579 0.28602442 -0.0029970289
0001b0 08 7d 01 3f 78 08 93 3d f0 cd 7e bd 3e eb 9f 3e
       0.5058141 0.0717935 -0.062208116 0.31234163
0001c0 68 60 e0 3d cb e9 87 be 7a 23 b2 3e 74 ec 77 bd
       0.10955888 -0.26545557 0.3479269 -0.060528234
0001d0 6d a9 c1 3d 84 43 85 be 95 6d 2b bd 2d 7b bc 3d
       0.094561435 -0.26028073 -0.041852552 0.092031814
0001e0 44 70 55 3e 29 38 a8 3e 6f 9e 3b 3e 31 7b 9b bd
       0.20843607 0.32855347 0.18322156 -0.07591856
0001f0 ce 10 ab bd bb c3 a3 3e f0 4e 6d 3e 75 52 8f bc
       -0.083528146 0.31985268 0.23174644 -0.017495373
000200 45 96 ff 3e 52 8f 01 bb 55 45 c5 3d fd 9a 17 bf
       0.49919334 -0.0019769263 0.09632365 -0.5922087
000210 1c a9 18 bf 21 fd 9a 3e 11 0e 22 be 88 9a 44 3b
       -0.5963304 0.30271247 -0.15825678 0.0029999334
000220 af 61 92 3d f6 9a 56 bb ed 92 79 bc b5 ad c7 3d
       0.07147538 -0.0032746173 -0.015232784 0.09749929
000230 c0 e4 3a 3e 63 25 af be 0c 58 08 be a0 fb 0e 3f
       0.18251324 -0.3420821 -0.13314837 0.558527
000240 53 6f 12 3e c8 8f 13 be b8 d7 99 3e 5b 98 ba be
       0.1430028 -0.14410317 0.30047393 -0.36444363
000250 db 2f 55 3e 47 15 13 3d d1 02 8a be 11 84 bb 3e
       0.20819037 0.035908964 -0.26955274 0.36624196
000260 b0 77 60 3e a1 e7 b2 3e 19 df 35 be 5e a3 4b bd
       0.21920657 0.34942344 -0.17760886 -0.049716346
000270 ff 1e 4f be c8 98 9e bd 05 4e 25 be 7a 0d 61 3d
       -0.20226668 -0.077439845 -0.16143043 0.054944493
000280 a5 a1 b8 bc ed a6 d9 bd c7 48 08 bc 12 4e 92 3b
       -0.022538016 -0.10627542 -0.008318133 0.004464873
000290 a6 72 0a 3e 05 5e bf bd 5f 44 5b 3e 40 b3 0e be
       0.13520297 -0.09344105 0.214128 -0.13935566
0002a0 6d ef ff bd 35 e8 ab 3e 94 0a 00 3f d6 4a 80 3e
       -0.12496839 0.33575597 0.5001614 0.25057095
0002b0 c6 5e 07 bd 70 c4 36 3d 91 ba 36 bc 96 5c 79 be
       -0.033049367 0.04462093 -0.011152879 -0.24351725
0002c0 09 b1 7b 3e 22 4d 97 3e 56 0f fe bb c3 d9 47 3d
       0.24579252 0.29551035 -0.007753293 0.048791658
0002d0 1d f4 18 bd 21 3c a8 3e 18 e8 50 be 3d 02 86 bd
       -0.03734218 0.32858375 -0.20401037 -0.06543396
0002e0 2a e2 0d 3e 36 f1 19 be 13 98 35 be bb 58 c4 3e
       0.13855806 -0.15033421 -0.17733793 0.38348946
0002f0 62 b9 8c 3d d8 3e 7f 3e 3d a5 20 be f2 ac b4 3e
       0.068712965 0.24926317 -0.15688033 0.35288197
000300 91 a0 d9 be 71 a3 d4 3d 44 10 bb bd 0f 6b c6 bd
       -0.42505315 0.103827365 -0.09133962 -0.096883886
000310 81 80 72 3e d5 b4 53 3e 1a ab 30 be 81 d2 2a be
       0.23681833 0.2067445 -0.1725277 -0.16681863
000320 ef 11 5a bd b3 d9 32 3e c3 41 6a 3e 13 17 40 be
       -0.05323976 0.17465858 0.22876649 -0.18758802
000330 f2 12 f0 3d bc 3b 50 bc 0a 56 03 3e 39 8d e9 3b
       0.117223635 -0.012709554 0.1282579 0.0071274308
000340 e8 e1 26 bd ca 1a 79 bb 2e f1 90 3e 7e 17 86 be
       -0.040742785 -0.0038010352 0.28309005 -0.26189798
000350 b2 5c 87 be b0 85 c6 ba 41 55 7a 3e 11 0a b5 bd
       -0.26437908 -0.0015146043 0.24446584 -0.08839811
000360 cc 25 47 3e 7d c9 92 3d 46 de 9e 3e 3c 9b f5 3d
       0.19448012 0.07167337 0.31028956 0.11992499
000370 d9 c0 73 3d f7 b1 88 3e e7 cb 0c be 57 15 a7 3a
       0.059510086 0.26698276 -0.13749658 0.0012747449
000380 90 54 8c bd 21 75 93 3e 92 b1 42 3e 96 49 8c be
       -0.068520665 0.288003 0.1901305 -0.27399892
000390 4e 93 5a be 53 34 0d 3e 9f b9 5f bb 0e a9 54 be
       -0.21345255 0.13789491 -0.0034137738 -0.20767614
0003a0 ce 02 e4 3e f5 59 c1 3c c0 21 06 be f9 6d 12 3e
       0.4453339 0.023602465 -0.13098812 0.14299764
0003b0 0f c0 61 3e 4f cf 1e 3e 96 18 80 be a5 0f cb bb
       0.22045921 0.1550877 -0.25018758 -0.0061969333
0003c0 64 c1 e6 3b 1e 02 06 3e 1b e0 f5 3d 35 2b 1e be
       0.007042097 0.13086745 0.12005635 -0.1544617
0003d0 3a 7e bd be b2 26 17 bc 10 14 03 3e fb db 32 be
       -0.37010366 -0.009225534 0.12800622 -0.17466728
0003e0 d8 e8 10 be df f2 7d be 3a 4f 52 bd 5b 11 c0 3e
       -0.14151323 -0.24799679 -0.051345088 0.3751324
0003f0 67 57 75 3e 9b db 8c be e3 65 3d be bd 49 80 3e
       0.23959123 -0.27511296 -0.18495898 0.25056258

model.decoder.2.bias f4 [105]
000000 ae 64 fd 3d 32 10 55 bb 55 f3 02 3e 7e be 62 3e
       0.12372719 -0.0032510874 0.12788136 0.2214298
000010 19 01 1f 3e dc a7 2b 3e ff 2c e7 3d 64 24 4b 3d
       0.15527762 0.16763252 0.11287879 0.04959525
000020 43 b1 ba bd 74 86 35 bd 12 58 f7 bd c6 92 00 be
       -0.09115841 -0.044317678 -0.12077345 -0.1255599
000030 6c cd d9 3c 25 86 70 3d 5b f9 01 3d 59 29 16 3a
       0.02658721 0.05872168 0.031731945 0.0005728207
000040 37 e1 6a be 84 ef 2d bc 94 e2 2f be e0 1d 34 3e
       -0.22937475 -0.010616187 -0.17176276 0.17589521
000050 f9 5d 81 3d 1f 4b 2f be c3 58 04 3e 7a e8 b0 3d
       0.06316752 -0.171185 0.12924485 0.086380914
000060 47 cb 78 3d 16 22 b4 bc a4 43 9b 3d ed 1e 92 ba
       0.060740735 -0.02198891 0.07581261 -0.0011148133
000070 3d aa d7 3d ce bd 35 3d 2c 28 0e 3e 79 94 ea 3d
       0.10530517 0.044370465 0.13882512 0.114541
000080 3e 6f b1 3d cd 34 c8 3d 4a b6 67 3e 27 02 9c 3d
       0.08663796 0.09775696 0.22628132 0.07617598
000090 e1 c3 dd bd 5e 31 ec bb d5 42 41 3e bd c8 10 3e
       -0.108283766 -0.0072080335 0.1887315 0.14139076
0000a0 62 15 4c bc 12 7c c5 bd 68 77 49 3e 4f 9a 90 3c
       -0.01245627 -0.09642805 0.19674456 0.017651705
0000b0 e1 00 08 3e d0 6a 0e 3e 01 2a a1 3d c3 d3 13 3e
       0.13281585 0.13907933 0.0786934 0.1443625
0000c0 42 21 ad 3d 63 f4 2c 3e 14 ad 39 be b8 15 fc 3d
       0.08453609 0.16890101 -0.1813243 0.1230883
0000d0 13 0c 11 3e 3c b8 a9 bd 7a d8 c5 3d 55 35 38 3e
       0.14164762 -0.08287093 0.0966043 0.17989095
0000e0 64 31 94 bc 7c bc 84 3d 92 fc f3 3d 24 81 48 3e
       -0.018089958 0.06481263 0.11913408 0.19580513
0000f0 64 67 de 3d 1c bd 94 3d 37 23 25 3d 53 5a 0c be
       0.10859564 0.07262632 0.040316787 -0.13706331
000100 1a 88 09 3e af 8c ec bd 5d 7b 0f be c2 33 eb 3d
       0.13430825 -0.11550271 -0.14011903 0.114844814
000110 d6 e1 fa 3d a3 19 fb bd e3 89 4b 3e d6 59 b7 3b
       0.12250106 -0.12260749 0.19876818 0.005595426
000120 f3 ba 21 3c eb e0 9a bd 33 ea 07 3e 84 07 8f 3e
       0.009871232 -0.07562431 0.13272934 0.2793542
000130 52 01 9c bb d5 a7 17 3d 4c 6f fc bc b9 4e 2c 3e
       -0.0047608996 0.03702529 -0.03081479 0.16826905
000140 c4 ab 9b 3d 41 f1 3d 3e 99 01 2a bc 21 6e d0 3d
       0.07601121 0.18549062 -0.0103763575 0.101772554
000150 86 4e de 3d 9d 77 f5 3c 64 35 0b 3e 56 bc b2 bc
       0.10854821 0.029964263 0.13594586 -0.021818321
000160 e9 83 9f bc 86 5a e9 bd 8d a5 87 bc 8b a0 74 3e
       -0.01947208 -0.11394219 -0.016558433 0.23889367
000170 e2 58 82 3d 41 82 f5 bd 6a 5e 54 bd 1f bf 65 3e
       0.06364609 -0.119877346 -0.051847853 0.22436188
000180 36 12 82 3e 60 dd 3c 3e a2 c2 db 3d 65 1a d4 bc
       0.2540452 0.18443823 0.10730483 -0.025891492
000190 8d 8d c7 3d f9 e7 4c be 78 7c 0d be 50 6f 95 3d
       0.097437955 -0.20010366 -0.13817012 0.07296622
0001a0 8f 64 5c 3d
       0.053806838
