torch_model_storage_26_Jun_2025/model_Early_IA_Error_v_Early_RS_Error_WT VEH_Early_IA_Error.pt (torch, 8549 bytes, 8 tensors)

model.encoder.0.weight f4 [9, 46]
0	0xbd291576	-0.041280232
1	0xbc9ec5c6	-0.019381415
2	0xbe27a287	-0.16370593
3	0x3d56fe94	0.05248888
4	0xbd0421fb	-0.03225897
5	0xbda51e7c	-0.08062455
6	0x3d6e0bc8	0.058116704
7	0xbd0ecd14	-0.034863546
8	0x3d76e917	0.060280886
9	0x3e08c291	0.13355471
10	0x3d524659	0.05133662
11	0x3e6de5e5	0.23232229
12	0x3df45deb	0.11931976
13	0xbcf41c01	-0.02979851
14	0xbdebcc2c	-0.11513552
15	0xbe42db3c	-0.19028944
16	0xbd577c40	-0.05260873
17	0xbd3cf55c	-0.04613243
18	0xbd4059d1	-0.046960656
19	0xbd72689e	-0.059181802
20	0xbce32830	-0.027729124
21	0x3ceed2b4	0.029153205
22	0x3d0dff28	0.034667164
23	0x3d1ed361	0.038775805
24	0xbd018c94	-0.031628206
25	0x3e65e681	0.22451212
26	0x3cb4da86	0.022076856
27	0x3d3565d4	0.044286564
28	0xbdd87c9f	-0.105706446
29	0x3e1cdfa6	0.1531969
30	0xbd90e97f	-0.07075786
31	0x3d760b6a	0.06006948
32	0xbded0027	-0.11572295
33	0xbe07d5a5	-0.13265093
34	0xbd810e41	-0.06301547
35	0xbdcfcef4	-0.10146895
36	0x3cb0a6cb	0.021563908
37	0x3c0e046a	0.008668045
38	0x3ca15536	0.019693952
39	0xbd18d92d	-0.03731649
40	0x3d0c3005	0.034225482
41	0x3e2471a2	0.16058972
42	0xbbbb672f	-0.0057190876
43	0xbd340b7b	-0.04395626
44	0x3bd1b642	0.0063999007
45	0x3dbe50ad	0.092927314
46	0xbe110c05	-0.14164741
47	0x3d521a52	0.051294632
48	0x3cfc92ba	0.030831683
49	0xbdcb16ac	-0.09916434
50	0xbdd824f5	-0.10553924
51	0xbe016f6a	-0.12640157
52	0xbc92c0c4	-0.017914183
53	0xbd431006	-0.047622703
54	0xbc4f62c7	-0.012657828
55	0xbe94cc94	-0.2906233
56	0xbdb20e2e	-0.08694111
57	0xbd8827c9	-0.066482134
58	0x3d386f7b	0.04502819
59	0xbca3ad07	-0.019979967
60	0xbd968fbd	-0.07351635
61	0x3d937e10	0.07201779
62	0xbe42705e	-0.18988177
63	0x3e0ff86c	0.14059609
64	0x3da4f08a	0.08053692
65	0x3d671020	0.056411862
66	0xbc7b6eb2	-0.015346216
67	0xbdddadb3	-0.10824146
68	0x3db600f1	0.08886898
69	0x3d03c978	0.032174557
70	0xbdd28208	-0.10278708
71	0xbe677a75	-0.22605307
72	0xbd823e55	-0.06359545
73	0x3d84e3f1	0.06488789
74	0xbda07861	-0.078354605
75	0xbdbf564a	-0.0934263
76	0xbe39af74	-0.18133336
77	0xbdc58929	-0.09645302
78	0xbd2757ce	-0.04085522
79	0xbdc8f83b	-0.09812971
80	0x3df22aae	0.11824547
81	0xbde5464f	-0.11195051
82	0xbd450a40	-0.04810548
83	0xbde27517	-0.11057489
84	0x3ce1c445	0.027559409
85	0x3d083b4c	0.033259675
86	0xbe02182f	-0.12704538
87	0xbe402484	-0.1876393
88	0xbd94430e	-0.07239352
89	0xbd96a09b	-0.07354852
90	0x3c8b8d94	0.017035283
91	0xbcec3789	-0.028835075
92	0x3d1f6bba	0.038921095
93	0x3e261303	0.1621819
94	0x3d7c5cd6	0.061611973
95	0xbdea3bab	-0.11437162
96	0x3c40dbee	0.011771185
97	0x3e559066	0.20855865
98	0x3d3ac677	0.045599427
99	0x3d968d2a	0.07351144
100	0x3dd0d754	0.101973206
101	0x3cdee4ad	0.02720865
102	0x3d36fc59	0.04467425
103	0xbe11a806	-0.14224252
104	0xbea1e8d5	-0.3162295
105	0x3d92ef66	0.07174568
106	0x3cd6abd9	0.02620499
107	0xbea350d6	-0.3189761
108	0xbe26c391	-0.1628554
109	0xbe0e5aab	-0.13901775
110	0x3b684c44	0.0035445848
111	0xbe1bb54c	-0.15205878
112	0xbe356850	-0.17715573
113	0x3d5c71b8	0.05381939
114	0x3e5cb3ed	0.21553011
115	0x3dd6a5e1	0.10480858
116	0xbdb4abfc	-0.08821866
117	0x3e0b18c0	0.1358366
118	0xbc52764e	-0.012845589
119	0x3dd52bbd	0.10408733
120	0x3be20276	0.006897266
121	0x3e3f23d2	0.18666008
122	0xbd52f475	-0.051502664
123	0xbe57e835	-0.21084674
124	0x3dee2bf4	0.11629477
125	0xbd496917	-0.049172487
126	0xbe123e52	-0.14281586
127	0x3cdb2a38	0.02675353
128	0x3e134040	0.14379978
129	0xbdbf114b	-0.0932947
130	0xbb81696b	-0.0039493344
131	0x3d1631e2	0.036668666
132	0x3e5aec28	0.21379149
133	0x3e845466	0.2584564
134	0x3d86dcdf	0.065850966
135	0x3db8ff45	0.09033064
136	0xbd980db8	-0.07424492
137	0xbe009795	-0.12557824
138	0x3db40f9c	0.0879204
139	0x3e8e36d2	0.277762
140	0x3c3675f2	0.011136519
141	0xbb6b29ee	-0.0035883146
142	0x3e494dec	0.19658631
143	0x3e898cbe	0.2686519
144	0x3d6b4f0b	0.057448428
145	0x3e7c94c2	0.24666122
146	0x3b885cd8	0.0041614585
147	0x3e954bff	0.29159543
148	0x3e24b91d	0.1608624
149	0x3e4f0370	0.20216155
150	0x3d961178	0.07327551
151	0x3e200f9f	0.15630959
152	0x3d14723f	0.036241766
153	0x3d875b28	0.066091835
154	0x3e88c95c	0.26716125
155	0xbd3232df	-0.043505546
156	0x3db04083	0.08606055
157	0x3d582b8a	0.052775897
158	0x3e2b7178	0.16742504
159	0x3ea514d6	0.3224246
160	0x3e1f09d4	0.15531093
161	0x3dd74f7c	0.10513207
162	0x3d9a7095	0.075410046
163	0x3e46c407	0.19410716
164	0x3da9f62f	0.08298909
165	0x3db16b20	0.086630106
166	0x3dec5798	0.11540145
167	0x3e3fac02	0.1871796
168	0xbdc9e256	-0.09857623
169	0x3d4ed98e	0.050500445
170	0x3c72c380	0.014817119
171	0x3e148142	0.14502433
172	0xbb145d2c	-0.0022638543
173	0x3bafd9b2	0.0053665275
174	0x3e68026e	0.22657177
175	0x3e2fd56d	0.17171259
176	0x3e20c7e9	0.1570126
177	0x3dac4f63	0.08413579
178	0x3e826300	0.25466156
179	0x3e9d2d24	0.30698502
180	0x3d901384	0.07034972
181	0x3de0226c	0.109440655
182	0xbc2a49db	-0.010393585
183	0x3caf2af4	0.021382786
184	0xbbd8587a	-0.006602344
185	0x3d8853a3	0.066565774
186	0xbd37b40b	-0.044849437
187	0x3dc0b5f4	0.09409705
188	0xbd650b47	-0.055918958
189	0x3e861e20	0.2619486
190	0x3c4630ab	0.012096564
191	0xbd08b60d	-0.033376742
192	0x3d56793a	0.052361704
193	0x3dfbac48	0.122887194
194	0xbd8116c1	-0.06303168
195	0x3dbbce44	0.091702014
196	0xbd9bbd89	-0.0760451
197	0xbdc9d9fc	-0.0985603
198	0xbaed12e1	-0.0018087291
199	0xbe47a8b8	-0.19497955
200	0xbdba51b9	-0.090976186
201	0xbe330989	-0.17484106
202	0x3cb87676	0.022517424
203	0xbc8463e1	-0.016160907
204	0xbd63a21b	-0.055574518
205	0x3d81e136	0.06341784
206	0x3ce90113	0.028442895
207	0xbdd55583	-0.10416701
208	0xbd12bcc3	-0.03582455
209	0xbe3d72b0	-0.18500781
210	0x3e01d843	0.12680154
211	0xbe34934e	-0.17634317
212	0xbdbe0e0a	-0.092800215
213	0x3d87500a	0.06607063
214	0xbc667f10	-0.01406838
215	0x3e04edb9	0.12981309
216	0x3dcb631a	0.099310115
217	0xbe2784e5	-0.16359289
218	0xbe43e10b	-0.19128816
219	0xbe66944d	-0.2251751
220	0x3df9d989	0.12199695
221	0x3c91cf77	0.017799122
222	0x3d122f5e	0.035689704
223	0xbca1904e	-0.01972213
224	0xbbb11d4b	-0.0054051033
225	0x3e1ed9b8	0.1551274
226	0x3d779aba	0.060450293
227	0xbd17b3e7	-0.037036803
228	0x3d4653fd	0.04841994
229	0xbd96ce34	-0.07363549
230	0x3d64f6bb	0.055899363
231	0xbcd18531	-0.025576206
232	0xbe62b339	-0.2213868
233	0xbd93088e	-0.07179366
234	0xbd7306fb	-0.05933283
235	0xbd29c1f5	-0.041444737
236	0xbd647876	-0.055778943
237	0x3cf2ecff	0.029654024
238	0xbe53cdcf	-0.20683978
239	0xbd574c3f	-0.05256295
240	0xbdbeadc4	-0.09310487
241	0x3dc17d92	0.09447779
242	0x3c4130d0	0.011791423
243	0xbdf2bbb1	-0.118522055
244	0xbdb44b4b	-0.088034235
245	0xbd5a2da4	-0.053266183
246	0xbdb431f8	-0.08798593
247	0x3cd63485	0.02614809
248	0xbe61bc46	-0.22044477
249	0xbd3c8219	-0.04602251
250	0x3bf267dc	0.007397635
251	0xbdda77c9	-0.106673785
252	0xbcccc63b	-0.024996867
253	0xbe18c077	-0.1491717
254	0x3a04ae43	0.00050613674
255	0x3dd5fcc4	0.10448602

model.encoder.0.bias f4 [9]
0	0x3d3d2afe	0.04618358
1	0xbddef6d5	-0.10886923
2	0x3dafb585	0.08579544
3	0xbda5dfba	-0.08099313
4	0x3e295e56	0.16539893
5	0x3e032c54	0.12809879
6	0x3e330929	0.17483963
7	0x3b19cc09	0.0023467562
8	0x3db29ab7	0.08720916

model.encoder.3.weight f4 [2, 9]
0	0xbe8c665a	-0.27421838
1	0x3e8cd2bf	0.27504537
2	0xbecdda8c	-0.402058
3	0xbbd8470e	-0.0066002673
4	0xbea25959	-0.31708792
5	0xbe32aeb9	-0.17449464
6	0xbecf600b	-0.40502962
7	0x3e25bcf9	0.16185369
8	0xbe986450	-0.29764032
9	0xbe3a1a89	-0.18174185
10	0xbed89f40	-0.42308998
11	0xbd2b6a59	-0.041849468
12	0x3ea44ebd	0.32091323
13	0xbe744daa	-0.23857751
14	0xbed00b38	-0.4063356
15	0xbe5e6606	-0.21718606
16	0xbf01dbe1	-0.50726134
17	0x3dbff0b1	0.0937208

model.encoder.3.bias f4 [2]
0	0x3e79058b	0.2431852
1	0xbe37eea0	-0.17962122

model.decoder.0.weight f4 [9, 2]
0	0x3f2cccdf	0.6750011
1	0xbe9543fb	-0.29153427
2	0xbae190cd	-0.0017209292
3	0xbf428195	-0.75978976
4	0xbeb18343	-0.34670457
5	0x3c4e6573	0.01259743
6	0x3e796da4	0.24358231
7	0x3f28aaa6	0.6588539
8	0x3e80f86a	0.25189525
9	0x3eafcceb	0.34336028
10	0xbe87372b	-0.26409277
11	0xbeb2b338	-0.34902358
12	0xbe83937c	-0.2569846
13	0x3f1ad7d0	0.60485554
14	0xbebf9e1a	-0.3742531
15	0xbe470956	-0.19437155
16	0xbf0902be	-0.5351981
17	0xbee8a95b	-0.45441708

model.decoder.0.bias f4 [9]
0	0x3db809a4	0.08986214
1	0xbd24e5b4	-0.040258124
2	0xbd7ee489	-0.062229667
3	0x3de890e4	0.11355761
4	0xbe1e1c31	-0.15440442
5	0x3dff9810	0.124801755
6	0x3e00ce21	0.12578632
7	0xbda97bc9	-0.08275563
8	0xbe22b7ae	-0.1589038

model.decoder.2.weight f4 [46, 9]
0	0xbe7f4b36	-0.24931034
1	0xbea4c50c	-0.32181585
2	0x3d27e2bb	0.04098771
3	0x3e9ac0f7	0.30225345
4	0x3de3c5d2	0.111217156
5	0xbe1235b8	-0.14278305
6	0xbe9349c1	-0.28767207
7	0xbe70b157	-0.2350515
8	0xbdb1e6d0	-0.08686602
9	0x3ca6f903	0.02038241
10	0xbe2f199a	-0.1709961
11	0x3e358e71	0.17730118
12	0xbd5e411e	-0.05426132
13	0x3e4f965f	0.20272206
14	0xbcd1909d	-0.025581652
15	0x3f0dd886	0.55408514
16	0xbe3b6fcf	-0.1830437
17	0x3ce2f499	0.027704524
18	0x3db6f327	0.089330964
19	0xbd8a0e03	-0.06740954
20	0x3b463a2e	0.003024708
21	0x3ec35801	0.3815308
22	0xbe1eb329	-0.15498032
23	0x3de7ba9b	0.11314889
24	0x3e815dba	0.2526682
25	0xbdfa0d8d	-0.12209616
26	0xbef5460d	-0.47905007
27	0xbdb6bfde	-0.089233145
28	0xbe9a3a7f	-0.30122754
29	0x3de4c73f	0.11170816
30	0xbd283c68	-0.041073233
31	0x3e4693f9	0.19392385
32	0x3b8a2543	0.0042158677
33	0xbd9e6116	-0.077333614
34	0xbe6d093b	-0.23148052
35	0xbdb1d09f	-0.086823694
36	0xbe5950be	-0.21222207
37	0xbe3f9b16	-0.18711504
38	0xbef8d386	-0.4859888
39	0x3efcaf4e	0.49352497
40	0x3d5ff5a9	0.05467764
41	0xbe361a1f	-0.17783402
42	0x3e70e2af	0.23523973
43	0xbed5bc0c	-0.4174503
44	0x3e2d9279	0.16950406
45	0xbe9c83ba	-0.3056925
46	0xbbe830db	-0.007085902
47	0x3e9b6f7c	0.30358493
48	0x3e2f8307	0.17139827
49	0x3ea7a7bd	0.32745162
50	0xbed505a8	-0.41605878
51	0x3e96f1ba	0.29481298
52	0x3ec660b9	0.3874567
53	0x3dfcd71d	0.12345717
54	0xbd8d1b3d	-0.06889961
55	0xbeb7947e	-0.35855478
56	0x3e7a9f16	0.24474749
57	0x3e2c6daa	0.16838709
58	0xbe9c2dc4	-0.30503666
59	0xbe11b1b0	-0.14227939
60	0xbd73040e	-0.05933004
61	0xbeb3bfa5	-0.3510715
62	0xbe889f71	-0.26684144
63	0xbe8c5ffd	-0.27416983
64	0x3ce19183	0.027535206
65	0x3c57561f	0.013143091
66	0x3d3eb564	0.046559706
67	0x3d8a55a9	0.0675462
68	0xbf0c8e47	-0.549046
69	0x3e29fef7	0.16601168
70	0xbe11ff5d	-0.1425757
71	0x3d87e2fb	0.0663509
72	0xbdfe9129	-0.12430031
73	0xbd2d3c1d	-0.042293657
74	0xbe63c66f	-0.22243665
75	0xbe86c2ac	-0.26320398
76	0x3edb9a24	0.42891037
77	0xbdfe0003	-0.12402346
78	0x3e19bcdd	0.15013452
79	0x3df2ded5	0.11858908
80	0x3e417290	0.18891358
81	0xbedf3678	-0.43596244
82	0xbdccf343	-0.10007336
83	0x3deb6bd4	0.11495176
84	0x3ed1c276	0.40968674
85	0x3e251f7f	0.16125296
86	0xbc858bbd	-0.016301984
87	0x3e2f043a	0.17091456
88	0x3e0297a9	0.12753166
89	0x3e3a8f0d	0.18218632
90	0x3e22a155	0.15881856
91	0x3e129e8f	0.14318298
92	0xba2a8ed6	-0.00065062696
93	0x3ec7799f	0.38959977
94	0xbe8450cf	-0.25842902
95	0xbd5200f5	-0.051270444
96	0x3eba818e	0.36426967
97	0x3db87412	0.09006514
98	0x3dd4c60c	0.10389337
99	0xbec6cfe8	-0.38830495
100	0x3dcc9b40	0.09990549
101	0x3d812a5d	0.06306908
102	0xbe2485bf	-0.16066645
103	0x3c9330d2	0.017967615
104	0xbec46650	-0.38359308
105	0xbd208cd7	-0.039196815
106	0x3d9041a0	0.07043767
107	0xbe8946d3	-0.26811847
108	0x3e89766f	0.2684817
109	0xbe8c707b	-0.27429566
110	0x3ebe5fe8	0.37182546
111	0xbae2c2e2	-0.0017300511
112	0xbe329cd2	-0.17442635
113	0x3e2ade54	0.16686374
114	0x3e162410	0.14662194
115	0xbec2fce4	-0.38083565
116	0xbeb7ab1f	-0.35872743
117	0xbd649dc0	-0.055814505
118	0x3d8b9133	0.06814804
119	0xbe0aeb77	-0.13566385
120	0x3e83497b	0.25642
121	0xbe25ec9f	-0.16203545
122	0x3bc4dfe5	0.0060081356
123	0x3ef1e749	0.4724677
124	0xbe5628e7	-0.2091404
125	0xbe834557	-0.2563884
126	0xbe283bde	-0.16429088
127	0xbe37425f	-0.17896412
128	0xbe300ecf	-0.17193149
129	0x3da3c0dc	0.079957694
130	0x3e21d896	0.15805277
131	0x3e8d6fac	0.2762426
132	0x3cbafa17	0.02282433
133	0xbd389a9f	-0.045069333
134	0x3e65425b	0.22388594
135	0x3f0903ec	0.5352161
136	0xbf30c945	-0.6905711
137	0xbf13a76b	-0.57677335
138	0x3f15a7a9	0.58458954
139	0x3d72a6d2	0.059241123
140	0xbf1f863d	-0.62314206
141	0xbdf4c2a9	-0.11951191
142	0xbe9afbaf	-0.30270144
143	0xbe9d96f3	-0.30779228
144	0xbdad709d	-0.08468745
145	0xbe878dc0	-0.26475334
146	0xbecddf1b	-0.40209278
147	0x3ed188f2	0.40924793
148	0x3e458448	0.19288743
149	0xbea49e4d	-0.32152024
150	0x3eb5f26c	0.35536516
151	0x3d132e4a	0.035932817
152	0xbefbd2d9	-0.49184301
153	0x3ec40c4d	0.38290635
154	0x3cc6da07	0.024273885
155	0xbe8d9d79	-0.27659205
156	0x3e24e7e0	0.16104078
157	0xbe276cf4	-0.16350156
158	0x3e4250d8	0.18976152
159	0x3e1a76fe	0.15084454
160	0xbeed620e	-0.46363872
161	0xbe803009	-0.25036648
162	0x3e485642	0.19564155
163	0x3c25d1ec	0.01012085
164	0xbe40959b	-0.1880707
165	0x3eaf56db	0.34245953
166	0x3eb88d4c	0.360453
167	0xbe82ebb5	-0.25570455
168	0x3e39052b	0.18068378
169	0x3e87b2a9	0.26503494
170	0x3e2fb46e	0.17158672
171	0x3d752540	0.059849977
172	0xbee1a31b	-0.44069752
173	0xbe8ac9eb	-0.27107176
174	0x3ec16f47	0.3778021
175	0xbe952a92	-0.2913404
176	0x3e319f89	0.17346014
177	0x3d9ca9c3	0.07649567
178	0x3e033e86	0.1281682
179	0xbe3fdadb	-0.1873583
180	0x3d89f272	0.06735696
181	0xbe3c83bd	-0.18409629
182	0x3e7cf273	0.24701862
183	0x3f13f585	0.5779651
184	0xbd36dd0a	-0.044644393
185	0x3e12007e	0.14258
186	0x3dc13d66	0.09435539
187	0xbd7b0d98	-0.06129226
188	0xbf02ae9d	-0.5104769
189	0x3e097036	0.13421711
190	0xbd9033d5	-0.07041136
191	0x3eed0cad	0.46298733
192	0x3dc13e0c	0.094356626
193	0xbdf420c8	-0.11920315
194	0xbe45bdc0	-0.19310665
195	0x3eea839f	0.45803544
196	0x3c2050fe	0.009784935
197	0xbeb567ca	-0.35430747
198	0x3e0510e1	0.1299472
199	0xbe918c57	-0.28427383
200	0xbe119e99	-0.14220656
201	0xbe10d25a	-0.14142743
202	0x3d4e3507	0.05034354
203	0xbd14a6ae	-0.03629177
204	0x3ea7c633	0.32768402
205	0x3e1cddcd	0.15318985
206	0x3e0093a0	0.12556314
207	0xbe5b880f	-0.21438621
208	0xbe7ebeb4	-0.24877435
209	0x3e11a913	0.14224653
210	0xbd037b17	-0.03209981
211	0x3cf01938	0.0293089
212	0xbec63511	-0.3871236
213	0x3d35d40f	0.044391688
214	0x3e50e9eb	0.20401733
215	0xbbdf85ed	-0.006821385
216	0xbe4b2133	-0.19836883
217	0xbd55b0fe	-0.052170746
218	0x3df23797	0.11827009
219	0x3de222dd	0.11041806
220	0x3db4bc1e	0.08824943
221	0xbed19c67	-0.40939638
222	0x3d7ae2dc	0.061251506
223	0xbe85ed8f	-0.26157805
224	0xbe71c637	-0.23610769
225	0xbee4bdcb	-0.4467605
226	0x3d9b12e7	0.07571965
227	0x3eaa8b42	0.3330937
228	0x3d892095	0.06695668
229	0xbdb9f0fb	-0.090791665
230	0xbd44c66b	-0.04804079
231	0x3e5faa49	0.21842302
232	0x3ea425cf	0.32060096
233	0x3eb84c53	0.3599573
234	0xbe274f22	-0.1633878
235	0xbdc1e6e3	-0.09467866
236	0xbdbce597	-0.09223478
237	0x3e0703e5	0.1318508
238	0xbeb32800	-0.34991455
239	0x3dc49e68	0.09600526
240	0xbb194e4f	-0.0023392623
241	0xbd6d284c	-0.05789976
242	0xbdb6dc45	-0.08928732
243	0x3c286f98	0.010280512
244	0xbe5eae55	-0.2174619
245	0x3eece408	0.46267724
246	0x3d8a78fe	0.06761359
247	0xbd269252	-0.040666886
248	0x3e32de55	0.17467625
249	0x3e9b79c5	0.3036634
250	0xbec1e263	-0.37868032
251	0xbe6afced	-0.22948046
252	0xbc5fcd47	-0.013659782
253	0x3d6f75ca	0.05846194
254	0xbd6c5c4b	-0.057705205
255	0x3efe70fb	0.49695572

model.decoder.2.bias f4 [46]
0	0x3d9a6b6f	0.075400226
1	0x3d0dfa75	0.034662683
2	0xbd8969b2	-0.06709613
3	0x3d66a9fa	0.056314446
4	0x3cf7c656	0.030245941
5	0x3e311c07	0.17295848
6	0x39e412d6	0.00043501583
7	0x3dec992b	0.11552652
8	0x3dcab903	0.098985694
9	0x3e010385	0.12598999
10	0xbd1dda15	-0.038538057
11	0x3dc25b3e	0.09490059
12	0xbd8e780d	-0.069564916
13	0xbd25d265	-0.04048385
14	0x3d1773ba	0.0369756
15	0x3e2e8c26	0.1704565
16	0x3d1e3a64	0.038629904
17	0x3b9ef3e4	0.0048508514
18	0x3d64b2da	0.05583463
19	0xbd2af9fb	-0.041742306
20	0xbd172f48	-0.036910325
21	0x3bc25188	0.0059301294
22	0x3d067370	0.032824934
23	0x3df979c8	0.12181431
24	0x3d936484	0.07196906
25	0x3e0511c2	0.12995055
26	0x3d5b5037	0.053543296
27	0xbc110c4f	-0.008853032
28	0xbd4e3031	-0.050338928
29	0x3dadcaa7	0.084859185
30	0xbcdc7a0a	-0.026913662
31	0x3d0077ec	0.031364366
32	0x3e21d8bf	0.15805338
33	0x3ccddc61	0.025129499
34	0x3cbccd7b	0.0230472
35	0xbd42690c	-0.04746346
36	0x3da87fca	0.08227499
37	0x3dc6ebd4	0.097129494
38	0x3dafd4ac	0.08585486
39	0x3de6f6a1	0.112775095
40	0x3d5a08c5	0.05323102
41	0x3e8f595e	0.2799787
42	0xbd0e952e	-0.034810238
43	0x3ba26900	0.0049563646
44	0xbc85b73c	-0.016322725
45	0x3d913de5	0.070918836
