torch_model_storage_26_Jun_2025/model_Late_IA_v_Early_RS_Correct_WT VEH_Early_RS_Correct.pt (torch, 10363 bytes, 8 tensors)

model.encoder.0.weight f4 [9, 70]
000000 ea 44 66 bd 3d 38 85 3d f9 e3 e0 bd ae 2d 2c bd
       -0.056218065 0.06504867 -0.10980982 -0.04203575
000010 1e fb 9e bd 79 62 e6 bd 03 19 2f 3b af 2e 44 3d
       -0.077627406 -0.11249251 0.002671779 0.047896083
000020 e9 5e 25 3e 28 72 ce bd f3 c0 9d bc 3f 86 e8 3d
       0.16149487 -0.10080367 -0.019257044 0.113537304
000030 ed 0f 85 3d 4e 02 91 bd 58 2e 2b 3d fe 73 24 3d
       0.06497178 -0.07080518 0.041792244 0.04014968
000040 c9 47 b4 bd 4e 75 c8 3d e6 85 0e 3e 0e d3 38 3d
       -0.088027544 0.09787999 0.13918266 0.045123152
000050 48 10 ca bc 82 d1 2c 3c 1f 68 8e 3e 41 cb 27 3e
       -0.024665967 0.010547997 0.27813813 0.16386129
000060 b6 01 9d bd 5b bd 38 3d a0 8c b5 bd 9a e1 d2 bc
       -0.07666342 0.04510246 -0.08864713 -0.02574234
000070 1b ae ac bc 25 6a dd bd 1e b0 b9 3d 37 70 ae 3d
       -0.021079114 -0.10811261 0.09066795 0.08517497
000080 3f ec 4c 3d 74 10 1a bd a0 ed 1a be b3 6a 81 3d
       0.05002999 -0.037613347 -0.15129709 0.063191794
000090 15 6e 36 bd 67 27 b4 3d 05 22 13 bb f5 3f ae bd
       -0.044538576 0.08796578 -0.0022450697 -0.085082926
0000a0 ba a1 d3 3d 64 90 aa bd 45 e9 b2 bd b6 73 04 bd
       0.10333581 -0.083283216 -0.08735899 -0.032336913
0000b0 c2 71 00 3c c9 e8 5e 3d 9d 32 93 bc 98 6e d4 bd
       0.007839622 0.05442122 -0.01796847 -0.103726566
0000c0 91 de 4e 3e 26 10 b9 bd 0a 57 93 bd 09 9d 3e 3d
       0.2020209 -0.09036283 -0.07194336 0.04653648
0000d0 ba 50 fa 3c 1f d4 11 bd 32 61 9b bd 61 04 a2 3d
       0.030556072 -0.035602685 -0.07586898 0.079109915
0000e0 63 86 21 bd 92 31 78 3c 34 af 5f 3d 79 55 23 bd
       -0.0394348 0.015148537 0.054610446 -0.039876435
0000f0 5a 4e 2d be c7 c7 dd 3d ae ab 0c 3e 9c c1 27 bd
       -0.1692442 0.1082912 0.13737366 -0.040956125
000100 98 02 41 3c 1e f6 20 3d b3 93 b5 bc 98 a7 7d bd
       0.011780404 0.039297216 -0.022165155 -0.061927408
000110 e5 4a 7d 3b d5 bd 1d 3e b6 94 76 3d e0 72 a9 3c
       0.0038649377 0.15404446 0.060200416 0.02068466
000120 03 77 e4 3d e9 86 f5 3d f6 92 95 bd 16 01 ed bd
       0.11155512 0.11988623 -0.07303421 -0.11572473
000130 48 72 fd bc 40 cf e9 b8 76 83 0a 3e 70 b8 c0 bc
       -0.030938283 -0.00011148909 0.13526711 -0.023525447
000140 48 41 82 3d 5f d5 00 3c 4f c6 1c be b3 f2 0f be
       0.06360108 0.007863372 -0.15310024 -0.14057426
000150 c6 74 85 bc 2a 7f 1d 3e c0 89 ff bd ec 79 9b bc
       -0.016291033 0.1538054 -0.124774456 -0.018979035
000160 40 8c f1 3d 4a 4b c8 bc 34 b0 e7 3d a7 8d 0c be
       0.11794329 -0.024449963 0.11312905 -0.13725911
000170 e7 0f 37 3d ab db 55 3e e7 d7 b1 3c 9f 1a 59 3e
       0.0446929 0.20884578 0.021709396 0.21201561
000180 2f ac 32 be 2a 85 ad 3c 73 41 d3 3d 9f 11 cd bd
       -0.17448495 0.021181662 0.10315218 -0.100131266
000190 f9 8c d9 bd 86 25 ac 3c a0 7f a9 3b 5a 86 12 be
       -0.106225915 0.021013986 0.005172685 -0.14309064
0001a0 18 15 e6 bd 84 45 01 be 70 1a c7 bd 68 f6 c7 3d
       -0.11234492 -0.12624174 -0.097218394 0.09763795
0001b0 92 3c 46 be f1 0b 32 bd c8 6f 07 3e 93 97 c0 3d
       -0.19359043 -0.04346842 0.13226235 0.094039105
0001c0 86 c0 04 3d 8d c1 41 be 24 4a b9 bc 52 d9 35 3e
       0.032410167 -0.1892149 -0.02261836 0.17758682
0001d0 30 71 54 3c 2c 40 0b 3d 26 f7 fd 3d 51 c9 7b bd
       0.012966439 0.033996746 0.124006554 -0.061471287
0001e0 91 01 6e bd 04 57 06 3e ce e3 73 3d 1d 4f 0b 3e
       -0.058106963 0.13119131 0.059543423 0.13604398
0001f0 11 3c 34 be 8d 44 f2 3c 3a 08 30 be 0d 3f 08 3d
       -0.17601039 0.029573703 -0.17190638 0.033263255
000200 ea fd 04 be ac 8c 93 3c 24 34 48 be a3 f5 15 bc
       -0.12987486 0.018011414 -0.1955114 -0.009152803
000210 78 94 c8 3d 24 af 94 bd 60 63 e9 3d 90 c0 2a be
       0.09793943 -0.07259968 0.113959074 -0.1667502
000220 75 1b 7c bd 02 fd 79 bd e5 6e 24 3e af 70 68 3e
       -0.061549623 -0.061032303 0.16057928 0.22699235
000230 49 41 9b bd 83 b0 b6 3d e9 3d 8f bd 21 41 60 3d
       -0.075808115 0.08920386 -0.0699423 0.05474961
000240 00 bc c6 3c 4f 89 2f 3d ad ea 5b bd 06 e9 11 3d
       0.024259567 0.042855557 -0.0536906 0.03562262
000250 58 e3 d7 3c 1d 0a 11 be 85 fa cd 3d b0 85 1c 3e
       0.026353523 -0.14164014 0.100575484 0.15285373
000260 0c 94 83 bc 61 f3 36 bc dd 1b 49 bd c4 a2 02 3e
       -0.016061805 -0.0111664245 -0.049098838 0.12757403
000270 10 92 a9 bc c6 45 9e bc db 2e 23 3d 80 aa ca bd
       -0.02069953 -0.01932038 0.039839607 -0.098958015
000280 f4 5d 57 bb f8 d4 86 3c 45 47 b2 3e 0f 5c d1 bd
       -0.0032862397 0.016458973 0.3482 -0.10222637
000290 bc d7 8e bb 47 e8 07 3e a8 3c 67 bd 07 32 88 3d
       -0.0043592136 0.132722 -0.05645433 0.06650167
0002a0 7d e4 8a 3d 56 b5 d8 bd ad c6 9f bd f4 9d 97 bc
       0.06781862 -0.10581462 -0.07801566 -0.018507935
0002b0 4e f6 fe bd 5b ef 11 bd 1d 83 9d 3c 61 3b d8 bc
       -0.12449323 -0.035628658 0.019227559 -0.026395502
0002c0 69 61 81 3d 81 0d 06 3e 30 98 ab bd 63 2f b4 bd
       0.06317408 0.13091089 -0.08378637 -0.08798101
0002d0 89 2e da 3d 62 f1 2c 3d a0 6e 0e 3d 36 e2 fa 3b
       0.10653407 0.042222388 0.03477347 0.007656361
0002e0 6b d5 3b be 69 8e 32 3e 3c 63 a5 bd db 2d a3 bd
       -0.18343131 0.17437138 -0.08075568 -0.079677306
0002f0 04 39 4a 3e ea 1b 83 bd d2 c5 06 be 78 c3 a1 bb
       0.19748312 -0.064018086 -0.131614 -0.004936632
000300 a8 0d b6 3d 97 e1 96 3c f5 bf 07 be 31 11 00 3d
       0.088893235 0.018418116 -0.1325682 0.031266395
000310 e2 ad 4d 3d 58 78 db 3d e2 75 04 3d 34 4a f1 3d
       0.050214656 0.10716313 0.032338984 0.11781731
000320 7a b2 45 bd c4 dd 10 bd 1c 9b 6b bd 82 42 0e 3e
       -0.04826591 -0.035367742 -0.05752097 0.13892558
000330 ea 8b 98 3d 06 28 9b 3b 34 a6 78 3c 98 2b fa 3b
       0.074485615 0.004734996 0.015176345 0.0076345913
000340 23 4f 10 3e 20 bc 12 3e f9 4d 8c bc 00 82 e3 3d
       0.14092688 0.14329576 -0.017127024 0.1110878
000350 8a 84 11 bc a0 2b be 3d 46 30 53 3e e3 0d 07 3e
       -0.008881697 0.092856646 0.20623884 0.13188891
000360 93 8f 1f 3e de f3 47 3e 10 f6 24 3e 22 1b 4e 3e
       0.15582113 0.19526622 0.1610949 0.20127538
000370 9f 8c 4a 3e 40 21 ae 3e 52 4b 57 3e 07 b2 c5 3c
       0.19780205 0.34009743 0.21024826 0.024132742
000380 15 14 bf 3d 6b 1b de 3d ca 5c 85 bb 4d 24 49 3c
       0.09330002 0.10845073 -0.004069899 0.012276721
000390 92 dd a5 3e 67 ab 90 3d 7f 0f 9e 3d 7d 41 85 3d
       0.32395607 0.070639424 0.077177994 0.065066315
0003a0 ce fc 0f 3e a9 00 a7 3e 33 d4 28 3e c6 94 11 3e
       0.14061281 0.3261769 0.16487198 0.14216909
0003b0 77 a7 bd 3d 61 66 7f bc 87 db 7b 3e df cd 6a 3d
       0.09260457 -0.015588374 0.24595462 0.05732524
0003c0 9a ef 52 bd 9f 1e c9 3e 7b 2d 3c 3a ae ad ec ba
       -0.051498033 0.39281175 0.0007178408 -0.0018057132
0003d0 0c 5c d4 3d 0c c8 77 3c dd 40 d9 3d af f8 2b 3e
       0.10369119 0.0151233785 0.10608075 0.16794084
0003e0 aa 36 8e 3d b1 92 09 3e 0b cf 22 3e c5 2e 30 3e
       0.0694402 0.13434865 0.15899293 0.17205341
0003f0 ad 52 0a 3e 9d 15 ec 3d d8 af 97 3e 22 bb a9 3e
       0.13508101 0.1152756 0.29626346 0.33150584

model.encoder.0.bias f4 [9]
000000 c9 55 5c bd 0a 9a d8 3c cd 95 c4 bc 6d e1 b3 ba
       -0.05379275 0.026440639 -0.023997212 -0.0013723798
000010 54 84 16 3e ed 56 6d 3d f5 4e c6 3c 39 fb 9a 3d
       0.14698917 0.057944227 0.024207572 0.07567448
000020 78 1d 70 bd
       -0.058621854

model.encoder.3.weight f4 [2, 9]
000000 cc 47 5b 3e cf 1a 43 bd f3 20 bb 3c 0e 20 80 3d
       0.21414107 -0.04763299 0.02284286 0.06256114
000010 10 43 00 3e a5 03 f9 bd 87 79 4b be 72 f2 90 3e
       0.12525582 -0.12158898 -0.19870578 0.2830997
000020 6c cd 82 3b ef d0 1f bd 4d e4 79 b9 4b 0e 47 be
       0.0039917734 -0.039017614 -0.00023831539 -0.19439046
000030 5e ff 90 3e e0 27 0e be 03 82 25 be 41 49 79 be
       0.2831983 -0.13882399 -0.16162877 -0.2434435
000040 ad 0e 8a bc 37 34 54 3d
       -0.016852701 0.05180761

model.encoder.3.bias f4 [2]
000000 16 79 9d be 9c 3e 37 3e
       -0.30756444 0.17894977

model.decoder.0.weight f4 [9, 2]
000000 f0 31 cb be a6 b4 46 3f 9e cb d4 be 7b e1 12 3f
       -0.39686537 0.776194 -0.41561598 0.57375306
000010 d1 a6 b0 be 0b 02 12 be 1c b7 8b 3f a4 2e 1d bf
       -0.3450227 -0.14258592 1.0915256 -0.6139929
000020 cc 78 3f 3e 8e 9f 2d bf d5 3d 17 3f 7c 34 e3 3e
       0.18698424 -0.67821586 0.59078723 0.4437598
000030 40 2b 54 be 06 af 42 bd e5 f4 ef 3c a5 ec 35 3e
       -0.20719624 -0.047530197 0.02929158 0.17766054
000040 03 2c c6 3e 0a 1f 1b be
       0.38705453 -0.15148559

model.decoder.0.bias f4 [9]
000000 d3 25 43 bd 3f 18 a0 be e8 86 4c be ac c7 61 3e
       -0.047643494 -0.31268498 -0.19973338 0.22048825
000010 23 a3 b2 3e 00 eb 02 be c7 5a 26 3d 32 2a 24 3d
       0.34890088 -0.12784958 0.040613916 0.040079303
000020 0b df 9c 3e
       0.30638918

model.decoder.2.weight f4 [70, 9]
000000 29 08 ee 3d 7f a5 f0 bd 82 ad 2f be af 06 4c be
       0.1162265 -0.11750316 -0.17156032 -0.19924425
000010 51 fa cb 3e cb 7b 9e bc cd 3d 1f 3e ea a5 0d 3e
       0.39839414 -0.019346138 0.15550919 0.13832822
000020 37 36 a5 bd be 69 80 be 07 04 e3 3d 53 f6 b9 be
       -0.08066981 -0.25080675 0.110847525 -0.36320743
000030 6e 02 25 be 99 96 a1 bd d6 94 a1 3e 75 57 32 3e
       -0.16114208 -0.07890052 0.31558865 0.17416175
000040 26 62 7b 3d f9 00 46 3b 2c 14 ff 3e 74 7b 7d be
       0.0613729 0.0030212982 0.49820077 -0.24754125
000050 6c ed 42 3c a4 c4 57 3e 85 f0 e4 3d 79 7d 89 bd
       0.011897426 0.21071106 0.11178688 -0.06713385
000060 f8 54 87 3e 08 74 16 3d ae 6a 38 3e 75 8d 97 3e
       0.26432014 0.03673175 0.18009445 0.2960011
000070 29 e4 55 bd e5 30 88 3e 82 96 1f be 2c 74 fc 3d
       -0.052219544 0.26599804 -0.15584758 0.123268455
000080 cd a5 35 3d 43 9c 8b bd 53 32 8a 3e 7c 78 8e 3e
       0.044347573 -0.06816914 0.2699152 0.27826297
000090 3b 82 0e 3e 2b 20 20 3e 94 23 56 be a2 43 8f bd
       0.13916866 0.15637271 -0.2091201 -0.06995322
0000a0 bc d4 7f be 71 5b 8a 3d a6 42 a3 3c 85 f1 a5 3e
       -0.24983495 0.06755722 0.019929241 0.32410827
0000b0 41 15 98 3d 65 a4 c2 3e cd 8a 1a be 04 a7 d5 be
       0.07425929 0.38016048 -0.15092011 -0.41728985
0000c0 4e 74 0c bd 66 c8 e2 3d b1 1d 55 bd e3 5b 8e bd
       -0.034290604 0.11073379 -0.05203027 -0.0695112
0000d0 ef 7a 5c 3d 91 e0 d8 bd d8 22 06 3f ea 87 8a be
       0.053828176 -0.10589708 0.5239692 -0.2705682
0000e0 c5 a2 86 3d aa ed 91 bd 9f d9 ea 3d de 90 87 3e
       0.065740146 -0.07125409 0.11467289 0.26477712
0000f0 79 7d 28 3e c6 1a 64 bd 1c 8f 62 3e 40 cc c4 3e
       0.16454114 -0.055689596 0.22124904 0.3843708
000100 7b ca e2 3d 41 14 d7 bd 67 53 ca 3d cb b9 d0 be
       0.11073776 -0.1050191 0.09879189 -0.4076675
000110 0b 6d 54 bd a8 63 62 be fe 48 dc bd 31 79 aa be
       -0.051861804 -0.22108328 -0.1075611 -0.33295587
000120 c8 85 6f bd 83 74 c9 3c 01 9e 5c be 0a 5b 69 be
       -0.058477193 0.02459169 -0.21544649 -0.22788635
000130 2c 55 49 be 13 26 b7 3e 00 94 99 be 95 76 15 3e
       -0.19661397 0.35771236 -0.29995728 0.14596017
000140 ed a5 5f be 47 05 3e 3e f5 fa 6e 3e 93 54 6b bd
       -0.2184064 0.185567 0.2333792 -0.057453703
000150 06 7a 40 3c e3 d6 72 3d 9a 8d ec 3e e8 c2 91 3e
       0.011747843 0.059286963 0.46201783 0.28469014
000160 82 6a 9e 3e f6 72 a2 3e 65 98 ca 3e 29 07 ba bc
       0.30940634 0.31728333 0.39569393 -0.022708492
000170 7a 00 a2 3d 4e c9 e0 3d 76 69 62 be 4d 06 58 3e
       0.07910247 0.10975896 -0.22110543 0.21096154
000180 a5 a1 c8 3e 69 1c fd 3d 66 04 0e be 79 21 d6 3c
       0.39185825 0.123589344 -0.13868865 0.026139008
000190 cd f6 c8 3e 41 19 5a bd 3c 73 e3 bd 01 24 43 be
       0.39250794 -0.05324674 -0.111059636 -0.19056703
0001a0 6b 1a eb 3e d0 34 c0 be 25 77 d0 bc b4 57 f1 3b
       0.45918593 -0.37540293 -0.025447438 0.0073651914
0001b0 77 e1 11 3f 17 d0 9f 3e fc f2 e4 be 7c 24 33 3e
       0.5698466 0.31213447 -0.44716632 0.17494386
0001c0 0f 0e bc 3c 46 1f b4 3c 75 6f 82 3d 54 79 ca bc
       0.022955922 0.021987569 0.06368915 -0.024716057
0001d0 c3 07 89 bd db d8 38 3d 92 1f f2 3b b3 71 1a be
       -0.066909336 0.045128684 0.0073890174 -0.15082435
0001e0 11 cd 0d 3e 1c ac 46 be 57 4d 08 be 5a 15 49 bd
       0.13847758 -0.19401592 -0.13310753 -0.049092628
0001f0 71 d5 91 be fe 49 27 3d 05 16 9a 3e 5f 25 02 3e
       -0.28483155 0.04084205 0.30094925 0.12709568
000200 b9 2a 8b be a7 e4 4c 3e 5e 03 72 3d 5d 80 bd 3d
       -0.27181032 0.20009099 0.059085242 0.09252999
000210 4b cc cc 3e 21 07 d4 bd 0c a4 41 bd 42 e7 59 3d
       0.39999613 -0.10352922 -0.047275588 0.05319906
000220 5c d9 9f be f8 5f ba 3c 91 ee 3e 3e 1e c1 91 be
       -0.3122052 0.02275084 0.18645693 -0.2846765
000230 0e 20 57 bd 81 38 17 3c b4 ee 4e 3d 05 33 f0 3c
       -0.052520804 0.00922978 0.050520614 0.029321203
000240 e9 f9 9c 3e 2e 44 91 be 96 75 5c 3d d3 c0 a2 3d
       0.30659416 -0.2837233 0.053823076 0.079469346
000250 3b a6 cd 3e b4 c9 33 3e f8 a6 a2 3e f3 4a 7b 3e
       0.40165886 0.17557412 0.31768012 0.2454031
000260 8c 09 7d 3e fa d4 75 3e 72 23 bb be 89 f9 ba be
       0.24710673 0.24007025 -0.3655048 -0.36518505
000270 a6 a8 a9 bd a3 83 99 3e df 72 f8 bd 15 e5 28 be
       -0.0828412 0.29983243 -0.12131285 -0.16493638
000280 77 6b e4 3e 00 b8 fe bb d6 f3 e3 3d 4a 14 a5 3e
       0.4461324 -0.0077733994 0.111304924 0.32242042
000290 9d 79 81 be 2c 30 7d bd 76 ca 00 be 39 b9 ff 3e
       -0.25288096 -0.06181352 -0.12577233 0.49946
0002a0 96 03 8b bc a2 dc 54 bc d6 50 b3 3d 9a 31 00 bd
       -0.016969483 -0.012992056 0.087556526 -0.031297304
0002b0 ce 9a 1c bd b6 0c 6b 3b 1a 1f b2 be b0 b7 4a 3e
       -0.03823357 0.003586573 -0.34789354 0.19796634
0002c0 9c 72 bf 3e 96 84 89 3d b9 c9 90 3e 58 ea cf 3e
       0.37392128 0.06714742 0.28278902 0.40608478
0002d0 f5 6d e7 3e bc 74 c3 be ba 7d 21 3d 3b bc 44 be
       0.45201078 -0.38175 0.039426543 -0.19212429
0002e0 38 b4 80 3e 1f c9 88 bd 75 b4 fd 3e c5 0a df 3d
       0.25137496 -0.06678986 0.4955174 0.10890726
0002f0 ef 60 10 3e 77 a0 d5 bc db e0 04 3e 11 64 a3 bd
       0.14099477 -0.026077492 0.129764 -0.079780705
000300 d1 34 e4 be a8 37 b7 3d e1 90 21 3e 0b 68 06 3e
       -0.44571546 0.089461625 0.15777923 0.13125627
000310 83 df dd 3e 18 56 fa 3e c8 c7 d3 be 12 cb d0 be
       0.43334588 0.4889381 -0.41363358 -0.4077993
000320 6f f7 91 be 88 90 92 3f b8 8c e1 3e cd 3f 20 3f
       -0.2850909 1.1450357 0.44052672 0.6259735
000330 c1 5f 7b be 5d fe 90 be 8a 1f fb 3d 20 7d a1 3d
       -0.24548246 -0.28319064 0.12261875 0.07885194
000340 61 fe 00 3e 90 2f bb bd 7a f4 46 3d f4 ae ea be
       0.12597038 -0.09139931 0.048572995 -0.45836604
000350 d8 42 29 3f d6 8f d7 be c0 d3 7b 3e 79 e3 c4 3d
       0.6611762 -0.42101926 0.24592495 0.096136995
000360 6c 7c 3b 3e 96 a4 d2 3e a4 b7 d7 3d d0 7a 78 3e
       0.18309182 0.41141194 0.105330735 0.24265599
000370 0a 6e a0 be 9d c6 9f 3d fb 69 66 3e 77 0b c0 3e
       -0.31333953 0.07801554 0.22501366 0.37508747
000380 79 01 39 3e 1f d3 27 3e 9e 59 22 3d eb 25 c2 3b
       0.18066968 0.1638913 0.039636247 0.0059249303
000390 59 21 b5 3b f8 4c 4f 3e 7f 25 04 3e 58 9d 0a 3e
       0.005527657 0.20244205 0.12904929 0.13536584
0003a0 5b 46 6d 3e 30 b6 b2 3d e5 fc 47 3e b3 0f 10 be
       0.2317137 0.08726156 0.19530065 -0.14068489
0003b0 47 a6 e0 bd 2d 92 3f 3e e6 6d 06 3d 40 30 4f 3e
       -0.10969215 0.18708105 0.03281965 0.2023325
0003c0 7a ac 07 3e 11 3d 77 bd c1 a5 26 be 39 35 f7 bd
       0.13249388 -0.06036097 -0.16274168 -0.12070698
0003d0 92 4b 9f bc cf 59 13 3e 2c b2 e5 3d ac 58 00 3f
       -0.019445214 0.14389728 0.11215624 0.501353
0003e0 40 bc d4 bd da fe 54 3d 76 00 ca 3e ce 88 5e 3e
       -0.10387468 0.052000858 0.39453477 0.21731874
0003f0 64 7c c4 3d 03 c8 6a 3e d4 ca b9 be 93 b7 dd 3e
       0.09594038 0.22927861 -0.36287558 0.4330412

model.decoder.2.bias f4 [70]
000000 39 b6 82 3d d3 4e f7 3c 89 b7 c2 bd 83 f3 85 bd
       0.063824125 0.030188954 -0.09507663 -0.06540587
000010 4e bb 84 3d 5f af 44 bd 60 10 9f 3d 95 56 fe 3d
       0.06481038 -0.04801881 0.07766795 0.12418858
000020 9a e7 a2 3d 67 ed b0 3c c1 24 81 3d 18 55 f0 3d
       0.07954331 0.021597577 0.063058384 0.1173498
000030 a4 5f 5c bd d5 65 a5 3d b9 7e 15 bc 45 f9 a6 3d
       -0.053802148 0.080760635 -0.009124451 0.08153013
000040 68 80 be bd d9 33 84 bd 54 6a 23 3d f7 d3 1c bd
       -0.09301835 -0.06455202 0.039896324 -0.038288083
000050 92 17 47 3d e1 1a 93 bd 21 45 6a 3e ee 3a cb 3d
       0.048606463 -0.07182861 0.22877933 0.09923349
000060 6e 27 80 3e 16 32 1f bd 9a e5 33 3d 3c a3 00 3e
       0.25030082 -0.038866125 0.043920137 0.12562269
000070 bd 1d a6 bb ef 09 08 3c fa 31 2c 3d 5c dd 5f 3d
       -0.005069463 0.00830315 0.04203985 0.054654464
000080 ce 82 9e 3c 32 4a fd bb a4 d1 75 bc 0f 18 e9 3d
       0.019349482 -0.007729792 -0.0150035955 0.11381542
000090 e2 12 f9 bd c5 8a 80 bd e9 60 fd bc cf 71 a7 3d
       -0.12161805 -0.06276468 -0.03093 0.08176004
0000a0 4b 6d bd 3c 32 83 e6 bd eb 20 10 3e 21 a9 85 3d
       0.023123404 -0.11255492 0.14075057 0.065263994
0000b0 22 38 2b 3e 01 d8 7d bc 99 e1 21 3e c3 a3 c9 bd
       0.16720632 -0.015493394 0.15808715 -0.09845688
0000c0 48 39 f2 3d d9 29 87 bd 58 66 3b bd b9 8f 76 bd
       0.11827332 -0.06599779 -0.0457519 -0.06019566
0000d0 a7 8d 56 3e b4 8a 15 3d de ce 08 be c4 d4 37 bd
       0.20952474 0.03650923 -0.13360164 -0.044880643
0000e0 a5 3e 7c 3d eb b5 b8 bd 20 45 82 3d a4 da e4 bc
       0.06158318 -0.09019073 0.06360841 -0.027936287
0000f0 1d 68 b8 bd 3c d4 31 3e 4f ea ad 3d 95 cd f0 bd
       -0.09004233 0.17366117 0.084919564 -0.11757962
000100 bf 2b bc bd f9 93 9c ba 89 10 c7 bd ea f4 20 bc
       -0.091880314 -0.0011945955 -0.09719951 -0.009824017
000110 e7 a7 ee 3d 4e 12 90 bd
       0.116531186 -0.07034741
