torch_model_storage_26_Jun_2025/model_Late_IA_v_Early_RS_Correct_WT CLNZ_Early_RS_Correct.pt (torch, 9161 bytes, 8 tensors)

model.encoder.0.weight f4 [9, 54]
-0.105222985 -0.1163509 -0.036904775 -0.13132016 -0.04970011 -0.1271741 0.16012016 0.3762917
0.0820297 -0.01176466 -0.006476986 0.0056765284 -0.050525162 -0.058634304 0.090477765 0.029746296
0.100055195 -0.05654329 -0.03580206 -0.062395006 0.08070362 -0.002297753 -0.09143849 0.1883553
0.12879951 -0.3631651 -0.036862943 -0.086252 0.020350479 0.18288593 -0.0887278 0.10026267
0.013710968 -0.13661385 0.114867054 -0.17141017 0.25565606 -0.4352148 -0.057888497 -0.27088568
0.11027393 -0.084147915 -0.03205103 0.077523164 -0.036139954 0.28074718 0.019385418 0.1307742
-0.06346707 -0.061706014 -0.47375977 -0.22301765 -0.03668094 0.11056304 -0.1889226 0.20447353
0.19922677 -0.20092204 -0.08347285 -0.076655805 0.21158452 0.08497712 -0.039199725 -0.04212197
-0.021065583 -0.14406534 -0.020526607 -0.040324464 -0.14170952 -0.00079894636 0.09043896 -0.1385214
-0.027326044 -0.044714678 -0.015989577 -0.018468289 -0.075784445 -0.2027887 -0.21960528 0.024811933
-0.14836964 -0.052127395 -0.05047644 -0.0078053973 0.11393827 0.036371563 -0.12140567 -0.051007163
0.17993297 -0.14159502 -0.3268022 -0.15842903 -0.28999788 -0.17657258 0.25563496 0.037207574
0.13462935 0.06697202 -0.2569223 -0.23503178 0.16259938 -0.08109268 -0.04839373 0.004525812
-0.19551791 0.09342932 -0.122331575 0.11284847 -0.14325202 -0.14273079 -0.01568096 -0.111523114
-0.21216564 -0.17849714 -0.005583195 -0.14947803 0.08907131 0.08049491 0.070437536 0.072231695
-0.06655288 -0.20394532 -0.037648533 0.045578912 0.105850115 0.017064046 -0.015957251 -0.035227064
-0.062208 -0.20192869 -0.09153552 -0.12592472 -0.041637532 -0.15055403 -0.29998684 0.033969976
-0.061861902 -0.0625389 0.0054681664 0.049031932 -0.21822692 -0.08281398 0.04020432 -0.07076699
-0.072039776 -0.2275258 -0.4409232 0.1012283 -0.19510254 -0.08416971 -0.09510268 -0.08915047
-0.11904364 -0.26325396 0.10119068 -0.275064 0.003297858 0.057708945 -0.13934103 -0.0077112606
-0.0899232 0.07032071 -0.40824878 0.07021925 0.07656091 0.0075242743 -0.00042990723 -0.3661686
0.41258812 0.26307386 -0.09201485 -0.2563451 0.065334775 -0.20083903 0.026973931 0.037785456
-0.09618781 -0.012682109 0.016255302 -0.16462463 0.044135425 -0.37213138 -0.015840258 -0.1091998
-0.026934028 0.20696491 0.16984403 -0.3212926 -0.09276752 -0.0435522 0.080647215 0.09205285
-0.188046 0.20346421 0.109082706 -0.29263872 0.20064269 -0.1504764 0.38195845 -0.36627096
0.050784282 -0.20496663 0.16928712 -0.103612795 -0.122179635 0.080409765 0.12459592 0.34467882
-0.02549436 0.07275682 -0.16299686 -0.030742748 -0.32917953 -0.12442042 -0.19427584 0.17850424
0.03796506 -0.08514825 0.064741716 -0.028339854 0.06235419 -0.01098177 0.28509057 0.31755087
-0.020905847 0.11307527 0.0069559175 0.06098693 0.10146016 0.084193945 -0.012213914 0.15409963
0.13513666 -0.048683822 -0.04704032 0.1525735 0.10138627 0.020593889 0.042377546 0.38789618
0.38297194 -0.22541477 0.20614123 0.09009979 0.2188709 0.27482903 0.051879935 0.09254276
0.17490777 -0.13445564 0.28147122 -0.09908794 0.45016026 -0.23665923 0.48634863 -0.008919809
00000000: 267f d7bd 6149 eebd 7629 17bd cb78 06be
00000010: 5892 4bbd ed39 02be 8af6 233e 4ea9 c03e
00000020: 30ff a73d 8fc0 40bc e63c d4bb 2c02 ba3b
00000030: 79f3 4ebd 862a 70bd 684c b93d 81ae f33c
00000040: bde9 cc3d f099 67bd 2ea5 12bd e891 7fbd
00000050: f147 a53d e695 16bb 1a44 bbbd 36e0 403e
00000060: 05e4 033e c7f0 b9be 99fd 16bd e3a4 b0bd
00000070: 0cb6 a63c 7346 3b3e ecb6 b5bd 8456 cd3d
00000080: f8a3 603c 80e4 0bbe 6b3f eb3d 2686 2fbe
00000090: 5ae5 823e 79d4 debe 7d1c 6dbd 87b1 8abe
000000a0: 4cd7 e13d be55 acbd f147 03bd 77c4 9e3d
000000b0: 7d07 14bd 18be 8f3e 2bce 9e3c ace9 053e
000000c0: 06fb 81bd 72bf 7cbd a490 f2be bd5e 64be
000000d0: c13e 16bd e06e e23d ed74 41be 8261 513e
000000e0: 1a02 4c3e 82be 4dbe d0f3 aabd b8fd 9cbd
000000f0: 9da9 583e 7c08 ae3d e48f 20bd 1688 2cbd
00000100: bb91 acbc dd85 13be 6a27 a8bc 442b 25bd
00000110: 4d1c 11be 6270 51ba 1038 b93d 8ed8 0dbe
00000120: deda dfbc bd26 37bd 93fc 82bc cf4a 97bc
00000130: e034 9bbd d7a7 4fbe 35e0 60be 6542 cb3c
00000140: 36ee 17be 8983 55bd 62c0 4ebd 6bc4 ffbb
00000150: 7858 e93d 59fa 143d 89a3 f8bd e3ec 50bd
00000160: 5940 383e 49fe 10be 9e52 a7be 383b 22be
00000170: 9a7a 94be 71cf 34be 96e2 823e f866 183d
00000180: 47dc 093e a028 893d 528b 83be 2cac 70be
00000190: 7480 263e eb13 a6bd 8138 46bd 434d 943b
000001a0: d935 48be df57 bf3d fa88 fabd 191d e73d
000001b0: a8b0 12be 0528 12be 5b75 80bc 3b66 e4bd
000001c0: f341 59be f4c7 36be 3cf3 b6bb c510 19be
000001d0: 056b b63d 84da a43d 8e41 903d 36ee 933d
000001e0: e04c 88bd 0bd7 50be 5935 1abd f4b0 3a3d
000001f0: f2c7 d83d e6c9 8b3c c8b8 82bc 414a 10bd
00000200: d1cd 7ebd 65c6 4ebe fa76 bbbd 69f2 00be
00000210: 1e8c 2abd d62a 1abe e097 99be 1a24 0b3d
00000220: e862 7dbd 6514 80bd 4e2e b33b b5d5 483d
00000230: e176 5fbe 609a a9bd 49ad 243d 49ee 90bd
00000240: 9789 93bd 86fc 68be b0c0 e1be c850 cf3d
00000250: f6c8 47be 2b61 acbd 32c5 c2bd 8694 b6bd
00000260: 27cd f3bd 39c9 86be 0f3d cf3d 30d5 8cbe
00000270: e020 583b 3760 6c3d 6aaf 0ebe beae fcbb
00000280: a829 b8bd 4e04 903d fc05 d1be 1ccf 8f3d
00000290: f7cb 9c3d 308e f63b 2c65 e1b9 737a bbbe
000002a0: c03e d33e 9eb1 863e 4872 bcbd aa3f 83be
000002b0: 3dce 853d bfa8 4dbe 6ff8 dc3c ecc4 1a3d
000002c0: 1dfe c4bd 9fc8 4fbc d729 853c 5c93 28be
000002d0: 59c7 343d 0188 bebe 6ec3 81bc 25a4 dfbd
000002e0: c0a4 dcbc 9cee 533e 98eb 2d3e 7780 a4be
000002f0: e6fc bdbd cb63 32bd 5e2a a53d 3486 bc3d
00000300: 218f 40be ec58 503e c166 df3d bed4 95be
00000310: 4775 4d3e 7c16 1abe 0f90 c33e de87 bbbe
00000320: 2e03 503d c6e2 51be 9a59 2d3e f232 d4bd
00000330: 5139 fabd e0ad a43d 252c ff3d be79 b03e
00000340: 8cd9 d0bc 8701 953d a6e8 26be 37d8 fbbc
00000350: 388a a8be 22d0 febd 3ff0 46be d1c9 363e
00000360: 4081 1b3d 3562 aebd 4e97 843d fb28 e8bc
00000370: 1b67 7f3d e2ec 33bc 64f7 913e 0796 a23e
00000380: bd42 abbc 0294 e73d 77ee e33b 6ecd 793d
00000390: 58ca cf3d e06d ac3d de1c 48bc 4bcc 1d3e
000003a0: 4461 0a3e b068 47bd 5aad 40bd 3a3c 1c3e
000003b0: 9ba3 cf3d 84b4 a83c 1494 2d3d 549a c63e
000003c0: e614 c43e 21d3 66be b016 533e 3d86 b83d
000003d0: b11f 603e 64b6 8c3e 0e80 543d 0f87 bd3d
000003e0: 061b 333e bdae 09be ff1c 903e 9eee cabd
000003f0: 687b e63e cc56 72be b002 f93e 6424 12bc

model.encoder.0.bias f4 [9]
-0.08186429 0.31102186 0.26202634 -0.23639214 -0.5001451 0.24332663 0.051245797 -0.30482194
-0.18410358
00000000: 77a8 a7bd 423e 9f3e 5128 863e c810 72be
00000010: 8209 00bf 9e2a 793e 1de7 513d 9f11 9cbe
00000020: a685 3cbe

model.encoder.3.weight f4 [2, 9]
-0.13606994 0.2799463 0.20907132 -0.28461906 -0.5169156 0.31606892 0.105543196 -0.19546539
-0.2289981 -0.29186353 0.1356464 -0.1463028 -0.16735119 -0.07573574 0.07824733 0.091125205
0.13290626 0.35970894
00000000: eb55 0bbe 1f55 8f3e cb16 563e 97b9 91be
00000010: 9554 04bf c9d3 a13e 0827 d83d 1428 48be
00000020: 7a7e 6abe 236f 95be e4e6 0a3e 67d0 15be
00000030: 1c5e 2bbe 571b 9bbd 2340 a03d da9f ba3d
00000040: 9418 083e c52b b83e

model.encoder.3.bias f4 [2]
0.0139016565 0.013900638
00000000: c6c3 633c 80bf 633c

model.decoder.0.weight f4 [9, 2]
0.005083901 0.023070158 -0.06349182 0.5518288 0.46619377 -0.66780066 0.071103364 0.081246704
-0.31201392 0.1326591 -0.14388387 -0.6175264 0.6045005 0.71013427 0.15459149 -0.20471223
0.27661198 0.05410474
00000000: da96 a63b a1fd bc3c 0008 82bd a744 0d3f
00000010: f3b0 ee3e fcf4 2abf a49e 913d ac64 a63d
00000020: 4ac0 9fbe cad7 073e 4b56 13be 3616 1ebf
00000030: 8bc0 1a3f 5ccb 353f 3b4d 1e3e 15a0 51be
00000040: 16a0 8d3e ef9c 5d3d

model.decoder.0.bias f4 [9]
0.25239924 -0.1868812 0.16843548 -0.2112437 0.15345235 0.43528506 -0.036240716 -0.08870208
-0.10759546
00000000: 793a 813e c95d 3fbe 5a7a 2c3e 4550 58be
00000010: 9d22 1d3e afdd de3e 2571 14bd 70a9 b5bd
00000020: 025b dcbd

model.decoder.2.weight f4 [54, 9]
-0.054607518 -0.13629141 -0.28051096 -0.4629768 -0.18239853 -0.20745857 -0.047475997 -0.05638441
-0.16536525 0.22745593 -0.1610273 -0.4594924 0.1533267 0.14764376 0.29144984 0.85537237
-0.3058345 -0.26987287 0.17172188 -0.009548765 0.10965252 -0.026751753 0.42136213 0.32974645
0.6626724 0.11169275 -0.113712676 -0.19769186 0.059916385 -0.15298063 -0.14346874 -0.053661656
-0.13428444 -0.06940792 0.31033155 0.044555504 -0.0017634877 0.3916833 -0.16858014 -0.09726982
0.06218667 -0.2263473 -0.18297487 -0.08624974 -0.2154014 0.03263826 0.28831908 -0.2615242
0.14334735 -0.15830067 -0.20337445 -0.110244565 0.061369415 -0.28105068 -0.087837964 0.15752368
-0.16109152 -0.3728358 0.195367 0.3511458 -0.040792044 -0.27942154 -0.092262015 -0.26893502
-0.18081716 -0.21957889 -0.28784096 0.12375871 0.42982998 0.19649485 -0.38397145 -0.29994786
-0.32876155 0.22402483 -0.1151674 0.15501428 -0.08154616 0.05194379 -0.14150357 0.1426422
-0.14950773 -0.25623918 0.13655056 0.24639964 0.092730336 0.3370761 -0.16281947 -0.07222143
-0.20042968 -0.24957502 0.03013675 -0.243267 -0.10686481 -0.13215423 0.05358594 -0.11205607
0.20129608 0.006157411 -0.4700309 -0.40342042 0.40857476 -0.16155629 -0.34288546 0.05646914
0.10253211 0.045769624 -0.12017439 0.14658757 0.045668967 -0.10221338 -0.29864103 0.11851886
0.12451893 -0.19540338 -0.045836523 0.039987262 0.17520308 -0.34353444 0.12412058 -0.6014519
-0.13582586 -0.11971776 0.017964553 0.08327536 0.11217979 -0.16131857 -0.17718332 0.21499178
-0.14355944 -0.4150052 -0.22023878 0.21589355 0.06442093 -0.028578198 -0.28459224 0.26468775
0.014215569 0.07982336 -0.48586327 0.04405921 0.08091787 0.030222442 -0.03181909 -0.11820493
0.097314894 0.010977415 0.20992395 0.0564766 0.187967 0.022949422 0.04580485 -0.1183096
-0.16208829 -0.14146814 0.24609365 0.062573805 -0.23688348 0.15433075 -0.08066531 -0.17465459
-0.17191745 0.40233675 0.28751662 0.10751327 -0.178319 0.009018386 0.27707052 0.26176208
0.3695777 -0.2662743 0.1757328 -0.12415367 -0.067333974 -0.15943319 0.10760604 -0.24610347
-0.10195225 -0.28016454 -0.23270996 0.018861316 -0.11549325 0.08516233 -0.119958125 -0.3222164
0.17638786 0.1507091 0.107803866 0.14963995 -0.018118203 -0.17351072 -0.073218055 -0.101617485
0.015409154 0.22476839 -0.29906908 -0.18838137 -0.22386311 0.17984293 -0.08853244 0.3655768
-0.048658863 0.14163032 -0.009398743 0.11519234 -0.0567509 -0.12879603 0.23301482 -0.10506071
0.28963467 -0.2920312 -0.0015073548 0.34666523 -0.042153332 -0.34731543 -0.43354806 -0.10662259
0.37916905 -0.32761335 0.034701392 -0.16438875 0.22196542 0.13706626 -0.52463394 -0.09882239
-0.1600894 -0.067901716 -0.19524018 -0.36686248 -0.3208892 0.08611601 -0.15662289 0.97482675
-0.01788789 -0.25082535 0.25307626 0.16873759 -0.5658514 -0.57058036 0.34216714 -0.1659043
0.09525817 -0.08394618 -0.2342389 0.25219956 0.4173548 -0.1455221 -0.055670556 0.43132433
-0.20279762 0.10151313 -0.017157769 -0.0949081 0.043124314 0.078728706 -0.2685966 0.3560427
00000000: 22ac 5fbd fa8f 0bbe 229f 8fbe 4c0b edbe
00000010: aec6 3abe 0570 54be 3176 42bd 57f3 66bd
00000020: 8255 29be 35ea 683e 57e4 24be 9642 ebbe
00000030: ad01 1d3e ed2f 173e ea38 953e aff9 5a3f
00000040: 5796 9cbe c72c 8abe dcd7 2f3e 6c72 1cbc
00000050: 8091 e03d 7e26 dbbc c7bc d73e 87d4 a83e
00000060: e6a4 293f 2bbf e43d 31e2 e8bd bc6f 4abe
00000070: e26a 753d f4a6 1cbe 78e9 12be 53cc 5bbd
00000080: dc81 09be bd25 8ebd c7e3 9e3e d57f 363d
00000090: d424 e7ba b78a c83e 46a0 2cbe 6635 c7bd
000000a0: 73b7 7e3d 96c7 67be c45d 3bbe b4a3 b0bd
000000b0: 2f92 5cbe b2af 053d 8f9e 933e 80e6 85be
000000c0: a6c9 123e 9219 22be 6441 50be e7c7 e1bd
000000d0: 7f5e 7b3d e0e5 8fbe 64e4 b3bd e34d 213e
000000e0: 2df5 24be 55e4 bebe 490e 483e 62c9 b33e
000000f0: 8f15 27bd 5710 8fbe def3 bcbd dab1 89be
00000100: 2228 39be 4ad9 60be e45f 93be 3575 fd3d
00000110: ad12 dc3e f235 493e e897 c4be c492 99be
00000120: 6f53 a8be c466 653e e3dc ebbd 10bc 1e3e
00000130: ac01 a7bd 03c3 543d 50e6 10be cc10 123e
00000140: 8e18 19be c831 83be e9d3 0b3e 3050 7c3e
00000150: 67e9 bd3d 3d95 ac3e 26ba 26be d4e8 93bd
00000160: 703d 4dbe 9890 7fbe 58e1 f63c fc1a 79be
00000170: f0db dabd 7053 07be ee7c 5b3d a77d e5bd
00000180: 8f20 4e3e 1bc4 c93b e4a7 f0be 1f8d cebe
00000190: b630 d13e 036f 25be af8e afbe 2f4c 673d
000001a0: 5bfc d13d ee78 3b3d fe1d f6bd 0d1b 163e
000001b0: 620f 3b3d 4055 d1bd 7ae7 98be 04ba f23d
000001c0: c803 ff3d d317 48be 14bf 3bbd afc9 233d
000001d0: 7068 333e bfe3 afbe ee32 fe3d c0f8 19bf
000001e0: ef15 0bbe 962e f5bd 662a 933c 468c aa3d
000001f0: 85be e53d b230 25be 8b6f 35be ce26 5c3e
00000200: 3f01 13be 907b d4be 4686 61be 3313 5d3e
00000210: 1fef 833d d31c eabc 13b6 91be 2785 873e
00000220: 6be8 683c 6e7a a33d 12c3 f8be 6e77 343d
00000230: 45b8 a53d 0e95 f73c bc54 02bd 6d15 f2bd
00000240: 084d c73d 9eda 333c 4ef6 563e 0254 673d
00000250: 6c7a 403e 6d00 bc3c de9d 3b3d 4e4c f2bd
00000260: 79fa 25be 06dd 10be f9ff 7b3e b226 803d
00000270: 9591 72be e108 1e3e db33 a5bd a7d8 32be
00000280: 210b 30be 15ff cd3e 6135 933e eb2f dc3d
00000290: 4299 36be dac1 133c 30dc 8d3e ae05 863e
000002a0: 4a39 bd3e 1b55 88be 4df3 333e 4844 febd
000002b0: 65e6 89bd 7442 23be 8e60 dc3d 8c02 7cbe
000002c0: 57cc d0bd ba71 8fbe 854b 6ebe 0c83 9a3c
000002d0: ba87 ecbd 9669 ae3d 9bac f5bd 8cf9 a4be
000002e0: 059f 343e 7c53 1a3e 46c8 dc3d 373b 193e
000002f0: a06c 94bc cbac 31be 59f3 95bd d41c d0bd
00000300: ad76 7c3c af29 663e 951f 99be 0ce7 40be
00000310: 5f3c 65be bf28 383e 7f50 b5bd e22c bb3e
00000320: 844e 47bd 8a07 113e 2ffd 19bc f6e9 eb3d
00000330: a273 68bd 1be3 03be 709b 6e3e 122a d7bd
00000340: ff4a 943e 1d85 95be 6f92 c5ba 1b7e b13e
00000350: f9a8 2cbd 54d3 b1be 03fa ddbe f25c dabd
00000360: 7222 c23e f0bc a7be 0c23 0e3d 8655 28be
00000370: e74a 633e 195b 0c3e 694e 06bf 6563 cabd
00000380: 7aee 23be 0e10 8bbd 0bed 47be 66d5 bbbe
00000390: 974b a4be 975d b03d c061 20be 3f8e 793f
000003a0: a089 92bc 2e6c 80be 3693 813e 8cc9 2c3e
000003b0: a3db 10bf 8e11 12bf 8830 af3e d1e2 29be
000003c0: b716 c33d faeb abbd 52dc 6fbe 4d20 813e
000003d0: 87af d53e bf03 15be cf06 64bd 8bd6 dc3e
000003e0: 2eaa 4fbe 1ee6 cf3d 738e 8cbc 2e5f c2bd
000003f0: 1fa3 303d 843c a13d 7e85 89be 3b4b b63e

model.decoder.2.bias f4 [54]
0.09649267 -0.0045096786 -0.087513484 0.17598322 0.10771193 0.15062666 -0.06922871 -0.08912247
0.14117408 0.10392621 -0.0066811214 0.08949119 0.10283511 0.17617482 0.076535925 -0.06409179
0.04219751 0.07397716 -0.121680714 0.13338807 0.010381672 0.12854011 0.056456055 0.1353107
0.16395062 0.06818393 0.04788019 0.05788568 0.17258257 0.05188707 0.041551143 0.04078797
-0.030546304 0.049366992 -0.0969594 -0.07331718 0.07168229 0.14761673 0.1559589 0.21623471
-0.12254055 -0.054014057 -0.0022872193 0.04216884 0.071868 -0.0070528043 0.09290952 0.115473755
0.1387294 0.14154668 0.20257637 -0.11481952 0.022664556 0.04585106
00000000: f39d c53d edc5 93bb 453a b3bd f234 343e
00000010: 1398 dc3d e03d 1a3e c8c7 8dbd d785 b6bd
00000020: f08f 103e 44d7 d43d 4fed dabb 2847 b73d
00000030: 379b d23d 2c67 343e debe 9c3d 8e42 83bd
00000040: 4cd7 2c3d 5681 973d bd33 f9bd e296 083e
00000050: e317 2a3c 05a0 033e 773e 673d e38e 0a3e
00000060: ace2 273e 04a4 8b3d 051e 443d 8919 6d3d
00000070: 7cb9 303e 8987 543d 8831 2a3d 4911 273d
00000080: 3e3c fabc 0b35 4a3d a692 c6bd 5127 96bd
00000090: 2ace 923d d728 173e b1b3 1f3e a26c 5d3e
000000a0: 8af6 fabd d83d 5dbd 2ce5 15bb 3cb9 2c3d
000000b0: 882f 933d 361b e7bb 5947 be3d 817d ec3d
000000c0: 140f 0e3e 9df1 103e 2e70 4f3e 7f26 ebbd
000000d0: 05ab b93c 52ce 3b3d
