torch_model_storage_26_Jun_2025/model_Early_IA_Correct_v_Early_RS_Correct_Het postCLNZ_Early_RS_Correct.pt (torch, 10509 bytes, 8 tensors)

model.encoder.0.weight f4 [9, 64]
0.22904639 -0.2587644 0.005229512 -0.03120692 -0.05499757 0.15693164 0.006950123 -0.079343
-0.010485373 -0.098241344 -0.151237 -0.26017186 0.06251712 0.09311342 -0.03956137 0.108828515
-0.2638477 0.08891511 0.20186938 -0.10047494 -0.025761133 -0.18672553 -0.17158689 0.043202665
0.08320757 0.041863635 -0.03279922 -0.042562872 -0.010759421 0.23953436 0.28145877 0.1038456
0.216046 0.21180813 -0.12164796 -0.061729923 0.026211414 0.044204067 -0.08018821 0.031381898
0.1407299 -0.07828187 -0.12636425 0.09633882 0.035789188 0.1715338 0.30415875 0.12798259
-0.15770645 0.068097495 -0.13388583 -0.04404115 -0.05936733 -0.1158258 0.15969792 -0.087484576
-0.18267088 0.036681958 -0.07828064 -0.16097653 -0.082565896 -0.15622425 -0.46045715 -0.0930974
0.026937611 0.18250158 0.0778175 0.19241984 0.078994215 -0.041906223 0.17328064 0.09044984
-0.017993545 0.027860714 0.16075923 -0.021498945 0.03696529 0.09823652 0.22703028 0.250673
0.28560427 0.09384866 0.1484745 0.10516277 0.25054637 0.019000283 0.106034614 0.06893429
0.16744076 0.16299933 -0.020486034 0.13987316 -0.005484157 0.038616367 0.09640578 0.06635079
0.16716717 -0.15628976 0.11554067 0.34295276 -0.14476831 0.20476772 0.109982915 0.25139195
0.1029192 0.06893961 0.09288918 -0.043790866 0.03879566 -0.07334815 0.17780788 0.20034295
0.018010404 0.07797183 0.1010871 0.03361609 0.16919704 0.07116302 0.0286877 0.06470524
0.10944756 0.11523359 -0.035118 0.07528876 -0.044494215 0.047979232 0.42923096 0.12982775
-0.20441371 0.06683371 -0.02964219 -0.08741962 0.042413767 -0.11252673 0.014108652 -0.033392906
-0.16272639 -0.152793 -0.16116382 0.0362667 -0.20525707 -0.012855364 0.059203684 -0.1591393
-0.08231799 -0.07916173 -0.008252548 -0.14380215 -0.017457742 -0.041689273 -0.031257547 -0.18140222
0.0007221303 -0.057366386 -0.06238231 -0.047384195 0.04621886 -0.025683826 -0.1682993 -0.14992711
-0.23128276 -0.1486083 -0.034072243 -0.063823245 -0.12720053 -0.16981752 -0.12600622 -0.0960325
-0.0065219197 -0.21399331 -0.18149737 -0.14590225 -0.20063713 -0.05007791 -0.21578594 -0.17511585
-0.043442942 -0.13978498 0.0062768143 -0.038199544 -0.099454306 -0.13701689 0.045565862 -0.13276677
0.013014774 -0.06219299 0.05114854 -0.037477825 -0.071513526 -0.06652014 -0.14482473 -0.16610736
-0.0071220836 0.23061933 -0.00029268157 0.035591286 0.0462888 0.1583642 0.026797222 0.03863884
0.07259565 0.054786697 0.27645075 0.22588123 0.09008656 0.12436816 0.13526815 -0.027883219
0.09026232 -0.003610104 -0.06729162 0.14724493 0.031075755 0.0189451 0.1731859 0.10136142
0.0484847 0.023186669 0.122718394 0.097801216 0.06869886 0.0413105 0.091249116 0.069032125
-0.002054228 0.07407294 0.10108105 -0.013771898 0.073745236 -0.05308668 -0.01630592 0.07513555
0.1397099 0.012669292 0.060040075 0.063796125 -0.0020312693 0.12818524 0.019934572 0.08520353
0.11693658 0.047678024 0.05385253 0.056762468 -0.027310785 -0.007700393 0.0028245708 0.018111918
0.114554785 0.05542646 0.039635204 0.035569005 0.14051522 0.19597457 0.3144677 0.10573228
00000000: 238b 6a3e c47c 84be 545c ab3b a8a5 ffbc
00000010: 2245 61bd b0b2 203e dbbd e33b 957e a2bd
00000020: d8ca 2bbc c232 c9bd dfdd 1abe 3f35 85be
00000030: fa08 803d 40b2 be3d 1a0b 22bd 7ce1 de3d
00000040: 0c17 87be 2019 b63d d9b6 4e3e cec5 cdbd
00000050: 0309 d3bc fa34 3fbe 79b4 2fbe 47f5 303d
00000060: bb68 aa3d 3479 2b3d 7a58 06bd 6856 2ebd
00000070: 4848 30bc 7f48 753e 5d1b 903e 00ad d43d
00000080: 2a3b 5d3e 3be4 583e 9122 f9bd 84d8 7cbd
00000090: 52b9 d63c 530f 353d b739 a4bd 4e8a 003d
000000a0: 801b 103e 3f52 a0bd a165 01be 4a4d c53d
000000b0: af97 123d 8ea6 2f3e b2ba 9b3e de0d 033e
000000c0: cd7d 21be b376 8b3d 5e19 09be 7e64 34bd
000000d0: 282b 73bd 1436 edbd da87 233e 1d2b b3bd
000000e0: 130e 3bbe d23f 163d 9a51 a0bd 08d7 24be
000000f0: 4f18 a9bd 40f9 1fbe 0ac1 ebbe daa9 bebd
00000100: 44ac dc3c b2e1 3a3e c85e 9f3d b509 453e
00000110: b8c7 a13d dca5 2bbd 7b70 313e c43d b93d
00000120: 3367 93bc 273c e43c 119e 243e 8e1e b0bc
00000130: ea68 173d 3b30 c93d a07a 683e 3658 803e
00000140: b93a 923e ba33 c03d b309 183e 945f d73d
00000150: 9d47 803e 7ba6 9b3c ad28 d93d 6c2d 8d3d
00000160: 9775 2b3e 4ce9 263e 54d2 a7bc e93a 0f3e
00000170: 71b4 b3bb 322c 1e3d 6570 c53d ece2 873d
00000180: df2d 2b3e 6c0a 20be 96a0 ec3d 8197 af3e
00000190: 253e 14be a1ae 513e b93e e13d 72b6 803e
000001a0: 4dc7 d23d 3630 8d3d af3c be3d 0d5e 33bd
000001b0: 33e8 1e3d 8e37 96bd 4513 363e b426 4d3e
000001c0: 8e8a 933c b2af 9f3d c106 cf3d 06b1 093d
000001d0: fd41 2d3e ebbd 913d 7802 eb3c 2e84 843d
000001e0: 0b26 e03d 97ff eb3d e4d7 0fbd fe30 9a3d
000001f0: 913f 36bd df85 443d 29c4 db3e 91f1 043e
00000200: d451 51be 1de0 883d 2ed4 f2bc 0f09 b3bd
00000210: 0fba 2d3d 6a74 e6bd fa27 673c 00c7 08bd
00000220: bfa1 26be c575 1cbe 2108 25be 648c 143d
00000230: e92e 52be 4e9f 52bc 907f 723d 6af5 22be
00000240: 5696 a8bd 8c1f a2bd b235 07bc df40 13be
00000250: 8a03 8fbc 5fc2 2abd ea07 00bd 81c1 39be
00000260: 584d 3d3a 04f9 6abd 9884 7fbd ee15 42bd
00000270: fd4f 3d3d e366 d2bc a756 2cbe 7e86 19be
00000280: 63d5 6cbe c62c 18be 568f 0bbd c3b5 82bd
00000290: db40 02be a5e4 2dbe c607 01be b0ac c4bd
000002a0: d4b5 d5bb 1021 5bbe 72da 39be 6667 15be
000002b0: d273 4dbe 7f1e 4dbd fdf6 5cbe 9251 33be
000002c0: 3af1 31bd cb23 0fbe bcad cd3b 2077 1cbd
000002d0: b3ae cbbd 284e 0cbe 45a3 3a3d 03f4 07be
000002e0: eb3b 553c 14be 7ebd 2281 513d 5982 19bd
000002f0: af75 92bd b63b 88bd ef4c 14be 0c18 2abe
00000300: 5e60 e9bb 7927 6c3e 0e73 99b9 2bc8 113d
00000310: 5399 3d3d 3a2a 223e d985 db3c c343 1e3d
00000320: 07ad 943d 0468 603d f48a 8d3e 694d 673e
00000330: 4d7f b83d bcb4 fe3d bc83 0a3e 596b e4bc
00000340: 74db b83d 7f97 6cbb 30d0 89bd 60c7 163e
00000350: 9592 fe3c c132 9b3c a557 313e 9396 cf3d
00000360: e597 463d f8f1 bd3c c853 fb3d 014c c83d
00000370: fdb1 8c3d 3335 293d d1e0 ba3d b760 8d3d
00000380: 3aa0 06bb 8eb3 973d 9503 cf3d 87a3 61bc
00000390: be07 973d 6b71 59bd fe93 85bc abe0 993d
000003a0: 1d10 0f3e dd92 4f3c 95ec 753d 8ba7 823d
000003b0: 0b1f 05bb fe42 033e d44d a33c 307f ae3d
000003c0: 727c ef3d 084a 433d 7894 5c3d c37f 683d
000003d0: deba dfbc 9453 fcbb 6f1c 393b 725f 943c
000003e0: b39b ea3d db06 633d 8658 223d ceb0 113d
000003f0: 39e3 0f3e 8fad 483e e901 a13e 2a8a d83d

model.encoder.0.bias f4 [9]
0.1520619 0.17983264 -0.009140992 0.103617676 -0.053275943 0.03399437 0.2155825 0.036564745
-0.0317867
00000000: 1db6 1b3e 0c26 383e 19c4 15bc 8135 d43d
00000010: e037 5abd ae3d 0b3d a9c1 5c3e eac4 153d
00000020: c532 02bd

model.encoder.3.weight f4 [2, 9]
-0.038135212 0.21971203 -0.21960488 -0.17490245 -0.1481369 -0.24844748 0.43416405 -0.10516912
0.2504419 -0.061473414 0.23941313 -0.16928732 0.25443396 -0.1794751 0.14865781 0.07669181
-0.13214862 -0.100111224
00000000: ab33 1cbd 31fc 603e 1ae0 60be a119 33be
00000010: 33b1 17be 0469 7ebe c04a de3e e862 d7bd
00000020: ec39 803e 8ccb 7bbd b728 753e a859 2dbe
00000030: 2b45 823e 52c8 37be c139 183e 9810 9d3d
00000040: f851 07be 1d07 cdbd

model.encoder.3.bias f4 [2]
-0.13442233 0.09598286
00000000: 02a6 09be a992 c43d

model.decoder.0.weight f4 [9, 2]
-0.23129484 -0.4751773 -0.27713925 -0.5005881 -0.74076575 0.39346096 0.3491172 -0.6722239
-0.25427592 0.43807647 -0.048864685 -0.7295855 -0.083935104 -0.34375724 0.020405134 -0.19662243
-0.14627375 0.20467179
00000000: 8ed8 6cbe 704a f3be 32e5 8dbe 8b26 00bf
00000010: d3a2 3dbf b773 c93e 7dbf b23e de16 2cbf
00000020: 7430 82be 8f4b e03e 5626 48bd 1ec6 3abf
00000030: 2be6 abbd f300 b0be ab28 a73c 6457 49be
00000040: c9c8 15be 7b95 513e

model.decoder.0.bias f4 [9]
0.23065609 0.099992976 -0.22289613 0.29465088 -0.04583149 0.3916712 -0.13517575 0.32312185
-0.7654648
00000000: 1c31 6c3e 1ec9 cc3d e23e 64be 7bdc 963e
00000010: cdb9 3bbd 2189 c83e 836b 0abe 3a70 a53e
00000020: 80f5 43bf

model.decoder.2.weight f4 [64, 9]
-0.058326043 0.16296437 -0.16599678 0.25710443 -0.09019843 -0.40712345 -0.17744133 0.1650689
-0.31043088 0.048357897 -0.14685212 0.4595859 -0.4783298 0.17707793 -0.42105573 -0.10925357
-0.13858481 0.15185405 0.20707193 0.037057582 0.13261193 -0.2446421 0.15320869 -0.18015625
-0.34703478 0.0010479033 -0.23272005 -0.472464 0.03875831 0.10211635 -0.042097814 -0.07053791
-0.08538433 0.06162855 0.15012601 0.34725982 -0.21777363 -0.0035216715 -0.122021265 -0.04253508
0.23166965 -0.05349057 0.3051988 -0.3270296 -0.115186185 0.2412085 -0.057764404 0.033971906
0.1758457 0.29323345 -0.06978175 -0.38556442 0.15965442 -0.4503835 -0.17809969 -0.3832614
-0.12832361 -0.40700066 0.068159565 0.13442709 -0.25161967 -0.13752653 -0.14919828 -0.08421705
0.0002800777 0.5050597 -0.21488416 0.13476661 -0.09883417 -0.28243205 -0.14060216 -0.1943897
0.23553021 0.17199601 0.3770835 -0.29851657 0.071968645 -0.09672839 -0.157278 0.19598201
-0.027794294 -0.06578478 -0.015546624 0.3888886 -0.267952 -0.008931879 0.09296351 -0.19232063
-0.013050728 0.101329826 -0.5542145 -0.19257522 0.2958251 -0.068265006 0.3850158 -0.2912661
0.160829 -0.05729913 0.42455307 0.16428988 -0.43394226 0.41571143 -0.4340073 0.37506595
0.14517453 -0.24919797 -0.13561586 -0.3939644 0.16821933 -0.41355786 0.06276064 -0.1476485
-0.03438943 -0.16341768 0.067389354 -0.057508413 0.13226709 0.18450978 -0.08119797 0.035265267
-0.16986567 0.326899 -0.16585965 -0.43475544 0.096357025 0.20678502 -0.50574756 -0.10012789
-0.03324016 -0.18816856 0.2773456 -0.19507644 -0.1997397 -0.14293028 -0.2082132 -0.05633479
-0.18555695 -0.3293325 -0.3190332 0.14038315 -0.09748869 -0.105406806 -0.062279478 -0.09635594
-0.56261635 -0.27220458 -0.18535224 -0.114098005 -0.102933526 -0.5442936 -0.2735401 -0.06807545
0.05311382 0.16171688 -0.014040392 -0.38801846 -0.40266028 0.3395914 0.09152657 -0.33457434
0.20760673 -0.06858675 -0.4737148 0.11194678 -0.16129254 0.22247249 -0.2259264 0.07804618
-0.23719981 -0.31028026 0.32487378 -0.24320124 0.07244144 -0.2926863 -0.3696448 0.07212116
0.003664046 -0.23074786 0.2081598 0.27655536 -0.45370233 -0.26987797 -0.4971873 0.033614315
-0.046029408 -0.20225424 -0.12763831 -0.12414704 0.2658204 -0.21143478 0.18536417 0.2776364
0.08872847 -0.118405804 -0.37094268 -0.05614913 -0.00069557613 0.040082823 -0.1518091 -0.3622738
0.057376325 -0.3179648 0.6620142 -0.31418926 -0.028157275 0.20660347 -0.4154594 -0.37464467
0.03307943 0.20115212 0.0011542398 -0.19450898 -0.11162679 -0.029206151 0.095150754 -0.006729347
-0.079330556 -0.20609559 0.22218874 -0.4464514 0.152445 -0.019045066 -0.11733303 -0.025085593
0.28330716 -0.07222442 -0.21724842 -0.28064388 -0.018446263 0.099381074 -0.26905033 -0.015830927
-0.10105775 0.04340515 0.3786077 -0.19240685 0.14423169 -0.10588617 0.21940757 -0.18885757
-0.055940464 0.0828727 0.003964503 -0.39451668 0.32342517 -0.07133985 0.0036222383 0.054334287
-0.27958512 -0.09997042 -0.19830933 0.31767708 -0.0032440736 -0.14558066 0.16874997 0.23468061
00000000: 4ae7 6ebd 22e0 263e 0ffb 29be 31a3 833e
00000010: f4b9 b8bd 7c72 d0be 2eb3 35be d207 293e
00000020: ccf0 9ebe ee12 463d 6760 16be d84e eb3e
00000030: a5e7 f4be eb53 353e 9e94 d7be 56c0 dfbd
00000040: 2de9 0dbe a17f 1b3e aa0a 543e b1c9 173d
00000050: 6ccb 073e 7583 7abe bde2 1c3e e17a 38be
00000060: 8bae b1be cd59 893a 2a4e 6ebe cde6 f1be
00000070: 09c1 1e3d 6022 d13d c26e 2cbd 2e76 90bd
00000080: fbdd aebd 386e 7c3d a2ba 193e 0acc b13e
00000090: 0d00 5fbe d8cb 66bb 49e6 f9bd 4439 2ebd
000000a0: cf3a 6d3e ee18 5bbd 0443 9c3e 6c70 a7be
000000b0: bce6 ebbd 5cff 763e 5e9a 6cbd 2026 0b3d
000000c0: e510 343e b222 963e bce9 8ebd b368 c5be
000000d0: 737c 233e ab98 e6be c45f 36be d73a c4be
000000e0: 4467 03be 6462 d0be 3e97 8b3d 41a7 093e
000000f0: 4bd4 80be c1d3 0cbe 6fc7 18be fd79 acbd
00000100: 64d7 9239 984b 013f 980a 5cbe 4200 0a3e
00000110: 9269 cabd ef9a 90be 03fa 0fbe 180e 47be
00000120: d52e 713e b91f 303e 1711 c13e 2ad7 98be
00000130: 4c64 933d 8919 c6bd 7c0d 21be 82af 483e
00000140: dcb0 e3bc 2cba 86bd 44b7 7ebc 681c c73e
00000150: 0131 89be 0457 12bc a763 be3d b3ef 44be
00000160: b8d2 55bc 0386 cf3d 00e1 0dbf 7032 45be
00000170: 6376 973e 86ce 8bbd ca20 c53e d520 95be
00000180: 5bb0 243e 7eb2 6abd 055f d93e 9b3b 283e
00000190: ae2d debe 21d8 d43e 3436 debe a508 c03e
000001a0: a2a8 143e c12d 7fbe e2de 0abe b4b5 c9be
000001b0: b041 2c3e dbbd d3be a788 803d 2b31 17be
000001c0: eedb 0cbd f756 27be 6e03 8a3d f18d 6bbd
000001d0: 0671 073e 22f0 3c3e 1f4b a6bd 5072 103d
000001e0: 44f1 2dbe 4e5f a73e 1dd7 29be 4498 debe
000001f0: d556 c53d 74bf 533e ac78 01bf da0f cdbd
00000200: d626 08bd 42af 40be 3e00 8e3e 1ec2 47be
00000210: 9088 4cbe 515c 12be d735 55be 4fbf 66bd
00000220: a402 3ebe 459e a8be 5258 a3be 9ac0 0f3e
00000230: 26a8 c7bd 86df d7bd c418 7fbd 4356 c5bd
00000240: a007 10bf 665e 8bbe facc 3dbe 37ac e9bd
00000250: d0ce d2bd d356 0bbf 730d 8cbe 246b 8bbd
00000260: e08d 593d 1c99 253e ac09 66bc 5baa c6be
00000270: 7d29 cebe edde ad3e 4872 bb3d 544d abbe
00000280: dc96 543e 3677 8cbd bf8a f2be 5a44 e53d
00000290: df29 25be d4cf 633e 4059 67be add6 9f3d
000002a0: 82e4 72be 0edd 9ebe db55 a63e bf09 79be
000002b0: 2d5c 943d fbda 95be 1542 bdbe 42b4 933d
000002c0: 7e20 703b 2b49 6cbe d827 553e aa98 8d3e
000002d0: ac4b e8be 722d 8abe 558f febe 2aaf 093d
000002e0: 5589 3cbd bc1b 4fbe 9eb3 02be ce40 febd
000002f0: 9d19 883e 5c82 58be 1bd0 3d3e 5c26 8e3e
00000300: 46b7 b53d be7e f2bd 33ec bdbe a1fc 65bd
00000310: 5357 36ba e32d 243d d873 1bbe f47b b9be
00000320: 7003 6b3d 48cc a2be c379 293f 6add a0be
00000330: 16aa e6bc dc8f 533e 18b7 d4be 6dd1 bfbe
00000340: 4c7e 073d d2fa 4d3e dc49 973a 5d2d 47be
00000350: 969c e4bd bd41 efbc 66de c23d db81 dcbb
00000360: 0f78 a2bd b90a 53be 7285 633e 4795 e4be
00000370: 8b1a 1c3e 6604 9cbc 4d4c f0bd 4d80 cdbc
00000380: a30d 913e 66ea 93bd 5f76 5ebe 8eb0 8fbe
00000390: 9e1c 97bc 4e88 cb3d f7c0 89be dcaf 81bc
000003a0: 5ef7 cebd 99c9 313d ded8 c13e 4d06 45be
000003b0: 79b1 133e d9da d8bd 61ac 603e e163 41be
000003c0: d421 65bd 2ab9 a93d a9e8 813b 17fe c9be
000003d0: fc97 a53e a11a 92bd 1363 6d3b a18d 5e3d
000003e0: c825 8fbe 4bbd ccbd 9a11 4bbe 92a6 a23e
000003f0: 869a 54bb 1913 15be cbcc 2c3e 1d50 703e

model.decoder.2.bias f4 [64]
-0.0051925695 0.1986541 0.010933078 0.102225766 0.06364029 -0.10420901 0.005751328 0.008826216
0.18354067 0.14294657 0.1940271 -0.06560895 0.3837284 0.053098265 -0.035011537 -0.037301246
0.03219429 -0.08408146 0.25134644 0.05517217 0.2054771 0.09000891 -0.08161936 0.12501426
0.11402536 0.092435054 0.03474098 0.14484361 0.16792013 0.06933862 -0.07218317 0.02902052
0.26207313 0.2376648 0.18340303 0.07773067 0.030713052 -0.0834115 -0.06379166 0.042552512
0.104671344 0.11826437 0.06743492 0.15747967 0.029101364 0.20547375 0.19251183 0.11143746
0.24641225 0.16901734 0.13192225 0.09708394 0.037774883 0.094795294 0.054793153 0.08222213
0.09220545 0.13674633 0.012146318 -0.10519599 0.2666348 0.18949142 0.04781953 0.009008424
00000000: 6e26 aabb fb6b 4b3e a720 333c be5b d13d
00000010: d755 823d 896b d5bd a375 bc3b d59b 103c
00000020: 16f2 3b3e 9660 123e 0aaf 463e fc5d 86bd
00000030: 0d78 c43e 917d 593d 4268 0fbd 31c9 18bd
00000040: 29de 033d e732 acbd 7bb0 803e 37fc 613d
00000050: 9768 523e 9756 b83d 0d28 a7bd bd03 003e
00000060: 2186 e93d 974e bd3d 8f4c 0e3d e251 143e
00000070: 41f3 2b3e 6801 8e3d c5d4 93bd 71bc ed3c
00000080: 732e 863e 675e 733e 01ce 3b3e 4231 9f3d
00000090: f099 fb3c a6d3 aabd 34a5 82bd 8b4b 2e3d
000000a0: ee5d d63d 9734 f23d 521b 8a3d 5a42 213e
000000b0: fc65 ee3c b667 523e d221 453e 5339 e43d
000000c0: 7e53 7c3e e212 2d3e a016 073e f2d3 c63d
000000d0: d6b9 1a3d 0924 c23d c96e 603d 1364 a83d
000000e0: 36d6 bc3d 3b07 0c3e 5a01 473c ff70 d7bd
000000f0: 5b84 883e 0a0a 423e 69de 433d 1298 133c
