torch_model_storage_26_Jun_2025/model_Early_IA_Error_v_Early_RS_Error_Het VEH_Early_IA_Error.pt (torch, 8179 bytes, 8 tensors)

model.encoder.0.weight f4 [9, 40]
0	0xbde5ecf1	-0.112268336
1	0x3ebdcad4	0.37068808
2	0x3e7b5ae5	0.24546392
3	0xbc341bc2	-0.010992946
4	0x3e89e03f	0.269289
5	0xbda19a20	-0.07890725
6	0xbde09c41	-0.10967303
7	0x3e3de498	0.18544233
8	0x3c8afd75	0.01696656
9	0xbc35acf9	-0.011088603
10	0xbdd647ed	-0.104629375
11	0xbd30c96d	-0.043160845
12	0xbe125f29	-0.14294113
13	0x3dafaedb	0.08578273
14	0x3e1f0d8f	0.15532516
15	0xbe34617e	-0.17615315
16	0x3ea4c762	0.32183367
17	0x3e605b39	0.21909799
18	0xbd78c989	-0.060739074
19	0x3e085663	0.13314204
20	0x3d786df5	0.06065174
21	0xbdaeb2b4	-0.08530179
22	0xbd7039fc	-0.05864905
23	0xbd0e2727	-0.034705307
24	0xbea0ce32	-0.31407315
25	0x3d6ca181	0.05777121
26	0xbe0702f8	-0.13184726
27	0xbe664275	-0.22486289
28	0x3e96dd53	0.29465732
29	0x3cdfd5d8	0.027323648
30	0x3c94bd33	0.018156623
31	0xbe1ac827	-0.15115415
32	0x3e53c946	0.20682248
33	0x3ddf5c02	0.10906221
34	0xbdd22479	-0.10260863
35	0xbdefcfaf	-0.117095344
36	0xbc953a30	-0.018216223
37	0xbddf3593	-0.1089889
38	0x3dd550ce	0.10415803
39	0xbd38cb86	-0.04511597
40	0xbcf71898	-0.030163094
41	0x3e84e722	0.2595759
42	0x3ec61af7	0.38692448
43	0xbe4ad368	-0.19807208
44	0x3e6c9f38	0.23107612
45	0xbe091364	-0.13386303
46	0xbdc8997e	-0.09794901
47	0x3e671f9a	0.22570649
48	0x3ef6d8e8	0.4821236
49	0xbd34ad2f	-0.044110473
50	0x3e4a4f82	0.19756892
51	0xbd1394c2	-0.03603054
52	0x3e19b7f2	0.15011576
53	0x3d9d5e15	0.0768396
54	0x3ed5f8c8	0.41791368
55	0x3e7e4cf1	0.24834038
56	0x3e7104a8	0.23536932
57	0x3e96a0f4	0.29419672
58	0x3dfda366	0.123846814
59	0x3e9a394a	0.30121833
60	0x3d1bcc64	0.03803672
61	0x3dbfe87c	0.09370515
62	0x3d399652	0.045309372
63	0x3e00e56b	0.12587516
64	0xbedb66e0	-0.42851925
65	0xbc7150af	-0.014728709
66	0x3dd8454c	0.10560092
67	0xbdb510c9	-0.08841092
68	0x3f087fea	0.5332018
69	0x3d846378	0.06464285
70	0xbda02a86	-0.07820611
71	0x3de19318	0.11014384
72	0x3eecee53	0.46275577
73	0x3d68dc02	0.05685044
74	0xbe3fb8fa	-0.18722907
75	0xbe0ef557	-0.13960777
76	0x3dfa7ace	0.122304544
77	0xbec7c385	-0.39016357
78	0x3e687bd2	0.22703484
79	0x3d1ec6f8	0.03876397
80	0x3ea2b8b8	0.31781554
81	0x3d6fcc1b	0.05854426
82	0x3dfd4157	0.12365978
83	0x3c10d0f5	0.008838882
84	0x3e85c940	0.26130104
85	0x3e0b2a06	0.1359025
86	0x3db33797	0.08750837
87	0x3ebf6254	0.37379706
88	0x3de05f1d	0.109556414
89	0xbbca2175	-0.006168539
90	0xbd650083	-0.05590869
91	0x3ddd2de5	0.10799769
92	0x3d29996b	0.041406076
93	0x3e0d641d	0.13807721
94	0x3bc0d16a	0.005884339
95	0xbc41ce4b	-0.011828969
96	0x3cb66062	0.022262756
97	0x3e4670a7	0.19378911
98	0xbd029f66	-0.031890295
99	0xbdf33664	-0.118756086
100	0x3d97aacc	0.07405624
101	0xbc942385	-0.018083343
102	0x3ca28e40	0.01984322
103	0xbd8e1645	-0.06937841
104	0x3e856cb5	0.260595
105	0x3e2bf1d8	0.16791475
106	0xbc8c4a3e	-0.017125245
107	0x3d9466dc	0.07246181
108	0x3e125dbf	0.14293574
109	0x3db8e6a9	0.0902837
110	0x3de7115a	0.112826064
111	0xbb9dd013	-0.004816064
112	0x3d8727cf	0.0659939
113	0x3e61d64c	0.22054404
114	0x3e9d17f8	0.3068235
115	0x3da32db6	0.07967703
116	0x3d635911	0.055504862
117	0x3d2da07d	0.04238938
118	0x3db91207	0.090366416
119	0xbce6604b	-0.028122088
120	0xbdd5407d	-0.10412691
121	0xbed1ee6b	-0.4100221
122	0x3e72403d	0.23657317
123	0x3d19b321	0.037524346
124	0xbe1101a8	-0.14160788
125	0xbe7971b8	-0.24359787
126	0x3d9c9362	0.076452985
127	0xbeb7ee84	-0.3592416
128	0xbe4c4ead	-0.19951887
129	0x3c705624	0.014668975
130	0xbd3149b9	-0.043283198
131	0xbd95f10c	-0.07321367
132	0xbe24a3b8	-0.16078079
133	0xbdf6f311	-0.1205808
134	0x3a96f638	0.0011517471
135	0xbe2596d6	-0.1617082
136	0xbeb4b745	-0.35296074
137	0xbe5cb52d	-0.21553488
138	0x3e4f911a	0.20270196
139	0x3e41a9fb	0.18912499
140	0x3c887062	0.01665515
141	0x3d9f6004	0.077819854
142	0x3d1b1f54	0.037871674
143	0xbe02b540	-0.12764454
144	0x3e38ca97	0.18046032
145	0xbd5a9903	-0.05336858
146	0x3d2264fb	0.039647084
147	0xbd1e33e3	-0.0386237
148	0xbe9e00dc	-0.3086003
149	0xbe938250	-0.28810358
150	0xbe95e7dd	-0.2927846
151	0xbd226e0a	-0.039655723
152	0xbeb0fb6f	-0.3456683
153	0xbe8d1cbc	-0.27560985
154	0xbe73d7c5	-0.23812778
155	0x3e45621e	0.1927571
156	0xbe51df73	-0.20495395
157	0x3eb3526d	0.35023823
158	0x3d646526	0.055760525
159	0x3cd80db0	0.026373714
160	0xbf0539de	-0.52041423
161	0xbd5ff31d	-0.05467521
162	0xbe381dae	-0.17980072
163	0xbe350c89	-0.17680563
164	0xbee3cb8a	-0.44491225
165	0xbee4556a	-0.44596416
166	0xbe2c17e2	-0.16805986
167	0xbe5a681c	-0.21328777
168	0xbdd6168f	-0.104535215
169	0xbd1cb539	-0.038258765
170	0xbe09bf45	-0.1345187
171	0xbeae3179	-0.3402212
172	0xbc2542ed	-0.010086757
173	0xbed5d59d	-0.41764536
174	0xbd483f28	-0.048888355
175	0xbbc3c475	-0.0059743472
176	0x3d830206	0.0639687
177	0xbebc6cd0	-0.36801767
178	0x3dd9e284	0.106389076
179	0x3dc01138	0.09378284
180	0xbd20a142	-0.039216287
181	0x3b73e4c1	0.0037215205
182	0xbe93324c	-0.2874931
183	0xbd9cff92	-0.07665934
184	0xbeebedd2	-0.4607988
185	0xbd8b416b	-0.06799587
186	0x3c7095dc	0.014684167
187	0xbe3cdef9	-0.18444432
188	0xbead871b	-0.3389214
189	0xbc9b032c	-0.01892241
190	0xbcec98d0	-0.02888146
191	0xbe7d7d5b	-0.2475485
192	0xbdb74d25	-0.08950261
193	0xbde71689	-0.11283595
194	0xbf058294	-0.5215237
195	0xbe02994c	-0.1275379
196	0xbe706a60	-0.23478079
197	0x3bdc9464	0.0067315567
198	0x3dcfabc1	0.10140181
199	0x3e06ce9e	0.13164756
200	0xbd18a069	-0.037262354
201	0xbeb983d7	-0.36233398
202	0x3e9e00dd	0.30860034
203	0xbce59376	-0.028024416
204	0x3e6f91b1	0.2339542
205	0x3d8f0e3e	0.06985138
206	0xbd91b9eb	-0.07115539
207	0xbdc49076	-0.09597866
208	0xbdd9ae3b	-0.10628935
209	0x3c5e3cf3	0.013564336
210	0xbe195525	-0.14973886
211	0x3cd6e1e7	0.026230766
212	0x3cde2860	0.027118862
213	0x3e120471	0.14259507
214	0xbe27c7a2	-0.16384748
215	0xbcf5a770	-0.029987067
216	0xbe302c52	-0.17204407
217	0xbd083c87	-0.03326085
218	0xbc23d7f1	-0.010000215
219	0x3d3dff2c	0.04638593
220	0xbbd294b4	-0.006426418
221	0x3e550464	0.20802456
222	0x3c395d5e	0.011313764
223	0x3c422345	0.011849229
224	0x3f16181b	0.5863053
225	0x3c87f9f9	0.016598688
226	0x3db1f479	0.086892076
227	0x3e0edf84	0.13952452
228	0xbedcb836	-0.43109292
229	0x3d27b3c2	0.040942915
230	0xbe2ecc16	-0.1707004
231	0x3e8d58e1	0.27606872
232	0xbea23a5a	-0.31685144
233	0x3cbeaf08	0.02327682
234	0x3d231448	0.039814264
235	0x3ea46c0a	0.32113677
236	0xbc8c31e0	-0.017113626
237	0x3e825a41	0.25459483
238	0xbd146fb4	-0.03623934
239	0x3bef6694	0.0073059294
240	0x3ea06730	0.31328726
241	0xbe4027cb	-0.1876518
242	0x3d16668d	0.036718894
243	0x3e72c53d	0.23708053
244	0x3d9c9730	0.07646024
245	0x3e913f66	0.28368682
246	0x3e1fde8a	0.15612236
247	0x3e978611	0.29594472
248	0x3e2b8451	0.16749693
249	0x3d7f34a5	0.062306065
250	0x3e370ad0	0.17875218
251	0x3dbbdfd4	0.09173551
252	0x3e3930ad	0.18084975
253	0x3d08c002	0.033386238
254	0x3c831f0a	0.016006012
255	0x3dd946dd	0.10609219

model.encoder.0.bias f4 [9]
0	0xbdb621db	-0.08893176
1	0xbde9827d	-0.11401842
2	0x3e3ba16e	0.183233
3	0x3e57e7ab	0.21084468
4	0x3c1237d5	0.008924444
5	0x3e8e90f9	0.2784498
6	0x3e0ca7cd	0.13735886
7	0xbde14a42	-0.11000492
8	0x3d0d65d1	0.034520928

model.encoder.3.weight f4 [2, 9]
0	0x3e8140e1	0.2524481
1	0x3e7ca93a	0.2467393
2	0xbe8d427b	-0.27589783
3	0xbe163137	-0.14667211
4	0x3e5c51db	0.215156
5	0xbec13940	-0.3773899
6	0xbe791280	-0.24323463
7	0x3edc3a3b	0.43013176
8	0xbe8d5012	-0.2760015
9	0x3d819a45	0.06328253
10	0x3eaf7bae	0.34274048
11	0x3e88e258	0.26735187
12	0xbeb2a80b	-0.34893832
13	0xbe896316	-0.2683341
14	0xbe487309	-0.19575132
15	0x3e515883	0.20443921
16	0x3e119c36	0.14219746
17	0x3e22e8c0	0.159091

model.encoder.3.bias f4 [2]
0	0xbd5b2c09	-0.053508792
1	0xbd9e3752	-0.07725395

model.decoder.0.weight f4 [9, 2]
0	0xbe9180c2	-0.28418547
1	0xbf0ba13a	-0.5454289
2	0x3d8a276c	0.067458004
3	0x3e68cfdf	0.22735547
4	0x3f21026c	0.6289432
5	0x3e9e1a70	0.30879545
6	0x3f0c1853	0.54724616
7	0x3e0f2de4	0.1398235
8	0x3d7b6334	0.061373904
9	0x3f1a53ae	0.60283935
10	0xbee571a5	-0.44813266
11	0x3f03dcac	0.51508594
12	0xbeeeabfc	-0.4661559
13	0xbf27f595	-0.65609103
14	0x3ebc129d	0.3673295
15	0x3ef4138a	0.47671157
16	0xbd88b5a0	-0.06675267
17	0xbe95a7eb	-0.29229674

model.decoder.0.bias f4 [9]
0	0xbe24a40a	-0.16078201
1	0x3ee87421	0.454011
2	0xbe0969fb	-0.13419335
3	0x3ebe18f6	0.3712842
4	0xbe671c46	-0.22569379
5	0x3e21c173	0.15796451
6	0xbc5b337b	-0.013378973
7	0xbe99f930	-0.30072927
8	0xbf093d56	-0.53609216

model.decoder.2.weight f4 [40, 9]
0	0xbe9f3bc8	-0.31100297
1	0xbcb8e434	-0.022569753
2	0xbdf37be2	-0.11888863
3	0xbe80aa6e	-0.25130028
4	0x3e27b725	0.16378458
5	0x3f10c845	0.5655559
6	0xbe3186b2	-0.17336538
7	0xbed9f10f	-0.42566726
8	0xbeb2a191	-0.3488889
9	0xbe88e072	-0.26733738
10	0x3e82bcf1	0.25534776
11	0x3e27579c	0.16342014
12	0x3e83613b	0.25660118
13	0xbe306a0d	-0.17227955
14	0x3d6aa8e1	0.05728996
15	0xbef70279	-0.48244074
16	0xbee01a30	-0.4376998
17	0xbee2345e	-0.44180578
18	0x3ebf8b2c	0.37410867
19	0xbe08e257	-0.13367592
20	0x3d4f1ba7	0.05056348
21	0x3e459a97	0.19297253
22	0x3ec7c899	0.3902023
23	0x3e851fbe	0.2600078
24	0x3e039be2	0.12852433
25	0x3e9a89e5	0.3018333
26	0x3eca9106	0.3956377
27	0x3e28871e	0.16457793
28	0x3db0c80e	0.086319074
29	0xbe0c5a74	-0.1370638
30	0xbe1fe874	-0.15616018
31	0x3d927809	0.07151801
32	0x3d0c789e	0.034294717
33	0xbb890f1e	-0.0041827103
34	0x3e515031	0.20440747
35	0x3e775ca9	0.24156441
36	0x3d562cfa	0.052288987
37	0x3ecde348	0.40212464
38	0x3d94881f	0.072525255
39	0xbe220452	-0.1582196
40	0x3eadd45a	0.33951074
41	0x3e7e3ac1	0.248271
42	0x3e5577bd	0.20846458
43	0x3df2bf2a	0.11852868
44	0x3e2da2ae	0.16956589
45	0xbe87536f	-0.26430842
46	0x3d3e8e6e	0.04652255
47	0xbe5eb2e2	-0.21747926
48	0xbea3bace	-0.31978458
49	0x3d28f2c5	0.041247148
50	0x3e71c249	0.2360927
51	0x3d57d6de	0.052695148
52	0x3e3917e8	0.18075526
53	0x3e354b00	0.17704391
54	0x3e882d32	0.2659698
55	0x3e8ebec5	0.2787992
56	0xbdd33907	-0.103136115
57	0xbd87afc0	-0.066253185
58	0xbce2bbab	-0.027677378
59	0x3d478c24	0.048717633
60	0xbe5f5886	-0.21811113
61	0xbe4df9b2	-0.20114782
62	0x3e155c28	0.14585936
63	0xbe5b9dbf	-0.21446894
64	0xbdb37b3c	-0.087637395
65	0xbe34438b	-0.1760389
66	0xbdcf3371	-0.101172335
67	0xbce43c2a	-0.02786072
68	0x3f090b68	0.5353303
69	0xbeade472	-0.33963352
70	0x3e3fea9a	0.18741837
71	0xbe9d30d9	-0.3070133
72	0x3d373ce0	0.04473579
73	0xbd911334	-0.07083741
74	0x3dc13187	0.09433275
75	0x3d6d490e	0.057931
76	0x3ec272ab	0.3797811
77	0x3e45fce0	0.19334745
78	0x3da35646	0.0797544
79	0x3ea4b1fe	0.32167047
80	0xbe961f3a	-0.293207
81	0x3e0dd8f5	0.13852294
82	0xbc599f83	-0.013282659
83	0xbe0f4ab5	-0.13993342
84	0x3e4b61bf	0.19861506
85	0xbefe91f3	-0.49720725
86	0x3e840338	0.25783706
87	0xbe2518ff	-0.16122817
88	0x3e313061	0.17303611
89	0x3d7f3b90	0.062312663
90	0xbe039755	-0.12850697
91	0x3cd90605	0.026492128
92	0xbcba3a24	-0.022732802
93	0xbe00db16	-0.12583575
94	0x3e615fbd	0.22009178
95	0x3d67173d	0.056418646
96	0xbd2a4eda	-0.041579105
97	0x3d454073	0.048157167
98	0xbeadd5ab	-0.33952078
99	0xbda96b6a	-0.08272441
100	0x3e93b911	0.28852132
101	0xbd935b56	-0.07195155
102	0x3dfeaf60	0.12435794
103	0xbd869fd8	-0.065734565
104	0x3e808dac	0.25108087
105	0x3d3ceff4	0.046127275
106	0xbe7de622	-0.2479482
107	0x3d3ceff5	0.04612728
108	0xbdd7e255	-0.10541216
109	0xbd5bd48f	-0.05366951
110	0xbeccfa99	-0.4003494
111	0x3d15dc2a	0.036586918
112	0x3cde7309	0.027154462
113	0x3e85a13a	0.2609957
114	0xbe261012	-0.16217068
115	0x3d8586ec	0.06519875
116	0xbcec118b	-0.028816959
117	0xbe200a71	-0.15628983
118	0xbc75276e	-0.014963014
119	0xbe19f1f9	-0.15033711
120	0x3e655d8a	0.22398964
121	0xbaf7737a	-0.0018879019
122	0x3e7da173	0.24768619
123	0x3dd9a2f3	0.10626783
124	0xbd1e0d59	-0.038586948
125	0xbdcad2e5	-0.09903506
126	0x3c919190	0.017769605
127	0x3e4a1076	0.19732842
128	0x3ec445df	0.38334557
129	0xbc452495	-0.012032648
130	0x3d239fc8	0.0399473
131	0x3d9cfc21	0.07665277
132	0xbd2f892a	-0.04285542
133	0x3e8e71f9	0.2782133
134	0x3e3b48fd	0.18289562
135	0x3d98cbaf	0.074607246
136	0x3d8bda1f	0.06828713
137	0xbe48d2a9	-0.1961161
138	0x3d7b91d5	0.061418373
139	0x3dd8ebb6	0.10591833
140	0x3d3a92ac	0.045550033
141	0xbe543283	-0.20722394
142	0xbd6551f3	-0.055986356
143	0x3dea08b9	0.11427445
144	0xbea14a7f	-0.31502149
145	0x3e303901	0.17209245
146	0x3e3a3b33	0.18186645
147	0x3ea45516	0.32096165
148	0xbe5ce8fa	-0.21573249
149	0x3d93a8fa	0.07209964
150	0xbe785128	-0.24249709
151	0xbe538d8a	-0.20659462
152	0x3d022f64	0.031783476
153	0xbcdced0c	-0.026968502
154	0xbebed016	-0.37268132
155	0x3dc8014f	0.097658746
156	0x3d145951	0.03621799
157	0x3ed513aa	0.41616565
158	0x3e146aec	0.14493912
159	0xbcf04c8e	-0.02933338
160	0x3e90e1ef	0.28297374
161	0x3d551055	0.05201753
162	0x3e50fa18	0.20407903
163	0x3d8fbe44	0.07018712
164	0xbdd79e16	-0.105281994
165	0xbc596c60	-0.0132704675
166	0x3e393f5f	0.1809058
167	0xbe3a06cd	-0.18166657
168	0x3e027b9e	0.12742469
169	0x3e2b4fe5	0.16729696
170	0xbb541df6	-0.003236649
171	0xbd802eb2	-0.062589064
172	0xbd13b1fb	-0.036058407
173	0x3ec061f3	0.3757473
174	0x3ddba9c9	0.10725743
175	0x3e025c39	0.12730493
176	0x3bfcd06d	0.007715276
177	0x3e47c399	0.19508208
178	0xbe7bba4b	-0.24582784
179	0x3e06ea02	0.13175204
180	0xbe3aee00	-0.18254852
181	0xbe91ad69	-0.28452614
182	0x3dde9a3b	0.10869261
183	0xbe68fd21	-0.22752811
184	0x3e6af96c	0.2294671
185	0x3cce1f2f	0.025161354
186	0xbd9b87bb	-0.07594248
187	0xbd9a8053	-0.07544007
188	0xbe091cd0	-0.13389897
189	0x3e8d34cc	0.27579343
190	0x3d833777	0.064070635
191	0x3e3b4387	0.18287478
192	0xbdb5d946	-0.08879332
193	0xbdd278d9	-0.10276956
194	0x3e5b0ae0	0.21390867
195	0x3d7acc3a	0.061229922
196	0x3eb9ef63	0.3631545
197	0x3e9a176c	0.30095994
198	0xbe3c0fea	-0.18365446
199	0xbd1dd45a	-0.038532592
200	0x3e7e886a	0.24856725
201	0xbe8b2d03	-0.2718278
202	0x3ce7dfe1	0.028304996
203	0xbd64821c	-0.055788144
204	0x3d0afb6c	0.03393118
205	0xbddd35b8	-0.10801262
206	0xbe94bad1	-0.2904878
207	0x3e2a9af6	0.16660675
208	0x3e2a5613	0.16634397
209	0x3cd39596	0.025828164
210	0x3e80a004	0.25122082
211	0xbde8d72d	-0.113691665
212	0x3e354816	0.1770328
213	0x3d15519f	0.036454793
214	0xbdab06ca	-0.08350904
215	0xbde53147	-0.111910395
216	0xbc539c6b	-0.012915711
217	0xbe24b832	-0.1608589
218	0x3e8fa124	0.28052628
219	0xbe061828	-0.13095152
220	0xbdda5d41	-0.10662318
221	0x3f2c8730	0.6739378
222	0x3f313493	0.69220847
223	0x3b76b008	0.0037641544
224	0x3c336ad2	0.010950761
225	0xbca0d0f3	-0.019630885
226	0x3dc0ed66	0.0942028
227	0xbe997026	-0.29968375
228	0x3e23ab02	0.15983203
229	0x3e0563b7	0.1302632
230	0x3d8dfc90	0.06932938
231	0xbc849a5d	-0.016186887
232	0xbe2e6b98	-0.17033231
233	0xbe9d2d9e	-0.30698866
234	0xbe16b2ba	-0.14716616
235	0xbe2afd5c	-0.16698211
236	0x3dfa047d	0.12207887
237	0xbe4ae6fe	-0.19814679
238	0x3dfc2a61	0.12312771
239	0xbd377a96	-0.04479464
240	0x3df3b291	0.11899293
241	0x3dbc05e3	0.0918081
242	0xbde601da	-0.11230822
243	0x3d0c3d5c	0.034238204
244	0xbddbcf1c	-0.10732862
245	0x3e5b8d3d	0.21440597
246	0xbe59de4d	-0.21276207
247	0xbe9feff6	-0.31237763
248	0x3e7f5763	0.24935679
249	0xbcbc3f03	-0.022979265
250	0x3e27e610	0.16396356
251	0xbd643ddf	-0.055723067
252	0x3dd77d16	0.10521905
253	0x3df5f85f	0.12010264
254	0x3eeb717d	0.45985022
255	0x3ebbb9a6	0.36665076

model.decoder.2.bias f4 [40]
0	0xbe283784	-0.16427428
1	0xbe1ae51b	-0.1512646
2	0x3e42a4e2	0.1900821
3	0x3dd9bef1	0.10632122
4	0xbcea9a6a	-0.028638083
5	0x3d733876	0.059380017
6	0xbd822c6c	-0.06356129
7	0xbdc505b4	-0.096202284
8	0x3d0d0ce6	0.03443613
9	0xbd6e8be0	-0.058238864
10	0xbb978494	-0.004623959
11	0xbe515c47	-0.20445357
12	0xbd3d4d86	-0.04621651
13	0xbe032064	-0.12805325
14	0x3e2637a7	0.16232167
15	0x3d1d7224	0.03843893
16	0xbc4abdfa	-0.0123743955
17	0x3e7d7fc2	0.24755767
18	0x3e37b142	0.17938712
19	0x3de7e50e	0.113229856
20	0x3e1289c2	0.14310363
21	0x3e021a98	0.12705457
22	0x3ce6412f	0.028107254
23	0xbe217229	-0.15766205
24	0xbd24334a	-0.040087976
25	0xbe360f6e	-0.17779323
26	0x3de0bb0e	0.10973178
27	0x3d5bb0e0	0.053635478
28	0x3c7acf6f	0.015308245
29	0xbe0b5c1d	-0.13609357
30	0xbd0adeb7	-0.033903804
31	0x3e188763	0.14895396
32	0x3e05f060	0.13079977
33	0xbe09f270	-0.13471389
34	0xbe313b5b	-0.17307799
35	0x3e6feb50	0.23429608
36	0xbc7c72ca	-0.015408227
37	0x3c9dcda7	0.019263102
38	0x3dc65c4a	0.096855715
39	0x3e7c0dfe	0.24614713
