torch_model_storage_26_Jun_2025/model_Late_IA_v_Early_RS_Correct_Het CLNZ_Late_IA.pt (torch, 10841 bytes, 8 tensors)

model.encoder.0.weight f4 [9, 80]
0	0xbe579c82	-0.21055797
1	0xbd11de0b	-0.035612147
2	0xbdb37b4d	-0.08763752
3	0xbdfd57c6	-0.12370257
4	0xbdff3038	-0.12460369
5	0xbe2efa48	-0.17087662
6	0xbd269742	-0.040671594
7	0xbdf631be	-0.12021206
8	0xbd4cdd5c	-0.050015792
9	0x3b5b3592	0.0033448678
10	0xbe2b8179	-0.16748609
11	0xbdc16231	-0.09442557
12	0xbe48034b	-0.19532506
13	0xbdbc597d	-0.09196756
14	0xbd18e16f	-0.037324365
15	0xbdf8dde3	-0.121516965
16	0xbe2a2b52	-0.16618088
17	0xbd738975	-0.05945726
18	0x3cf60cc1	0.030035378
19	0xbd239d5c	-0.03994499
20	0xbe0d4944	-0.1379748
21	0xbbaaa4d3	-0.005207637
22	0xbe512e4d	-0.20427819
23	0xbe12b43e	-0.1432657
24	0xbe73a3ca	-0.2379295
25	0xbe42597c	-0.18979448
26	0xbe46639f	-0.1937394
27	0xbd7100cc	-0.05883865
28	0xbd9bbfa1	-0.0760491
29	0xbd99920a	-0.07498558
30	0xbdd49c52	-0.10381378
31	0xbe34b3b7	-0.17646681
32	0xbd606991	-0.054788176
33	0xbdb1b757	-0.086775474
34	0xbdd7653e	-0.10517357
35	0xbe1e9239	-0.15485467
36	0xbdd09f69	-0.10186655
37	0xbddfb05c	-0.1092231
38	0xbd49aeda	-0.049239017
39	0xbdf267e6	-0.11836223
40	0xbe1caef3	-0.15301113
41	0xbc87e1d3	-0.016587174
42	0xbb4ab81b	-0.003093249
43	0xbe73c061	-0.23803855
44	0xbd9a9b39	-0.075491376
45	0xbd9ccfb5	-0.076568045
46	0xbd1caad4	-0.038248852
47	0xbd1c4ad5	-0.038157303
48	0xbdcd0cee	-0.10012232
49	0xbe026016	-0.12731966
50	0x3d96a522	0.07355715
51	0xbaaa3465	-0.0012985585
52	0xbdd33237	-0.10312312
53	0xbd9a1dc2	-0.07525207
54	0xbe1500b5	-0.14551051
55	0xbdc24a16	-0.09486787
56	0xbd478630	-0.048711956
57	0xbd61f3e1	-0.05516422
58	0xbe2bb019	-0.16766395
59	0xbd9d362b	-0.07676347
60	0xbe6e8526	-0.2329298
61	0xbdd216f7	-0.102582864
62	0xbc5fc6c4	-0.013658229
63	0xbe0b7817	-0.1362003
64	0xbd049abd	-0.032374132
65	0xbca02b23	-0.01955182
66	0xbe0dab9c	-0.13834995
67	0xbe0fa4a3	-0.14027648
68	0xbd66ca4e	-0.056345277
69	0xbda15dff	-0.078792565
70	0xbe10680f	-0.14102195
71	0xbd7b735f	-0.061389323
72	0xbdbfe41e	-0.09369682
73	0xbe5c111a	-0.21490899
74	0xbd7f12b8	-0.06227371
75	0xbdbf9d6e	-0.09356199
76	0xbe522e20	-0.20525408
77	0x3d822ad6	0.063558266
78	0xbc381ab0	-0.011236832
79	0xbd57a354	-0.052645996
80	0xbc39b4a0	-0.011334568
81	0xbbd04c97	-0.0063567865
82	0xbd684352	-0.056704827
83	0xbde0c845	-0.109756984
84	0xbe6003b0	-0.21876407
85	0xbe110503	-0.14162068
86	0xbe26bb70	-0.16282439
87	0xbbc87a0f	-0.006118066
88	0xbe3203bd	-0.17384239
89	0xbd70b6d8	-0.058768123
90	0xbe044217	-0.12915836
91	0xbe492ec4	-0.19646746
92	0xbdf802a2	-0.12109877
93	0xbe123043	-0.14276223
94	0xbdb95ee4	-0.09051302
95	0xbded1091	-0.115754254
96	0xbd4eeadd	-0.05051695
97	0xbdc4fec2	-0.09618904
98	0xbd418ffd	-0.04725646
99	0xbdc3bd13	-0.095575474
100	0xbdea2521	-0.11432863
101	0xbe116e13	-0.14202146
102	0xbd88b70d	-0.06675539
103	0xbd34e6d9	-0.044165466
104	0xbdd4eb54	-0.10396448
105	0xbdedcbbc	-0.11611125
106	0xbe41c269	-0.18921818
107	0xbda6b588	-0.08140093
108	0xbe508887	-0.20364581
109	0x3d5a5bf5	0.053310353
110	0xbdc4513f	-0.09585809
111	0x3cefe9ca	0.029286284
112	0xbddef7a1	-0.10887075
113	0xbd912360	-0.07086825
114	0xbe3c2b45	-0.18375881
115	0xbe0a3f6a	-0.13500753
116	0xbd1814cc	-0.03712921
117	0xbd00a5d3	-0.031408142
118	0xbd9683ab	-0.073493324
119	0xbe1b798e	-0.15183088
120	0xbe10e310	-0.14149117
121	0xbd759145	-0.059952993
122	0xbd652465	-0.05594291
123	0xbe0f9fc1	-0.14025785
124	0xbdf0df56	-0.11761348
125	0xbc713e8d	-0.014724386
126	0xbd59279b	-0.053016286
127	0xbdb6b92d	-0.08922038
128	0xbe1e8ab4	-0.15482599
129	0xbe79e9f6	-0.24405655
130	0xbe54bfc1	-0.20776273
131	0x3d82c8c3	0.063859485
132	0xbdb7c799	-0.08973617
133	0xbe394fb6	-0.18096814
134	0xbe57d6e3	-0.21078067
135	0xbdaa158d	-0.08304892
136	0x3d6d0600	0.05786705
137	0xbd1b2f20	-0.03788674
138	0xbd74ca14	-0.05976303
139	0xbdbbb016	-0.09164445
140	0xbdd5614d	-0.10418949
141	0xbe1eb018	-0.15496862
142	0xbd191040	-0.037369013
143	0xbe5fc487	-0.21852313
144	0xbc26cfda	-0.010181392
145	0xbdfe1cce	-0.12407838
146	0xbd87a3d8	-0.066230476
147	0xbdf302bc	-0.11865756
148	0xbc616716	-0.013757488
149	0xbe6f7183	-0.23383145
150	0xbe233b21	-0.15940525
151	0xbe5a5e6d	-0.21325083
152	0xbdb54d44	-0.08852628
153	0xbdb245db	-0.0870473
154	0x3c00cce1	0.007861347
155	0xbe3561cd	-0.1771309
156	0xbe0ac1e5	-0.13550527
157	0xbd82b47b	-0.0638208
158	0xbe35c496	-0.17750773
159	0x3e484fc9	0.19561686
160	0x3c8b07a8	0.016971424
161	0x3d002c5f	0.031292316
162	0xbe15d162	-0.14630654
163	0x3d1e67c1	0.038673166
164	0x3e180ebd	0.14849372
165	0x3e51f234	0.2050255
166	0x3d6fc8a4	0.058540955
167	0x3df03aa5	0.117299356
168	0x3d895c11	0.067070134
169	0x3dad2d15	0.08455864
170	0x3cfb5f65	0.030685136
171	0x3dd97318	0.106176555
172	0x3d2d58b4	0.042320922
173	0x3e222718	0.15835226
174	0xbd9d93f5	-0.07694236
175	0x3d1645cb	0.036687654
176	0x3d32eca3	0.043682706
177	0xbaa3af50	-0.001248816
178	0x3e0c97ab	0.13729732
179	0x3dc6e43f	0.09711503
180	0xbda811d7	-0.08206528
181	0x3e2e2743	0.17007165
182	0xbd783c92	-0.06060464
183	0x3ddde2bb	0.10834261
184	0xbbbde364	-0.0057949293
185	0xbe6bb23a	-0.23017207
186	0x3d213158	0.0393537
187	0xbdd8b12e	-0.10580669
188	0x3b9a0aa6	0.0047009764
189	0x3e43708a	0.19085899
190	0x3dae1fd6	0.08502166
191	0x3e8c66d0	0.2742219
192	0x3dc2193a	0.09477468
193	0x3dfd834d	0.12378559
194	0xbd9a4e36	-0.07534449
195	0xbe491e11	-0.19640376
196	0x3c948503	0.018129831
197	0x3e152205	0.14563759
198	0x3d52820c	0.051393554
199	0x3deb3e86	0.11486535
200	0x3d29a87c	0.041420445
201	0xbde71bd0	-0.11284602
202	0xbca83a2b	-0.02053555
203	0x3bb734e1	0.0055910205
204	0xbcc4959e	-0.023997124
205	0xbd2821e0	-0.04104793
206	0x3da29ec1	0.07940436
207	0x3d951d50	0.072809815
208	0x3dbf5dfb	0.09344097
209	0xbca6a30a	-0.020341415
210	0x3ba5d54f	0.0050608288
211	0x3e321eba	0.17394534
212	0x3e1181e0	0.142097
213	0xbd92847f	-0.07154178
214	0xbcc076fe	-0.02349424
215	0x3e9a16c9	0.3009551
216	0x3cd724ba	0.02626263
217	0xbd3e0c7d	-0.04639863
218	0x3df51b3f	0.119680874
219	0x3d4fe672	0.05075688
220	0x3d726b6c	0.059184477
221	0xbbed4e9d	-0.0072420374
222	0x3e44ab58	0.19205987
223	0xbe3d6ae0	-0.18497801
224	0xbd7653d4	-0.06013854
225	0x3d85b18a	0.065280035
226	0x3e0315bd	0.12801261
227	0x3cedc27d	0.029023403
228	0x3d2ea6a6	0.042639397
229	0x3e3aa381	0.18226434
230	0xbd7c8d09	-0.06165794
231	0xbe06a0a3	-0.13147216
232	0x3db22363	0.08698156
233	0x3e5564b7	0.20839201
234	0x3e02a0df	0.1275668
235	0x3e7d74c5	0.24751575
236	0x3e237a39	0.15964593
237	0x3da5d717	0.08097666
238	0xbdb29d8a	-0.087214544
239	0x3dee460d	0.11634455
240	0xbdc43b2b	-0.09581598
241	0xbe0a1a5d	-0.1348662
242	0xbd9a2f45	-0.07528547
243	0xbe03c8d1	-0.12869574
244	0xbd829f63	-0.06378057
245	0xbd9f7cf4	-0.07787505
246	0xbdcf2dd7	-0.10116165
247	0xbe3c8bd3	-0.18412714
248	0xbdf807cc	-0.12110862
249	0xbdc2371c	-0.094831675
250	0xbe6081d8	-0.21924531
251	0xbd0dc623	-0.034612786
252	0xbd11031c	-0.035403356
253	0xbc313980	-0.010816932
254	0xbd98f67c	-0.07468888
255	0x3c1c14cd	0.009526444

model.encoder.0.bias f4 [9]
0	0xbdb8a742	-0.09016277
1	0xbcdccc2a	-0.026952822
2	0x3deab3ed	0.11460099
3	0xbe0ed145	-0.13947017
4	0xbdbf1602	-0.093303695
5	0xbd6067a2	-0.054786332
6	0x3e1b5c73	0.15171985
7	0x3e23eb36	0.16007695
8	0x3e549774	0.207609

model.encoder.3.weight f4 [2, 9]
0	0x3d957684	0.07297996
1	0xbdac82da	-0.084233955
2	0xbe20aa0d	-0.15689869
3	0x3e4719f5	0.19443496
4	0x3dc4f915	0.09617821
5	0x3cd3596e	0.02579948
6	0xbe473995	-0.1945556
7	0xbe5e478d	-0.21706982
8	0xbe779ccc	-0.24180907
9	0xbaf15816	-0.0018413092
10	0xbd25b079	-0.0404515
11	0xbd8aff4e	-0.06786977
12	0x3e8aa515	0.27079073
13	0x3e7f2011	0.24914576
14	0x3e576d86	0.21037874
15	0x3e1b5358	0.15168512
16	0x3e6e588a	0.23275962
17	0xbeaf322f	-0.34217975

model.encoder.3.bias f4 [2]
0	0x3dec2bab	0.115317665
1	0x3ddc747c	0.10764405

model.decoder.0.weight f4 [9, 2]
0	0x3ec959e0	0.39326382
1	0xbe10e0d9	-0.14148273
2	0x3e906584	0.2820245
3	0xbf5147df	-0.8175029
4	0xbee9032f	-0.4551024
5	0x3eaf8769	0.34282997
6	0xbe208613	-0.15676145
7	0x3e303ff6	0.17211899
8	0x3f1d9b4c	0.6156509
9	0xbe6e32fd	-0.23261638
10	0x3db411b0	0.08792436
11	0x3ed23ddd	0.41062823
12	0xbeb0e800	-0.34552002
13	0xbf33a9dd	-0.70181066
14	0x3f17d0e3	0.5930311
15	0xbe77426e	-0.24146435
16	0xbe91ce61	-0.28477767
17	0xbecbc278	-0.39796805

model.decoder.0.bias f4 [9]
0	0x3ec63317	0.38710853
1	0x3e71c647	0.23610793
2	0x3deabc17	0.114616565
3	0x3e52033b	0.20509045
4	0xbdd19d31	-0.1023506
5	0xbefe2a32	-0.49641567
6	0xbe88b42a	-0.26699954
7	0x3e5bd5fa	0.21468344
8	0xbf0819d1	-0.5316439

model.decoder.2.weight f4 [80, 9]
0	0xbeb956af	-0.36198947
1	0xbd18c99c	-0.037301645
2	0x3e0daa6a	0.13834539
3	0xbd8ec3af	-0.069709174
4	0x3ea21bb4	0.3166176
5	0x3e5d9610	0.21639276
6	0x3dcf6e11	0.101284154
7	0x3d5d01ae	0.05395668
8	0x3bd0b291	0.006368943
9	0x3e285f6c	0.1644265
10	0x3c035906	0.00801683
11	0xbdac1dad	-0.08404098
12	0x3e2063e6	0.15663108
13	0xbbfa3b25	-0.007636445
14	0x3e94611d	0.28980342
15	0x3e2cfd44	0.16893488
16	0xbe4d8341	-0.200696
17	0x3e75c025	0.23999079
18	0x3db31231	0.08743704
19	0x3ea09044	0.31360066
20	0x3d7a08bc	0.061043486
21	0x3f0702f3	0.52738875
22	0xbddf36cd	-0.10899124
23	0xbd10120d	-0.035173465
24	0xbe654ef8	-0.22393405
25	0xbe578ce4	-0.2104984
26	0xbe1ec5ab	-0.15505092
27	0x3e2f982f	0.17147897
28	0xbd03d8cc	-0.032189175
29	0xbdddf822	-0.10838343
30	0x3d8d0ec6	0.068875834
31	0xbe5002df	-0.20313595
32	0xbc2608bb	-0.010133917
33	0x3e8a8115	0.27051607
34	0xbe90800d	-0.28222695
35	0xbe701b06	-0.23447809
36	0x3e6beea2	0.2304025
37	0x3d872c20	0.06600213
38	0x3e8d3c19	0.27584913
39	0x3df62aa7	0.12019854
40	0x3c9affb7	0.018920762
41	0xbe8a46bb	-0.27007088
42	0xbe167c1e	-0.14695784
43	0xbe8e9dbf	-0.27854726
44	0x3eb7c69b	0.3589371
45	0xbe0120cd	-0.12610169
46	0xbe72297f	-0.23648642
47	0x3ddcad9e	0.10775302
48	0x3ede1a54	0.43379462
49	0xbd9bd6f1	-0.07609356
50	0xbddf5120	-0.10904145
51	0x3ef805f5	0.48442045
52	0xbd054f73	-0.03254647
53	0x3edf2009	0.43579128
54	0xbe67cae1	-0.22635986
55	0x3da6f41e	0.081520304
56	0x3e0ae3ad	0.13563414
57	0xbbcf7d03	-0.006332041
58	0x3dd4f240	0.10397768
59	0xbe8f4d0f	-0.2798848
60	0x3e5debec	0.21672028
61	0xbeb86c0e	-0.3601994
62	0x3da77758	0.0817706
63	0x3d92a912	0.07161154
64	0x3ebf4fc0	0.37365532
65	0x3e813022	0.25232035
66	0xbd9973c9	-0.074927874
67	0x3d983562	0.07432057
68	0xbdb8614b	-0.09002932
69	0x3d68af66	0.056807898
70	0x3e3d037d	0.18458362
71	0x3e4ecba5	0.20194872
72	0xbd8618f0	-0.06547725
73	0x3ebcb867	0.36859438
74	0x3e82b7bb	0.255308
75	0x3d922718	0.07136363
76	0xbdf3668d	-0.118847944
77	0xbd63ac4f	-0.05558425
78	0xbd32c544	-0.04364516
79	0x3d5f1f45	0.05447318
80	0xbd91ebf3	-0.07125082
81	0xbe92db79	-0.2868307
82	0xbec5fece	-0.38670963
83	0x39836f0c	0.00025069003
84	0xbe76dd2e	-0.24107811
85	0xbea8e484	-0.32986844
86	0xbdb695d9	-0.089153
87	0xbd64d04e	-0.055862717
88	0x3e204c41	0.15654089
89	0x3d7524cc	0.059849545
90	0x3cbbe7e7	0.022937728
91	0x3f0d176d	0.5511387
92	0xbe1c20ce	-0.15246889
93	0x3e0c349b	0.13691942
94	0x3e595e99	0.21227492
95	0x3ddcf105	0.10788158
96	0x3ec4407e	0.38330454
97	0xbca8f0fd	-0.020622725
98	0x3edf92c0	0.4366665
99	0x3dacf09b	0.08444329
100	0x3cf754cc	0.030191801
101	0x3ed7a6aa	0.42119342
102	0xb9fd504e	-0.00048315752
103	0x3d6fa390	0.058505595
104	0xbe309137	-0.17242895
105	0xbc523c61	-0.012831778
106	0x3dab0855	0.083511986
107	0x3e8efc60	0.27926922
108	0x3e325019	0.17413367
109	0xbe237300	-0.15961838
110	0x3f08442e	0.53229034
111	0xbc02368f	-0.007947578
112	0x3b4a831d	0.0030900904
113	0xbe9b4b6d	-0.30330983
114	0xbd7e3fe9	-0.06207267
115	0xbec8a0be	-0.39185137
116	0xbe9b79e0	-0.3036642
117	0xbe4e4fc8	-0.20147622
118	0x3e44cb50	0.19218183
119	0x3ebf627c	0.37379825
120	0x3cbb5f71	0.022872658
121	0xbeea8c4b	-0.4581016
122	0xbdc9f34a	-0.09860857
123	0x38bd0c40	9.014504e-05
124	0xbef1560e	-0.47135967
125	0xbe90c670	-0.28276396
126	0x3e21f18c	0.15814799
127	0xbe4f8dbf	-0.20268916
128	0xbcc06899	-0.023487376
129	0x3df2e58c	0.11860189
130	0xbe5227b7	-0.20522963
131	0x3d0ee498	0.034885973
132	0x3e27b872	0.16378954
133	0x3de79574	0.11307803
134	0x3e8d07fe	0.2754516
135	0xbdc0f7f0	-0.0942229
136	0xbe4bf502	-0.19917682
137	0x3ea6f41f	0.32608125
138	0xbd2143a2	-0.03937114
139	0xbcf7e889	-0.030262249
140	0xbc9884f7	-0.01861809
141	0xbebabdfb	-0.3647307
142	0xbf09b0b7	-0.5378527
143	0xbe255864	-0.16147
144	0xbcd756ba	-0.026286472
145	0x3ca46009	0.020065324
146	0x3e960237	0.29298565
147	0xbe4cf4cc	-0.20015258
148	0xbebc263a	-0.36747915
149	0xbeda4b35	-0.42635503
150	0xbe83cbb1	-0.25741342
151	0x3e459ed4	0.1929887
152	0x3e52bf93	0.20580892
153	0x3c84b151	0.016197832
154	0x3d459afc	0.048243508
155	0x3d4a6981	0.049417023
156	0xbd12be31	-0.035825912
157	0xbda44aba	-0.080220655
158	0xbd27432c	-0.040835544
159	0xbdde96b4	-0.10868588
160	0xbcca8006	-0.02471925
161	0x3d18d615	0.03731354
162	0x3e1b9c4e	0.15196344
163	0xbdfcf158	-0.1235072
164	0x3df1838c	0.11792669
165	0xbe4fa413	-0.20277433
166	0x3dd99d58	0.10625714
167	0xbe4e22b3	-0.20130424
168	0x3e5df7df	0.21676587
169	0x3c961e17	0.018324895
170	0xbc90c558	-0.017672226
171	0xbe047ff1	-0.12939431
172	0x3df58776	0.11988728
173	0x3ecf2ef9	0.40465525
174	0x3e3565ef	0.17714666
175	0xbdf22f45	-0.11825422
176	0x3dbc2834	0.09187356
177	0xbdffbe44	-0.12487462
178	0x3c82946c	0.015939914
179	0xbc15cb14	-0.009142656
180	0x3e25c988	0.1619016
181	0xbe9e0428	-0.30862546
182	0xbe9b3637	-0.303148
183	0xbd96a2a9	-0.07355244
184	0xbe80b410	-0.25137377
185	0x3eb09508	0.34488702
186	0x3c197426	0.009366071
187	0xbe952f93	-0.2913786
188	0x3e2c9313	0.1685298
189	0x3d46b227	0.048509743
190	0xbe334e3c	-0.17510313
191	0xbd34bb94	-0.0441242
192	0xbdbc5b9c	-0.091971606
193	0x3e96f335	0.29482427
194	0xbd940730	-0.072279334
195	0x3ece3e81	0.40282062
196	0xbe85226c	-0.26002824
197	0x3e07744d	0.13227959
198	0xbd120fdb	-0.035659652
199	0x3ae36256	0.0017348032
200	0xbdace296	-0.08441655
201	0x3e033ef3	0.12816982
202	0x3e89c65f	0.26909158
203	0xbd8574e7	-0.06516438
204	0xbe4b03b4	-0.19825631
205	0xbe103d18	-0.14085805
206	0x3e1b2362	0.15150216
207	0xbe3a71d7	-0.18207489
208	0xbdc365ea	-0.09540923
209	0xbdbf6c72	-0.09346856
210	0xbe94ce11	-0.29063466
211	0x3da1bc4d	0.07897244
212	0xbe1934c7	-0.14961539
213	0x3d749124	0.05970873
214	0xbed4f662	-0.41594225
215	0xbe07ce93	-0.13262396
216	0xbe1d8006	-0.15380868
217	0xbe7df060	-0.24798727
218	0x3e0222b7	0.12708555
219	0x3e9603de	0.29299825
220	0x3d975f0e	0.07391177
221	0xbe401dce	-0.1876137
222	0x3e818af4	0.25301325
223	0x3ca627fd	0.02028274
224	0x3e2c4a85	0.16825302
225	0xbd8bbeb5	-0.06823484
226	0x3db7c610	0.08973324
227	0x3eba7ca5	0.3642322
228	0xbdc93ff9	-0.09826655
229	0x3e1664b9	0.1468686
230	0x3d2718bf	0.040795084
231	0xbf2545d0	-0.6455965
232	0x3d26b90d	0.040703822
233	0xbe5e0758	-0.21682489
234	0x3eb688d5	0.3565127
235	0xbda683a1	-0.08130575
236	0x3eba1257	0.36342117
237	0xbe078a3a	-0.13236323
238	0x3e419dec	0.18907899
239	0xbe0902b1	-0.13379933
240	0x3e94e361	0.29079726
241	0xbdeb605f	-0.11492991
242	0x3e4d84df	0.20070218
243	0x3e146eb1	0.1449535
244	0x3e715237	0.23566519
245	0x3db0d043	0.08633473
246	0x3e9208fc	0.2852248
247	0xbeca76d5	-0.39543787
248	0x3ba6a698	0.0050857775
249	0xbdfb0ac0	-0.1225791
250	0xbe60752b	-0.21919696
251	0xbe8a79e4	-0.2704612
252	0xbe8dbd01	-0.2768326
253	0x3dd310a0	0.10305905
254	0x3cee05cb	0.029055497
255	0xbe1cb43f	-0.15303133

model.decoder.2.bias f4 [80]
0	0x3e37eb08	0.17960751
1	0x3dcb66ab	0.09931692
2	0xbdcb08cd	-0.09913788
3	0xbd44d552	-0.048055
4	0x3d4e2815	0.050331194
5	0x3ded5f6f	0.11590468
6	0x3de7979b	0.11308213
7	0x3bb20866	0.00543313
8	0xbdd2f595	-0.10300747
9	0x3e81770b	0.25286135
10	0x3e4e3d6a	0.20140615
11	0xbd51c1fd	-0.051210392
12	0xbe108589	-0.1411344
13	0xbd993946	-0.07481627
14	0x3d2fc76b	0.04291479
15	0x3db9faba	0.090810254
16	0xbde1bc99	-0.110223
17	0x3d8ed6f8	0.06974596
18	0x3c0e2b40	0.008677304
19	0xbd45ae9a	-0.048262216
20	0x3e4bb8cd	0.19894715
21	0x3e38e42e	0.18055794
22	0x3e094006	0.13403329
23	0x3e1a40ac	0.15063733
24	0x3df7d870	0.12101829
25	0x3e6bdf78	0.23034465
26	0xbba00eda	-0.004884583
27	0xbe157e5d	-0.14598985
28	0x3d815e4b	0.06316813
29	0x3e108949	0.1411487
30	0xbde9581e	-0.1139376
31	0x3daa156c	0.08304867
32	0xbdc3a833	-0.09553566
33	0x3e674ab2	0.22587088
34	0x3d9a1279	0.07523055
35	0xbd9c1efd	-0.07623098
36	0xbd31ef01	-0.043440823
37	0xbdaf46cd	-0.08558426
38	0x3d470598	0.04858932
39	0xbd84ee5a	-0.064907745
40	0x3d582127	0.05276599
41	0x3e5d8204	0.21631628
42	0x3d9a9686	0.07548241
43	0x3e865997	0.26240227
44	0xbd244c3d	-0.04011177
45	0xbd976fcd	-0.07394371
46	0xbd9d6fe5	-0.07687358
47	0x3d8d7b1d	0.069082476
48	0xbe163dad	-0.14671965
49	0x3e416f31	0.18890072
50	0x3e0dec9c	0.1385979
51	0x3e091b64	0.13389355
52	0xbd3d6af0	-0.04624456
53	0xbd8254f4	-0.0636386
54	0x3de2b801	0.11070252
55	0x3e29b16d	0.16571589
56	0x3dc65bf4	0.096855074
57	0xbddb4147	-0.1070581
58	0xbde7316b	-0.112887226
59	0x3d05511b	0.03254805
60	0x3dad4eb3	0.08462276
61	0xbd8f9e04	-0.07012561
62	0x3df1d8cd	0.118089296
63	0xbe27ee62	-0.1639953
64	0x3cbbdaeb	0.022931537
65	0x3ce3c9bd	0.027806157
66	0x3e17486c	0.1477372
67	0x3e962f6c	0.29333055
68	0xbdccca55	-0.09999529
69	0xbdc76a13	-0.09737029
70	0xbda99a98	-0.082814395
71	0x3e5a7b95	0.21336205
72	0xbd6bca66	-0.05756607
73	0x3d8e8171	0.06958283
74	0x3e718434	0.23585588
75	0x3e01e3aa	0.12684503
76	0x3dee2ef5	0.1163005
77	0x3e77edc3	0.24211793
78	0x3e220923	0.15823798
79	0xbdde391b	-0.10850736
