torch_model_storage_26_Jun_2025/model_Early_IA_Correct_v_Late_IA_Het VEH_Late_IA.pt (torch, 13259 bytes, 8 tensors)

model.encoder.0.weight f4 [9, 112]
0	0xbdeb6a6d	-0.114949085
1	0xbe7056ab	-0.23470561
2	0xbe335381	-0.17512323
3	0xbe4466a4	-0.1917978
4	0xbd947dfd	-0.07250593
5	0xbe1e928c	-0.1548559
6	0xbe366036	-0.17810139
7	0xbe168c66	-0.14701995
8	0xbd246646	-0.040136598
9	0xbe434ed8	-0.19073045
10	0xbddad518	-0.10685176
11	0xbdd55ee1	-0.10418487
12	0xbdf88cb5	-0.12136213
13	0xbe684023	-0.22680716
14	0xbe14e5b0	-0.14540744
15	0xbd0ef81f	-0.034904595
16	0xbcda4d28	-0.02664812
17	0xbe2daf97	-0.16961513
18	0xbe228521	-0.15871097
19	0xbe3c0f56	-0.18365225
20	0xbdf959df	-0.12175345
21	0xbe44ea1d	-0.19229932
22	0xbe1f8fe5	-0.15582235
23	0xbe8711b5	-0.26380697
24	0xbe309273	-0.17243366
25	0xbe5abc2a	-0.21360841
26	0xbe148b04	-0.14506155
27	0x3d968a9f	0.073506586
28	0xbd978a2a	-0.073993996
29	0xbe5d79b4	-0.21628457
30	0xbe1e1572	-0.15437868
31	0xbe0ed68d	-0.13949032
32	0xbd9b630a	-0.075872496
33	0xbe32e705	-0.1747094
34	0xbe026674	-0.12734395
35	0xbdff3421	-0.12461115
36	0xbe049370	-0.12946868
37	0xbe0f2ebd	-0.13982673
38	0xbe5c2868	-0.21499789
39	0xbe1021f6	-0.14075455
40	0xbe2f6dbb	-0.17131703
41	0xbe33d59c	-0.17561954
42	0xbe731d93	-0.2374175
43	0xbe055a93	-0.13022833
44	0xbe081acb	-0.1329147
45	0xbe3c7afa	-0.18406287
46	0xbd977332	-0.07395019
47	0xbe4d9000	-0.20074463
48	0xbe39fa43	-0.18161874
49	0xbda50e85	-0.0805941
50	0xbdbca796	-0.09211652
51	0xbdbfaaa2	-0.093587175
52	0xbe148f34	-0.14507753
53	0xbda3ef7e	-0.08004664
54	0xbe3702a5	-0.17872103
55	0xbe0b2a8a	-0.13590446
56	0xbd36d194	-0.044633463
57	0xbe4f662c	-0.20253819
58	0xbe1d0fad	-0.15338011
59	0xbe25df1d	-0.16198392
60	0xbdd17b8a	-0.10228641
61	0xbdc0283e	-0.093826756
62	0xbe241cf6	-0.16026673
63	0xbe6658e8	-0.22494853
64	0xbe36a2ae	-0.17835495
65	0xbe45793c	-0.19284528
66	0xbd447a9f	-0.047968503
67	0xbe5bdb14	-0.2147029
68	0xbe1ea579	-0.1549281
69	0xbe080929	-0.13284744
70	0xbe5b22e3	-0.21400027
71	0xbe74e24a	-0.23914447
72	0xbe4cf142	-0.20013908
73	0xbdcc9cd4	-0.0999085
74	0xbde5fd11	-0.11229909
75	0xbe4f6b8d	-0.20255871
76	0xbe6957f6	-0.2278746
77	0xbe213748	-0.15743744
78	0xbe0f3cf9	-0.13988103
79	0xbd5f8310	-0.05456835
80	0xbe5f75aa	-0.21822229
81	0xbe6ea8f5	-0.2330664
82	0xbdeb4389	-0.11487491
83	0xbe3986a5	-0.18117769
84	0xbdb0608a	-0.08612163
85	0xbdaaf606	-0.083477065
86	0xbddfbe84	-0.1092501
87	0xbda50e4f	-0.0805937
88	0xbe1352d0	-0.14387059
89	0xbe5450c6	-0.20733938
90	0xbe3649c0	-0.17801571
91	0xbe09459b	-0.13405459
92	0xbe21b877	-0.15793024
93	0xbc848b04	-0.016179569
94	0xbe21a085	-0.1578389
95	0xbe6464df	-0.22304104
96	0xbd9e128a	-0.0771838
97	0xbe2aa075	-0.16662772
98	0xbe1cde8a	-0.15319267
99	0xbe325980	-0.17416954
100	0xbe2829f5	-0.16422255
101	0xbe5c687a	-0.2152423
102	0xbda81daf	-0.08208787
103	0xbe70a0e4	-0.23498875
104	0xbe175f7e	-0.14782521
105	0xbe6b06f5	-0.22951873
106	0xbd859031	-0.06521643
107	0xbde654e8	-0.11246663
108	0xbe15dc0c	-0.14634722
109	0xbddbb330	-0.10727537
110	0xbdce1c2b	-0.10063966
111	0xbe3e0471	-0.18556382
112	0xbd8da084	-0.069153816
113	0xbd12bbbf	-0.03582358
114	0xbe1d468b	-0.15358941
115	0xbe2356de	-0.15951106
116	0xbd7902df	-0.060793754
117	0x3e452e68	0.19255984
118	0x3e9c5afa	0.3053816
119	0x3d43b84c	0.04778318
120	0xbddc4742	-0.10755779
121	0x3d86b693	0.06577792
122	0x3e2b6524	0.16737801
123	0xbdf6957b	-0.1204023
124	0xbdc72682	-0.09724142
125	0x3d0a714f	0.033799466
126	0xbdc5ae54	-0.09652391
127	0xbe19e426	-0.15028438
128	0xbd0f0829	-0.03491989
129	0xbe48716e	-0.1957452
130	0x3e06155a	0.13094082
131	0x3e20510a	0.15655914
132	0x3d957c49	0.07299096
133	0xbe04d70d	-0.1297266
134	0x3e13de49	0.14440264
135	0x3bf7341b	0.0075440533
136	0xbe226e13	-0.15862302
137	0xbda40bc5	-0.08010057
138	0x3d0e012a	0.03466908
139	0x3daf7711	0.08567632
140	0xbd72d551	-0.059285466
141	0xbc9959ba	-0.018719543
142	0xbe153fe8	-0.1457516
143	0x3dc717eb	0.09721359
144	0xbdc50067	-0.09619217
145	0xbc7ab14a	-0.015301058
146	0xbddb94a9	-0.10721714
147	0xbe05e5d5	-0.13075955
148	0x3dd3698c	0.10322866
149	0xbe50b9ab	-0.20383327
150	0x3e5a6e2d	0.21331091
151	0xbd8df866	-0.06932144
152	0xbd0fb32a	-0.035082974
153	0xbd2c49f2	-0.042062707
154	0xbd68b600	-0.056814194
155	0xbc766347	-0.015038318
156	0x3e8ae4a0	0.27127552
157	0xbd981174	-0.07425204
158	0xbe2f4848	-0.17117417
159	0xbe404cfc	-0.18779367
160	0x3bd4be76	0.0064924313
161	0x3e9ef507	0.31046316
162	0x3d3ec02c	0.046569988
163	0x3e8a37e5	0.2699577
164	0x3d09f141	0.033677343
165	0x3d7a1c4d	0.061062146
166	0xbb17f77e	-0.0023188288
167	0xbe2397a6	-0.15975818
168	0x3da42d50	0.08016455
169	0xbd3d3067	-0.04618874
170	0x3c35b746	0.011091059
171	0x3d3164cf	0.04330903
172	0xbe157e6c	-0.14599007
173	0x3c7b945c	0.015355196
174	0xbd030412	-0.031986304
175	0xbd9c77c0	-0.07640028
176	0x3e1575d4	0.14595729
177	0xbde0f141	-0.109835155
178	0xbd3a0e92	-0.04542405
179	0xbe3e9b66	-0.18613967
180	0x3e65dabf	0.22446726
181	0xbc6520da	-0.013984883
182	0xbdf92f5d	-0.12167237
183	0xbd3e0124	-0.046387807
184	0xbd9514f1	-0.07279385
185	0xbd63b626	-0.055593632
186	0xbcbd95ec	-0.023142777
187	0xbd88924f	-0.06668531
188	0xbb7652c4	-0.0037585953
189	0x3d1f8593	0.038945746
190	0xbcb94387	-0.022615207
191	0x3db56150	0.088564515
192	0x3b304b02	0.0026900177
193	0xbb4f1818	-0.0031600054
194	0x3e0bce58	0.13652933
195	0xbccac963	-0.024754232
196	0xbe15be9f	-0.14623497
197	0xbcc17894	-0.023617066
198	0xbe83ac1f	-0.25717255
199	0x3e3a3b6f	0.18186735
200	0xbde7df54	-0.11321893
201	0xbcf11279	-0.029427754
202	0xbe5b6205	-0.2142411
203	0xbd855d55	-0.06511942
204	0xbe7f4547	-0.24928771
205	0x3e03a00b	0.1285402
206	0xbd186d87	-0.03721383
207	0x3dc20a40	0.09474611
208	0x3e82fc10	0.25582933
209	0x3e0b1475	0.13582022
210	0xbdfde48f	-0.1239711
211	0xbd17b6fe	-0.03703975
212	0xbe41b00e	-0.18914816
213	0x3db82fab	0.08993467
214	0xbdf397ba	-0.11894174
215	0x3d8c4177	0.06848424
216	0x3df7d2af	0.121007316
217	0x3c27998c	0.0102294795
218	0xbd2086c0	-0.039191008
219	0xbd9218c3	-0.07133629
220	0xbd9d52fc	-0.07681844
221	0xbdb4bea6	-0.08825426
222	0x3e01cbea	0.12675443
223	0x3be113c4	0.0068688113
224	0xbe6ed82c	-0.2332465
225	0x3e8693a4	0.26284516
226	0x3e6ed6ba	0.23324099
227	0x3ea0bb7b	0.31393036
228	0x3ed29807	0.41131613
229	0x3e1157ae	0.14193603
230	0xbd24cbb0	-0.040233314
231	0x3e10bd2e	0.14134666
232	0xbe8f69b1	-0.28010324
233	0xbf25f8f4	-0.64833
234	0x3dce5b42	0.10076
235	0xbe551781	-0.20809747
236	0x3dca69a7	0.09883433
237	0x3ee9a212	0.45631462
238	0xbd28b93c	-0.04119228
239	0xbe923218	-0.28553843
240	0x3df1aa08	0.11800009
241	0xbd54a48e	-0.051914744
242	0x3d83ac7b	0.064293824
243	0x3dbadeb7	0.09124511
244	0x3d8f2afa	0.06990619
245	0x3e6ba641	0.2301264
246	0x3edef932	0.43549496
247	0x3e8c6c8e	0.2742657
248	0x3db6e083	0.08929541
249	0x3f0bfd31	0.54683214
250	0x3d9973c1	0.074927814
251	0xbdb63eb2	-0.08898677
252	0x3ea0ae76	0.31383103
253	0x3e2e58b0	0.17026019
254	0x3c994a12	0.018712077
255	0x3c1b1eaa	0.00946776

model.encoder.0.bias f4 [9]
0	0xbe00bd9b	-0.12572329
1	0x3d5f4826	0.054512165
2	0x3ec0191f	0.37519166
3	0x3da40a6a	0.08009799
4	0xbdfb64c0	-0.12275076
5	0xbe2a8047	-0.16650496
6	0xbe53d100	-0.20685196
7	0xbe0c91d0	-0.13727498
8	0xbc002cc5	-0.007823174

model.encoder.3.weight f4 [2, 9]
0	0x3d17528d	0.03694396
1	0xbeabe9dc	-0.33576858
2	0xbde8ce82	-0.11367513
3	0x3e6c5f63	0.23083262
4	0x3eaf303d	0.3421649
5	0x3dd1a482	0.102364555
6	0xbdd27abc	-0.10277316
7	0xbe7ff3ff	-0.24995421
8	0x3cfab803	0.030605322
9	0x3ea88178	0.32911277
10	0xbdece120	-0.11566377
11	0x3e875346	0.2643072
12	0xbe11d414	-0.14241058
13	0x3e8aee28	0.27134824
14	0x3e95f3f1	0.29287675
15	0x3e1e92a2	0.15485623
16	0x3e813a5e	0.25239843
17	0x3e0b3daa	0.13597742

model.encoder.3.bias f4 [2]
0	0xbdfc1644	-0.12308934
1	0x3e28e92d	0.164952

model.decoder.0.weight f4 [9, 2]
0	0x3e51870f	0.20461677
1	0x3e5ecac9	0.21757044
2	0xbe6465ec	-0.22304505
3	0xbd7bc0ce	-0.06146317
4	0x3e9ad6bb	0.3024195
5	0x3eb7ce65	0.35899654
6	0xbd1db16e	-0.03849929
7	0x3e14d7b4	0.14535409
8	0xbed61ab9	-0.41817263
9	0x3d616058	0.05502352
10	0xbeb8bda9	-0.360822
11	0x3e677d44	0.22606379
12	0x3e70920d	0.23493214
13	0xbe06f382	-0.13178828
14	0x3eeace88	0.45860696
15	0x3c887759	0.016658472
16	0x3d7ae308	0.06125167
17	0xbefeb9ec	-0.49751222

model.decoder.0.bias f4 [9]
0	0xbea64a61	-0.32478622
1	0x3e9b23c0	0.30300713
2	0xbda5ee7f	-0.0810213
3	0xbf0d224d	-0.55130464
4	0x3d701d90	0.058621943
5	0x3c242d99	0.010020637
6	0xbe5955ed	-0.21224184
7	0x3f01fe03	0.50778216
8	0xbda87bb4	-0.082267195

model.decoder.2.weight f4 [112, 9]
0	0x3ea9e902	0.33185583
1	0xbdbb5a88	-0.09148127
2	0x3caa6e41	0.020804526
3	0xbe3799cc	-0.17929763
4	0xbe56bd8d	-0.20970745
5	0xbece55ab	-0.40299734
6	0x3cf2eee3	0.029654926
7	0xbe0a9a3a	-0.13535395
8	0x3eb46d04	0.35239422
9	0xbead65dd	-0.33866778
10	0x3e741e47	0.23839675
11	0x3ddf6ae7	0.10909062
12	0x3e6e3fca	0.23266521
13	0x3e8242fd	0.25441733
14	0x3e47d961	0.19516517
15	0xbeedbbd6	-0.4643237
16	0x3e5fe227	0.21863614
17	0xbdeeabaf	-0.1165384
18	0x3d324cdd	0.043530334
19	0xbe22718d	-0.15863629
20	0x3d7e0706	0.062018417
21	0xbe95d60c	-0.29264867
22	0xbe15165c	-0.1455931
23	0x3ed5df71	0.41772035
24	0x3e1d981a	0.15390053
25	0x3e7dca45	0.24784191
26	0xbe197ecd	-0.14989777
27	0xbebee141	-0.3728123
28	0xbe1500b3	-0.14551048
29	0x3e7d9656	0.2476438
30	0x3d845275	0.0646104
31	0xbd9d89a0	-0.076922655
32	0x3d55749b	0.052113157
33	0xbe891cc9	-0.26779774
34	0xbd642088	-0.055695087
35	0xbe7c982e	-0.24667427
36	0x3e4a051f	0.19728516
37	0x3d4d44b2	0.05011434
38	0x3ed6f980	0.41987228
39	0x3ca42f7d	0.020042175
40	0x3deba8df	0.11506819
41	0x3e849584	0.2589532
42	0x3e603e5b	0.21898787
43	0x3de53d72	0.111933604
44	0xbe98e8bc	-0.29865062
45	0xbdff464d	-0.12464581
46	0x3d89bdc0	0.06725645
47	0x3db00601	0.08594895
48	0x3d2edd09	0.042691264
49	0x3eaff2fb	0.34365067
50	0x3db48b96	0.088156864
51	0x3d408250	0.046999276
52	0xbb5c8ad4	-0.0033652084
53	0xbe0e6693	-0.13906316
54	0xbe2a7fc1	-0.16650297
55	0xbd29ae00	-0.041425705
56	0xbe5d67fb	-0.21621697
57	0xbeba8efb	-0.3643721
58	0x3edf11f8	0.43568397
59	0x3cdbca6e	0.026829924
60	0x3e806af0	0.25081587
61	0xbdb5c2a0	-0.088750124
62	0xbca4f0d8	-0.020134374
63	0x3ec46199	0.3835571
64	0xbea90f89	-0.33019665
65	0xbe49ce38	-0.19707572
66	0xbe3036e0	-0.17208433
67	0x3ce0e6e0	0.02745384
68	0x3d86c700	0.06580925
69	0xbeb6f25d	-0.35731784
70	0x3cee8f17	0.029120965
71	0x3d1ca15e	0.03823983
72	0xbde284d1	-0.11060489
73	0x3e366e83	0.17815594
74	0xbe300e93	-0.1719306
75	0xbe5d5c61	-0.21617271
76	0xbe7bc5e7	-0.24587213
77	0xbec9efcf	-0.39440772
78	0xbe9d8ff8	-0.30773902
79	0x3ec2ff52	0.3808542
80	0x3ea87461	0.3290129
81	0xbbe7d0a2	-0.0070744315
82	0x3d842004	0.06451419
83	0xbe9dccc7	-0.30820295
84	0xbee6fcc5	-0.45114723
85	0xbdef63d2	-0.11688961
86	0xbefa84ca	-0.48929435
87	0x3e38c028	0.18042052
88	0x3e34f2b5	0.1767071
89	0x3f4474d4	0.76740766
90	0xbe9e32ba	-0.30898076
91	0xbda39494	-0.079873234
92	0x3d395a1c	0.04525195
93	0xbe829e8d	-0.2551159
94	0x3f02af4a	0.5104872
95	0x3e8f5638	0.27995467
96	0xbdff0b7f	-0.124533646
97	0x3e8271b8	0.25477386
98	0xbdc1f6e1	-0.094709165
99	0x3dcdc816	0.10047929
100	0x3da24b6b	0.07924541
101	0xbd9bf20f	-0.076145284
102	0xbde96d8e	-0.11397849
103	0xbe2d89fc	-0.16947168
104	0xbebf3a61	-0.37349227
105	0xbea7f421	-0.32803443
106	0x3eaaa19c	0.33326423
107	0x3ddefb25	0.10887746
108	0xbe954b53	-0.2915903
109	0xbeacb50c	-0.33731878
110	0x3eb01463	0.34390554
111	0xbe8b4bd2	-0.27206284
112	0xbb854fd2	-0.004068353
113	0x3d8ce30a	0.06879242
114	0xbe47687f	-0.19473456
115	0x3d1da98c	0.03849177
116	0x3eb4b9b6	0.35297936
117	0x3ebde230	0.3708663
118	0x3b85702f	0.004072211
119	0xbe13042f	-0.14357065
120	0xbe65f28f	-0.2245581
121	0x3d89fec3	0.06738045
122	0x3f0136b0	0.5047407
123	0xbe5c0744	-0.21487147
124	0x3cc5f98e	0.024166849
125	0xbe85331e	-0.26015562
126	0xbeb3fc14	-0.35153258
127	0xbd9dd3f8	-0.077064455
128	0x3de24cb6	0.11049788
129	0x3d9b62cd	0.07587204
130	0xbe69e4fa	-0.22841254
131	0x3dfb88c9	0.12281949
132	0xbdc0349d	-0.09385035
133	0x3e902c2c	0.281587
134	0x3d98ed35	0.07467119
135	0x3e02a4dc	0.12758201
136	0xbd986798	-0.07441634
137	0x3e9118ca	0.28339225
138	0xbee38b90	-0.44442415
139	0xbe2425cd	-0.16030045
140	0xbf1689d7	-0.58804077
141	0xbd8b52a8	-0.06802875
142	0x3e9fbf82	0.31200796
143	0x3e446243	0.19178109
144	0xbef9b302	-0.48769385
145	0x3dba16a5	0.0908635
146	0x3d1461df	0.03622615
147	0xbe0788dd	-0.13235803
148	0xbd9c2e6b	-0.07626041
149	0xbba26deb	-0.004956951
150	0x3ce3091e	0.027714308
151	0x3d91492c	0.070940346
152	0xbe958165	-0.29200283
153	0xbd958de3	-0.07302453
154	0x3e6e6494	0.23280555
155	0x3eb4741e	0.3524484
156	0x3d8a0a3d	0.06740234
157	0x3d47626d	0.04867785
158	0xbeee6640	-0.46562386
159	0xbe72ccf1	-0.23710991
160	0x3e603b5c	0.21897644
161	0xbcb1814b	-0.021668097
162	0x3e40e4a6	0.18837222
163	0x3e3255f1	0.17415597
164	0xbc6206d6	-0.013795575
165	0xbd4ded7b	-0.050275307
166	0x3dd009c3	0.10158112
167	0x3c035072	0.008014785
168	0x3b9f819c	0.0048677456
169	0xbe0859f7	-0.13315569
170	0x3e058a59	0.13041057
171	0xbe9cf5a8	-0.3065617
172	0x3e7ef921	0.24899723
173	0x3e0f7b59	0.14011897
174	0x3bedbc6c	0.0072551277
175	0x3e58b469	0.21162571
176	0xbe3c1886	-0.1836873
177	0x3df022f0	0.11725414
178	0x3ae18bcb	0.0017207799
179	0x3cc20d0f	0.023687867
180	0xbe43b574	-0.19112188
181	0xbd91d91e	-0.0712149
182	0xbe3bd2a6	-0.18342075
183	0x3e820c7d	0.25400153
184	0xbe45ac34	-0.19303972
185	0x3e64c7ad	0.22341795
186	0xbe03b8e4	-0.12863499
187	0x3dd09dd2	0.10186352
188	0xbe168120	-0.14697695
189	0x3db21b78	0.086966455
190	0x3e8be563	0.27323446
191	0x3ea453d4	0.32095206
192	0x3e864572	0.26224858
193	0xbd5a5444	-0.05330302
194	0xbde634e3	-0.11240556
195	0xbe98531b	-0.29750904
196	0xbd77e077	-0.0605168
197	0xbda9987d	-0.08281038
198	0xbd47106b	-0.04859964
199	0x3ddac26a	0.10681613
200	0x3eb1612c	0.3464445
201	0xbe5bdbae	-0.2147052
202	0x3e43b3f5	0.19111617
203	0x3e16d829	0.14730896
204	0x3cc03699	0.023463534
205	0xbe664dca	-0.22490612
206	0xbd0a91da	-0.0338305
207	0xbd216e49	-0.039411817
208	0xbe5de469	-0.21669163
209	0xbd3e6050	-0.04647857
210	0x3dfb964a	0.12284525
211	0x3e9f5a1e	0.3112344
212	0x3d148bf8	0.036266297
213	0xbd8eef7d	-0.069792725
214	0xbd979927	-0.07402258
215	0xbd68d969	-0.056847963
216	0xbe8bcfef	-0.27307078
217	0x3d267b44	0.0406449
218	0x3e6a0c71	0.22856309
219	0xbee73ce6	-0.4516365
220	0xbe031a83	-0.12803082
221	0xbd9d6fd5	-0.07687346
222	0xbd62314a	-0.055222787
223	0x3e4ae4c1	0.19813825
224	0xbe73e438	-0.23817527
225	0xbf036e46	-0.5134014
226	0xbd225374	-0.03963037
227	0x3f038cbf	0.51386636
228	0xbea831d2	-0.3285051
229	0x3e511da7	0.20421468
230	0x3e8a9407	0.2706606
231	0xbecf02ff	-0.40431973
232	0xbd032981	-0.032022003
233	0xbe866344	-0.2624761
234	0xbefa45e2	-0.4888144
235	0xbbc3eb59	-0.0059789834
236	0x3e3a6c98	0.18205488
237	0xbe18ed9d	-0.14934392
238	0xbd9e0949	-0.07716615
239	0xba733088	-0.0009276946
240	0x3dc64bff	0.09682464
241	0x3e342bc0	0.17594814
242	0xbe1851f8	-0.14875019
243	0x3dcdbd59	0.10045881
244	0x3e041a75	0.12900718
245	0x3d4d5370	0.0501284
246	0x3e80e9e1	0.25178435
247	0xbea25ad8	-0.31709933
248	0xbe15ccd2	-0.14628914
249	0x3e35217c	0.17688555
250	0xbe8d720a	-0.27626067
251	0xbdaf5307	-0.08560758
252	0xbb866d0a	-0.004102354
253	0xbecc096e	-0.39850944
254	0x3da73e1a	0.08166142
255	0xbdc21756	-0.09477107

model.decoder.2.bias f4 [112]
0	0x3e53d0c9	0.20685114
1	0xbdadd4e0	-0.08487868
2	0xbd55601a	-0.052093603
3	0x3d8d1b26	0.06889944
4	0x3e1aa15c	0.15100616
5	0x3e11b829	0.14230408
6	0x3e008592	0.12550953
7	0x3e02abf3	0.12760906
8	0x3cef5245	0.029214034
9	0x3e753357	0.23945366
10	0xbe3be0ee	-0.18347523
11	0xbd73b4fe	-0.05949878
12	0x39f6aeea	0.00047051097
13	0x3dce4184	0.1007109
14	0x3c389eb6	0.011268308
15	0x3c10f454	0.008847315
16	0xbdbe02d4	-0.09277883
17	0xbd6537dc	-0.055961475
18	0x3e19b429	0.15010132
19	0x3cb6ea6b	0.022328576
20	0x3d0b70dc	0.034043178
21	0x3db7a02b	0.089660965
22	0x3e308f5a	0.17242184
23	0x3e1a6941	0.15079214
24	0xbe014982	-0.12625697
25	0xbdd1e77c	-0.1024923
26	0xbdb409cb	-0.0879093
27	0x3e3cd7eb	0.18441741
28	0x3e3cac1a	0.18425027
29	0x3cca4a24	0.024693556
30	0x3d32c84a	0.04364804
31	0xbd018158	-0.031617492
32	0x3dd55918	0.10417384
33	0x3e79d3c6	0.24397191
34	0x3dbe0de4	0.09279993
35	0x3dbd7954	0.09251657
36	0x3e102cdd	0.14079614
37	0xbd27b766	-0.040946387
38	0x3d7396b7	0.059469905
39	0xbdceedec	-0.10103974
40	0x3e43d6c2	0.19124892
41	0x3e52ce33	0.20586471
42	0x3d258a99	0.04041538
43	0x3c61397e	0.013746617
44	0x3dbdf356	0.09274928
45	0x3c76e25f	0.0150686195
46	0x3d58c794	0.052924708
47	0x3d4d9d74	0.050198987
48	0x3deb6906	0.11494641
49	0x3e99e086	0.3005411
50	0x3d97b97e	0.07408427
51	0x3e5d8839	0.21633996
52	0x3e3485e7	0.17629205
53	0xbda77504	-0.08176616
54	0xbcca0a7f	-0.024663208
55	0x3bb5deca	0.00555024
56	0x3e076bc0	0.13224697
57	0x3cecb376	0.028894167
58	0x3e0e9b72	0.13926485
59	0x3ea0805a	0.31347924
60	0x3db71a54	0.089405686
61	0x3e6511f3	0.22370128
62	0xbdb3322c	-0.08749804
63	0xbd4271e0	-0.04747188
64	0x3d702edd	0.058638442
65	0x3de587ef	0.11207568
66	0x3d303544	0.043019548
67	0x3ce7b7d7	0.028285904
68	0xbd5df2ad	-0.05418651
69	0xbcc98a1e	-0.024601992
70	0xbcc058fa	-0.023479927
71	0xbdade635	-0.08491174
72	0xbd2359c1	-0.039880518
73	0x3e28332c	0.1642577
74	0xbc678ca3	-0.0141326515
75	0x3e8a7625	0.27043262
76	0xbd062b75	-0.032756288
77	0xbda9ae3d	-0.082851864
78	0xbcc20083	-0.023681885
79	0xbcf7b250	-0.030236393
80	0x3d00cc88	0.031445056
81	0xbd92a3c2	-0.071601406
82	0x3e53a6c2	0.20669082
83	0xbe249d46	-0.1607562
84	0x3def1e85	0.11675743
85	0xbcc8ff4a	-0.024535794
86	0x3e390988	0.18070042
87	0xbdb67f51	-0.089110024
88	0x3dc97287	0.098362975
89	0x3ac77fa6	0.0015220537
90	0x3e2efce0	0.17088652
91	0x3d297547	0.04137161
92	0xbe13e3ca	-0.14442363
93	0x3e4c9b56	0.19981131
94	0xbc9b6a00	-0.018971443
95	0xbdcf1566	-0.10111503
96	0x3e82730b	0.25478396
97	0xbd5408b8	-0.051766127
98	0xbc4861fa	-0.012230391
99	0x3d8f85be	0.07007931
100	0xbe0f3720	-0.13985872
101	0x3e88747d	0.26651374
102	0x3e1a451f	0.1506543
103	0xbe3992f8	-0.1812247
104	0xbe452850	-0.19253659
105	0x3de7a636	0.11310999
106	0xbe2c7ba3	-0.16844039
107	0x3de3bcd7	0.11120003
108	0x3a3fb3da	0.0007312872
109	0xbd5648dd	-0.05231558
110	0xbc45d677	-0.012075058
111	0x3e2e9c38	0.1705178
