torch_model_storage_26_Jun_2025/model_Late_IA_v_Early_RS_Correct_Het CLNZ_Early_RS_Correct.pt (torch, 9559 bytes, 8 tensors)

model.encoder.0.weight f4 [9, 60]
0.48339903 -0.05188784 0.0055658235 0.084287494 0.0025768213 0.099644504 -0.00041005085 -0.07599162
0.026117265 -0.059964452 -0.013899111 0.0822218 -0.013765773 -0.05079304 0.15438053 -0.21384116
0.0766333 0.40499118 0.02570616 0.10511877 -0.0082311295 0.06843046 0.1266342 0.15081668
0.14277686 0.02267781 -0.07751956 0.23371595 0.032693293 0.009056516 -0.09775879 0.045354337
-0.032461572 0.048050325 -0.043570094 0.15175241 0.07508131 0.12710859 0.16127428 0.13870935
0.095448405 -0.024248179 0.08539485 0.021652 0.026923526 0.036233995 0.096700825 -0.059180688
-0.07794642 -0.0044108336 0.14598231 0.033387613 -0.003288095 -0.122928694 0.035842087 0.09577246
0.011316286 0.003926504 0.016007887 0.014738786 0.051586702 0.06684518 0.25158837 0.19144331
0.24485189 0.047548387 -0.11364519 0.08589491 0.047056332 0.19554865 0.16049705 0.06595044
0.043266684 0.0363216 -0.021491023 0.1593494 0.12089441 -0.0009902021 0.103164285 0.053216226
0.009839611 -0.056590904 0.027840097 0.105416164 -0.11078901 0.058426555 -0.066093095 -0.007890057
-0.07087802 0.017124806 0.20446867 -0.0042054746 0.05235086 -0.024953064 0.086667165 0.011530699
0.19840945 0.007505686 -0.0048996774 -0.06328047 0.13108629 0.2361358 -0.06866586 -0.027019119
-0.020503633 0.013008479 0.026697049 0.18540734 0.109299324 -0.069018 -0.06657892 0.053922456
0.16939397 -0.019950164 0.11672399 -0.04740624 0.32684138 -0.022036118 -0.069252424 -0.105897054
0.5612008 -0.014350887 0.024402335 0.12580013 0.12291364 0.12630035 0.21073416 -0.20523256
0.11798325 -0.034491118 0.0347015 0.089001924 0.2510446 0.19225149 0.108608045 0.11879824
-0.1006327 0.25773758 -0.112084985 -0.032961622 0.0915237 0.041763686 0.034484897 -0.124566436
-0.10999501 -0.0021276562 0.043100815 0.083945565 0.021751046 0.14045303 0.0969557 -0.023634387
-0.044371687 0.1403113 -0.014973607 -0.08014771 0.04668909 0.024743775 -0.11050636 0.16905136
0.0865411 -0.023156682 0.03698 0.14627558 0.21811375 -0.11782147 0.10401978 -0.13493983
-0.06743874 0.10801234 0.121840715 0.05496854 0.1987655 0.0476303 -0.03763309 0.33336842
-0.14425994 0.12542424 -0.07849491 0.007286957 -0.33513367 0.008781545 0.011717835 -0.07671891
-0.13441594 -0.07777724 -0.20468767 -0.07824216 0.04425356 -0.0016528992 -0.22659834 -0.02119825
-0.19296965 -0.045157682 -0.23004721 0.00018944126 -0.09992028 -0.1501264 0.012433527 -0.01796075
-0.033977475 -0.12882842 0.05224788 -0.0996647 -0.023450145 -0.09770734 -0.16953537 -0.13335438
-0.12261981 0.024092142 -0.08973981 -0.1552293 0.11121237 -0.12369391 -0.18262194 -0.22289394
-0.15425976 0.03514821 0.086277746 -0.0090402635 -0.105168216 -0.05985537 -0.14626504 -0.0883196
-0.21045117 -0.17342314 0.06065391 0.09898634 0.076300696 -0.04335415 -0.092203714 -0.119304955
-0.02769933 -0.097002484 -0.13427795 -0.10075588 -0.040267948 -0.19896054 -0.23099132 -0.20574066
0.48409465 0.15009362 -0.012684078 0.23003447 0.2573388 0.18134452 0.25258574 -0.018384166
0.18721326 -0.05470286 0.050950814 -0.0698364 0.11708087 -0.018518567 0.13405177 0.21170545
00000000: 1480 f73e 5888 54bd 8361 b63b ec9e ac3d
00000010: e3df 283b 6b12 cc3d 18fc d6b9 7fa1 9bbd
00000020: e0f3 d53c 499d 75bd 19b9 63bc e763 a83d
00000030: d689 61bc 5d0c 50bd ee15 1e3e 2df9 5abe
00000040: ebf1 9c3d 015b cf3e ba95 d23c 8248 d73d
00000050: dcdb 06bc 4525 8c3d 65ac 013e b06f 1a3e
00000060: 1934 123e d1c6 b93c 93c2 9ebd 3c53 6f3e
00000070: 67e9 053d c861 143c c335 c8bd 78c5 393d
00000080: 6df6 04bd 6bd0 443d 8e76 32bd fc64 1b3e
00000090: 3bc4 993d c128 023e 1625 253e d309 0e3e
000000a0: 747a c33d 1ea4 c6bc 7fe3 ae3d 895f b13c
000000b0: ba8e dc3c 196a 143d 150b c63d 7367 72bd
000000c0: 5fa2 9fbd c188 90bb 637c 153e 73c1 083d
000000d0: 147d 57bb 0ac2 fbbd 27cf 123d 5a24 c43d
000000e0: f267 393c e7a9 803b f922 833c f37a 713c
000000f0: 944c 533d 20e6 883d 31d0 803e b709 443e
00000100: 74ba 7a3e 19c2 423d cfbe e8bd ace9 af3d
00000110: 24be 403d e83d 483e 5759 243e 0611 873d
00000120: 6838 313d f5c5 143d f10d b0bc 7d2c 233e
00000130: 7d97 f73d abc9 81ba cc47 d33d 42f9 593d
00000140: 5236 213c ddcb 67bd ea10 e43c 6ee4 d73d
00000150: 59e5 e2bd af50 6f3d d15b 87bd 4c45 01bc
00000160: 7f28 91bd 5249 8c3c 3c60 513e 14ce 89bb
00000170: db6d 563d 5e6a ccbc 8e7e b13d 42eb 3c3c
00000180: d92b 4b3e 42f2 f53b 798d a0bb 3199 81bd
00000190: 7c3b 063e 95cd 713e b0a0 8cbd 3357 ddbc
000001a0: 3cf7 a7bc 8421 553c c5b3 da3c 6cdb 3d3e
000001b0: 53d8 df3d 4f59 8dbd 875a 88bd cbdd 5c3d
000001c0: 9d75 2d3e 876e a3bc fd0c ef3d 0c2d 42bd
000001d0: c157 a73e 1785 b4bc 37d4 8dbd 8ee0 d8bd
000001e0: dbaa 0f3f fc1f 6bbc 68e7 c73c c0d1 003e
000001f0: 26ba fb3d e154 013e b2ca 573e 7c28 52be
00000200: 34a1 f13d 8f46 0dbd 2923 0e3d a446 b63d
00000210: eb88 803e 93dd 443e e56d de3d 7e4c f33d
00000220: 8418 cebd 2ef6 833e d08c e5bd c402 07bd
00000230: c770 bb3d 6610 2b3d 0940 0d3d b01c ffbd
00000240: 1045 e1bd 2670 0bbb 7b8a 303d a7eb ab3d
00000250: 402f b23c ebd2 0f3e b690 c63d e79c c1bc
00000260: 16bf 35bd c4ad 0f3e dc53 75bc 7c24 a4bd
00000270: 0f3d 3f3d 75b3 ca3c 2951 e2bd cd1b 2d3e
00000280: 763c b13d 15b3 bdbc 5778 173d 44c9 153e
00000290: 3659 5f3e 624c f1bd 5308 d53d ab2d 0abe
000002a0: 521d 8abd 9335 dd3d a087 f93d b126 613d
000002b0: 2f89 4b3e fd17 433d 2825 1abd 44af aa3e
000002c0: e1b8 13be 366f 003e f0c1 a0bd 6dc7 ee3b
000002d0: a496 abbe 78e0 0f3c 2afc 3f3c ce1e 9dbd
000002e0: 55a4 09be ac49 9fbd a599 51be 6d3d a0bd
000002f0: 3943 353d 18a6 d8ba 6509 68be f4a7 adbc
00000300: d699 45be 43f7 38bd 7f91 6bbe c0a4 4639
00000310: 01a3 ccbd bcba 19be feb5 4b3c 6c22 93bc
00000320: f72b 0bbd 99eb 03be df01 563d 021d ccbd
00000330: 851a c0bc c91a c8bd ae9a 2dbe 0d8e 08be
00000340: 1820 fbbd e25c c53c 81c9 b7bd 6ef4 1ebe
00000350: 50c3 e33d 3c53 fdbd 3f01 3bbe 4f3e 64be
00000360: 45f6 1dbe 92f7 0f3d 63b2 b03d 9d1d 14bc
00000370: 6f62 d7bd e82a 75bd 81c6 15be e8e0 b4bd
00000380: 8380 57be d695 31be 3c70 783d 5ab9 ca3d
00000390: 8a43 9c3d 1f94 31bd 4dd5 bcbd 2856 f4bd
000003a0: b5e9 e2bc 3da9 c6bd 2980 09be 1959 cebd
000003b0: 01f0 24bd 50bc 4bbe fd88 6cbe aead 52be
000003c0: 41db f73e 24b2 193e e1d0 4fbc 288e 6b3e
000003d0: e9c1 833e 61b2 393e eb52 813e 649a 96bc
000003e0: d5b4 3f3e 1b10 60bd cdb1 503d 6306 8fbd
000003f0: 18c8 ef3d 40b4 97bc de44 093e 50c9 583e

model.encoder.0.bias f4 [9]
0.02940037 -0.0054631685 -0.066612564 -0.05943234 -0.07488827 0.07782689 -0.04740744 0.3208754
-0.08037628
00000000: 0bd9 f03c 6104 b3bb 2b6c 88bd 536f 73bd
00000010: 055f 99bd b463 9f3d 4e2e 42bd c849 a43e
00000020: 529c a4bd

model.encoder.3.weight f4 [2, 9]
-0.26247692 -0.06321573 -0.16569331 0.16773139 -0.25402558 0.2615078 -0.045380205 -0.0074768784
0.023363866 0.13309741 -0.030356798 -0.026981533 -0.08026486 -0.12003084 0.019912349 -0.11703588
0.46624517 -0.3346708
00000000: 6063 86be 4077 81bd 82ab 29be c7c1 2b3e
00000010: a40f 82be 5ae4 853e 98e0 39bd 9a00 f5bb
00000020: 9465 bf3c b04a 083e d2ae f8bc 6008 ddbc
00000030: e761 a4bd bbd2 f5bd 391f a33c 82b0 efbd
00000040: b0b7 ee3e f959 abbe

model.encoder.3.bias f4 [2]
0.13854893 -0.10966109
00000000: c5df 0d3e fe95 e0bd

model.decoder.0.weight f4 [9, 2]
0.6704984 0.10335027 -0.40312314 -0.09961968 -0.0053374823 0.37945488 -0.6898364 -0.10348887
0.1913661 -0.42468432 -0.46720457 0.32519305 -0.060162548 0.5379153 -0.3763402 0.18460298
0.45497116 -0.5433353
00000000: c8a5 2b3f 4ea9 d33d 2866 cebe 6705 ccbd
00000010: 0ce6 aebb e947 c23e 1e99 30bf f9f1 d3bd
00000020: 7af5 433e 3970 d9be 7035 efbe b47f a63e
00000030: 016d 76bd d1b4 093f aaaf c0be 9008 3d3e
00000040: fbf1 e83e 0618 0bbf

model.decoder.0.bias f4 [9]
0.09135492 -0.2877102 -0.10133641 0.14553337 -0.08321885 0.051505484 0.05797643 -0.59523386
0.15734528
00000000: 4a18 bb3d c04e 93be 7789 cfbd b306 153e
00000010: a56e aabd 6af7 523d b178 6d3d 3f61 18bf
00000020: 1f1f 213e

model.decoder.2.weight f4 [60, 9]
-0.4452458 0.42315394 0.30638987 0.7675751 -0.35353398 0.628194 -0.11121068 0.46871784
-0.39216155 -0.14649332 -0.10439885 0.06067598 0.22832246 0.0018645136 0.03336853 0.14690337
-0.19565037 0.28854814 -0.16050453 -0.17498435 -0.06936417 -0.13010596 -0.25586727 0.22790845
0.0016409083 -0.21265528 0.07585686 -0.7851066 0.16453908 -0.30246395 0.19304238 0.5421495
-0.053584106 -0.20870633 -0.23467465 0.012948629 -0.32335976 0.24603176 -0.31034443 0.46351048
0.18871525 -0.28734145 -0.022432432 -0.18867491 0.23765258 -0.2694653 0.16072462 -0.35187447
0.26226068 0.19571312 0.016680416 0.05313512 -0.1766399 -0.07865585 -0.19507039 -0.0037760532
0.22737162 0.3054425 0.22272788 0.07259407 -0.7319227 -0.121048726 -0.08539554 -0.011835696
-0.17848438 0.10059669 0.01901088 -0.013692554 0.054060917 0.18018611 -0.15579167 0.3279579
0.042175014 0.419491 0.40878013 0.27872324 0.2606984 0.023368679 -0.45490217 -0.09936811
0.1537312 -0.03972029 -0.15458316 0.0913996 0.028337901 -0.09866254 -0.1799882 0.19183554
-0.19090575 0.16464685 -0.20373687 -0.37341967 0.1089081 0.3008833 0.01558567 -0.26339632
0.15617779 -0.2557913 -0.17070644 0.2183403 0.1094369 -0.09534897 0.06737961 -0.17175539
0.3023325 0.3057694 0.028026655 0.21800196 -0.6325995 0.043960154 -0.022884935 0.030987611
-0.20241804 0.31927177 0.26656702 -0.22927131 0.30629954 -0.15226015 0.045971014 0.20317121
-0.030657718 -0.10385182 0.027213361 -0.32816458 0.34844774 0.17352262 0.1100939 0.4062746
0.28153268 0.17274748 0.1520513 0.15932207 -0.294475 -0.18991403 -0.3271583 0.061000183
-0.29134348 -0.17167392 0.50386727 0.18057153 -0.31873545 -0.05256761 0.25407642 0.4112262
0.061164606 -0.07236711 -0.062300127 0.059116744 -0.23959458 0.094259866 -0.35427636 0.1796676
0.0007542071 -0.23409806 0.23001477 0.21931474 0.37908345 -0.6159667 0.7532888 0.48596317
-0.026138408 -0.16639465 0.43560475 -0.025647908 -0.17537753 0.10884339 0.041911855 0.12915823
-0.51904947 0.09900109 -0.30307242 0.016729182 0.21457097 -0.16066349 -0.11321694 0.00062340574
0.08476162 -0.24563593 -0.29112297 -0.06788968 -0.061882116 0.13559663 -0.047578853 -0.10622199
0.09082697 0.1374946 -0.3752727 -0.025901934 0.08770949 0.02685527 0.15504451 -0.22745925
0.11762524 -0.2672384 -0.0917455 -0.05523038 0.14100882 0.04338475 0.08852288 0.021690033
-0.21022467 0.27325544 -0.12478735 0.17004757 0.21993455 -0.26140055 0.32046282 0.31147847
0.14488906 0.039156087 0.22968748 0.059102427 -0.16652937 -0.17749657 0.43045 -0.015816268
0.1743411 0.14144415 0.242862 0.19117987 0.15234321 -0.09209737 -0.2077005 -0.13223326
-0.16658033 -0.21852522 -0.50309896 -0.28012723 0.4007183 0.3370254 -0.09417168 -0.1823143
-0.108646266 0.3798614 0.20726664 0.03150593 0.023692753 0.38780576 0.03943452 -0.5168465
0.10125335 -0.49010137 -0.07007732 -0.40627053 -0.37710032 -0.2950404 0.39029944 0.012371238
0.07133223 0.20189938 -0.26324904 0.13143216 -0.24824217 0.07538345 0.20063296 0.05163381
00000000: 42f7 e3be a2a7 d83e 22df 9c3e cd7f 443f
00000010: 6802 b5be 52d1 203f 6dc2 e3bd c9fb ef3e
00000020: 66c9 c8be 5802 16be 10cf d5bd 6087 783d
00000030: 5dcd 693e b262 f43a 71ad 083d d66d 163e
00000040: 9258 48be 95bc 933e 4d5b 24be 192f 33be
00000050: cd0e 8ebd 7f3a 05be 0901 83be d560 693e
00000060: bf13 d73a 4ec2 59be d75a 9b3d bffc 48bf
00000070: ef7c 283e 8edc 9abe e7ac 453e 4fca 0a3f
00000080: 027b 5bbd 1db7 55be 8d4e 70be 7d26 543c
00000090: 698f a5be c0ef 7b3e 77e5 9ebe 3f51 ed3e
000000a0: 923e 413e 6b1e 93be 38c4 b7bc ff33 41be
000000b0: 335b 733e 5bf7 89be ff94 243e e428 b4be
000000c0: 0847 863e 0569 483e 5ea5 883c 36a4 593d
000000d0: 17e1 34be 5116 a1bd 88c0 47be a977 77bb
000000e0: 1bd4 683e f662 9c3e c712 643e 33ac 943d
000000f0: 495f 3bbf 65e8 f7bd dbe3 aebd 82ea 41bc
00000100: 9cc4 36be a305 ce3d b4bc 9b3c bc56 60bc
00000110: fb6e 5d3d b582 383e da87 1fbe 19ea a73e
00000120: b5bf 2c3d 86c7 d63e a14b d13e d0b4 8e3e
00000130: 437a 853e ac6f bf3c f0e8 e8be 8281 cbbd
00000140: b66b 1d3e beb1 22bd 0c4b 1ebe b72f bb3d
00000150: e324 e83c 960f cabd d44e 38be 8970 443e
00000160: cc7c 43be 2f99 283e 66a0 50be dd30 bfbe
00000170: 360b df3d 600d 9a3e 0a5b 7f3c e2db 86be
00000180: 12ed 1f3e 14f7 82be abcd 2ebe 9994 5f3e
00000190: 7420 e03d 5246 c3bd 52fe 893d a5e0 2fbe
000001a0: 53cb 9a3e cf8d 9c3e 2898 e53c e83b 5f3e
000001b0: 0af2 21bf 900f 343d 3079 bbbc bbd9 fd3c
000001c0: ad46 4fbe 9777 a33e 797b 883e 19c6 6abe
000001d0: 4bd3 9c3e 16ea 1bbe 1a4c 3c3d 1d0c 503e
000001e0: e525 fbbc 43b0 d4bd 8eee de3c 3005 a8be
000001f0: be67 b23e eaaf 313e e978 e13d 3903 d03e
00000200: 0d25 903e b7e4 303e 56b3 1b3e 5325 233e
00000210: 6dc5 96be d378 42be 4b81 a7be 54db 793d
00000220: f92a 95be 4acb 2fbe 72fd 003f bee7 383e
00000230: 4b31 a3be 2251 57bd 4e16 823e 3e8c d23e
00000240: bd87 7a3d 3535 94bd 6b2e 7fbd 6624 723d
00000250: 4858 75be 510b c13d b663 b5be c9fa 373e
00000260: fbb5 453a 67b7 6fbe fe88 6b3e 0b94 603e
00000270: 3a17 c23e feaf 1dbf 89d7 403f 2ad0 f83e
00000280: 3720 d6bc 5c63 2abe 9607 df3e 901b d2bc
00000290: 2b96 33be 49e9 de3d c4ab 2b3d 0e42 043e
000002a0: 6de0 04bf 15c1 ca3d 4f2c 9bbe a30b 893c
000002b0: 7eb8 5b3e f884 24be 48de e7bd 0d6c 233a
000002c0: 8097 ad3d fc87 7bbe 120e 95be bf09 8bbd
000002d0: 1a78 7dbd d8d9 0a3e 0be2 42bd ea8a d9bd
000002e0: 7e03 ba3d 62cb 0c3e be23 c0be 4b30 d4bc
000002f0: 08a1 b33d 95ff db3c fdc3 1e3e 14eb 68be
00000300: 80e5 f03d 79d3 88be 11e5 bbbd 4039 62bd
00000310: 9e64 103e 35b4 313d 7c4b b53d 4caf b13c
00000320: 2345 57be 23e8 8b3e 8390 ffbd f320 2e3e
00000330: 8636 613e 4bd6 85be b413 a43e 1b7a 9f3e
00000340: cc5d 143e 2262 203d 3233 6b3e 6315 723d
00000350: ad86 2abe a9c1 35be f163 dc3e 1e91 81bc
00000360: 7986 323e bcd6 103e d1b0 783e a8c4 433e
00000370: dcff 1b3e 8c9d bcbd 71af 54be 2868 07be
00000380: 0994 2abe 13c5 5fbe 18cb 00bf d66c 8fbe
00000390: f32a cd3e 988e ac3e 15dd c0bd 9ab0 3abe
000003a0: ef81 debd 327d c23e b53d 543e 5d0c 013d
000003b0: 4e17 c23c 7a8e c63e 1786 213d 0d50 04bf
000003c0: eb5d cf3d 91ee fabe b384 8fbd b102 d0be
000003d0: 4b13 c1be 890f 97be 54d5 c73e bcb0 4a3c
000003e0: a216 923d b6be 4e3e 94c8 86be 2796 063e
000003f0: 3233 7ebe a362 9a3d ba72 4d3e f97d 533d

model.decoder.2.bias f4 [60]
0.1881015 -0.055803202 0.052062336 0.080910176 -0.024276115 -0.0081494395 0.030642722 0.021358954
0.06984547 0.09017091 0.0076799663 0.06941545 -0.022288626 0.11372664 0.1759893 -0.018226985
0.028351717 0.16708565 0.040491894 0.06866857 0.12458107 0.056206737 -0.15218666 0.13312496
0.024638051 0.020299181 0.032902975 -0.046232786 0.09019264 -0.064218245 -0.035435557 0.14903186
0.17846924 -0.09523774 0.1679036 0.108595505 0.057182875 0.032789413 0.15886606 0.13793665
0.02314674 0.0362274 0.04027827 0.12994239 -0.02936119 -0.13663173 0.14032082 -0.027202215
0.10349064 0.031199541 0.0956531 0.034505412 -0.06141754 0.03254734 -0.025657022 -0.021631444
-0.064272575 -0.08274158 -0.13197148 0.2312353
00000000: ae9d 403e e691 64bd 513f 553d 3cb4 a53d
00000010: b4de c6bc 3a85 05bc 7206 fb3c f9f8 ae3c
00000020: 240b 8f3d 87ab b83d 3aa8 fb3b b029 8e3d
00000030: a396 b6bc 83e9 e83d 8a36 343e c250 95bc
00000040: dc41 e83c 8018 2b3e d4da 253d 1ba2 8c3d
00000050: 5c24 ff3d 0939 663d d2d6 1bbe e951 083e
00000060: bdd5 c93c 784a a63c 45c5 063d 975e 3dbd
00000070: ebb6 b83d db84 83bd e024 11bd cf9b 183e
00000080: a4c0 363e 010c c3bd ecee 2b3e 5267 de3d
00000090: 9738 6a3d 314e 063d c9ad 223e 443f 0d3e
000000a0: 3b9e bd3c 2f63 143d d4fa 243d 9e0f 053e
000000b0: e186 f0bc 30e9 0bbe 43b0 0f3e 2ed7 debc
000000c0: e7f2 d33d 2e96 ff3c c6e5 c33d 8c55 0d3d
000000d0: f590 7bbd 5c50 053d ad2e d2bc 6d34 b1bc
000000e0: 57a1 83bd 6b74 a9bd 8823 07be f2c8 6c3e
