torch_model_storage_26_Jun_2025/model_Early_IA_Correct_v_Early_RS_Correct_Het VEH_Early_RS_Correct.pt (torch, 9543 bytes, 8 tensors)

model.encoder.0.weight f4 [9, 52]
-0.09944675 -0.042164862 0.14706267 0.03697586 0.13585024 0.18550536 -0.07674547 0.09741413
0.014566318 -0.006381814 -0.058358837 0.35917106 0.031151244 0.19442734 -0.019330848 -0.02511462
0.040837623 -0.028085489 -0.018379945 0.048458166 -0.0060059857 -0.085034944 0.004316073 -0.1865931
0.56265306 0.3723551 -0.042536877 -0.28982902 0.038019832 0.11437056 -0.09228728 0.16803992
0.06167098 0.12140245 0.20168422 0.36564916 0.059704617 0.054850876 0.2144302 0.17236976
0.12902622 -0.015285934 -0.25402763 -0.17674631 0.04518482 0.12633672 0.036884356 0.038047668
0.09349614 0.13486314 0.13089496 0.20753941 0.08628424 -0.04872879 0.062031526 -0.09643228
0.0387799 -0.00030310114 -0.12180852 -0.15092725 -0.14694901 -0.11190276 -0.046647903 -0.14425348
0.12469376 -0.04513448 0.06177176 -0.05371258 0.03209329 0.0436326 -0.058828853 -0.080766276
0.1750817 0.13009697 -0.13333198 -0.060087223 -0.07978889 0.047863226 0.03041093 0.15750065
0.01637042 0.068288796 0.031941947 0.19422029 0.035521682 -0.051191267 -0.19585621 -0.18363914
-0.21339972 -0.16448876 -0.10643541 -0.22671604 -0.07303038 -0.09471849 -0.122042365 -0.053457297
-0.014570766 -0.023180477 0.009734509 0.060824934 -0.07061531 -0.060686514 -0.060661744 -0.17865603
0.08718981 -0.0962628 0.04386987 0.10253048 -0.12697642 -0.029763728 -0.15090808 -0.19211067
-0.1151968 -0.16072334 0.033921808 -0.0012114845 0.018031163 -0.19407246 -0.1097872 -0.068761446
-0.19740884 -0.013548486 -0.0336438 -0.10222488 -0.1447218 0.00858865 -0.2654028 0.084086746
0.030276338 -0.023132395 -0.21049657 -0.1122832 0.008514868 -0.010404492 -0.044981264 0.040216815
0.04013636 0.074272186 -0.024307242 -0.07018451 -0.2603624 -0.17163295 -0.19936188 -0.1543975
-0.20097205 0.005790326 -0.0905517 -0.1163305 -0.19440229 -0.10862205 -0.0430479 -0.013389351
0.021855181 0.08605412 -0.14349182 -0.05450768 -0.14902177 0.14961427 0.014365646 -0.07424009
-0.037889414 -0.373755 0.056730036 0.031840477 0.010767898 0.33730957 0.42439282 0.09614417
0.1620818 0.30003914 0.10639975 0.021753836 -0.03154605 0.05861212 0.01679795 0.14068267
-0.052811664 -0.04321657 -0.08477505 -0.09626485 -0.03645942 -0.11892895 -0.028374482 0.2643055
-0.23209614 -0.048478786 0.011284381 0.28880787 0.06511242 0.026834728 0.30853772 0.019233055
0.11878172 0.15238146 0.33200365 0.59969616 0.11367143 0.2189094 0.4216151 0.27030268
0.1795383 0.3002652 0.058186207 -0.0034273602 0.0099683795 0.22577623 0.18917522 0.11963668
0.09413521 0.00708853 -0.049513306 0.032047268 0.09871146 -0.02402885 -0.14729148 -0.053520586
0.06016373 -0.15356018 -0.14936188 -0.1583172 -0.071769916 -0.2042348 -0.06250649 -0.07458402
-0.14596085 0.0011759727 -0.12458413 -0.029107252 -0.14047113 -0.007933621 0.050052498 -0.22243895
-0.097804606 -0.09472622 0.020989975 -0.13594554 -0.026656142 -0.04540898 0.029690119 -0.026408589
0.017217424 -0.051165238 -0.16839975 -0.052110016 -0.24973078 -0.026893845 -0.002003449 -0.16561057
-0.052571174 -0.17176948 -0.11855087 0.0063249017 -0.067491464 -0.24498099 -0.19995067 0.03941901
00000000: bdaa cbbd 10b5 2cbd 9997 163e 0074 173d
00000010: 531c 0b3e 1ef5 3d3e bb2c 9dbd 0f81 c73d
00000020: 91a7 6e3c 891e d1bb ad09 6fbd 45e5 b73e
00000030: e530 ff3c f617 473e ba5b 9ebc 2dbd cdbc
00000040: 5a45 273d 8a13 e6bc 8a91 96bc 127c 463d
00000050: dccd c4bb cd26 aebd d86d 8d3b 4312 3fbe
00000060: 080a 103f 54a5 be3e 263b 2ebd 7864 94be
00000070: afba 1b3d 1d3b ea3d 1d01 bdbd a812 2c3e
00000080: b69a 7c3d d9a1 f83d 4f86 4e3e 5e36 bb3e
00000090: d48c 743d 50ab 603d 9793 5b3e b381 303e
000000a0: 731f 043e db71 7abc e90f 82be fcfc 34be
000000b0: b813 393d 6a5e 013e 0d14 173d dfd7 1b3d
000000c0: e77a bf3d 9019 0a3e 5409 063e 3685 543e
000000d0: cbb5 b03d d797 47bd c514 7e3d 4a7e c5bd
000000e0: acd7 1e3d 8ce9 9eb9 bf76 f9bd ac8c 1abe
000000f0: cd79 16be 462d e5bd df11 3fbd 2fb7 13be
00000100: 715f ff3d efde 38bd 6304 7d3d b901 5cbd
00000110: 4174 033d 19b8 323d 86f6 70bd ca68 a5bd
00000120: 9e48 333e 2438 053e 2e88 08be 051e 76bd
00000130: 5c68 a3bd 3b0c 443d 5820 f93c da47 213e
00000140: 421b 863c ffda 8b3d 8fd5 023d afe1 463e
00000150: 2f7f 113d efad 51bd 888e 48be e60b 3cbe
00000160: 7585 5abe be6f 28be cffa d9bd 4028 68be
00000170: f490 95bd c5fb c1bd 59f1 f9bd 0af6 5abd
00000180: 39ba 6ebc fce4 bdbc 7d7d 1f3c 9123 793d
00000190: c29e 90bd 6c92 78bd 7378 78bd 9bf1 36be
000001a0: 9290 b23d 6e25 c5bd e5b0 333d 80fb d13d
000001b0: 1b06 02be 10d3 f3bc a687 1abe a9b8 44be
000001c0: 4dec ebbd a994 24be 98f1 0a3d adca 9eba
000001d0: 17b6 933c eeba 46be 1dd8 e0bd cdd2 8cbd
000001e0: 8b25 4abe 78fa 5dbc 15ce 09bd 475b d1bd
000001f0: f431 14be 69b7 0c3c e0e2 87be ac35 ac3d
00000200: 1506 f83c 2680 bdbc 6a8c 57be bcf4 e5bd
00000210: f281 0b3c 9a77 2abc 463e 38bd 63ba 243d
00000220: 0666 243d 041c 983d fb1f c7bc e5bc 8fbd
00000230: 384e 85be 8cc0 2fbe 8525 4cbe 611a 1ebe
00000240: 9ecb 4dbe c6bc bd3b 2b73 b9bd af3e eebd
00000250: 6511 47be 3d75 debd ff52 30bd 025f 5bbc
00000260: a309 b33c 243d b03d 85ef 12be 7243 5fbd
00000270: 2a99 18be 7c34 193e e35d 6b3c 300b 98bd
00000280: ee31 1bbd d15c bfbe c15d 683d 296b 023d
00000290: d66b 303c d7b3 ac3e 044a d93e 3ce7 c43d
000002a0: c5f8 253e bb9e 993e 1de8 d93d 1a35 b23c
000002b0: 6e36 01bd 4313 703d db9b 893c 1e0f 103e
000002c0: 0b51 58bd dc03 31bd 8b9e adbd 8126 c5bd
000002d0: 7956 15bd 0591 f3bd 9a71 e8bc 0d53 873e
000002e0: 9caa 6dbe b191 46bd 20e2 383c a0de 933e
000002f0: a959 853d 81d4 db3c a8f8 9d3e a48e 9d3c
00000300: d543 f33d e309 1c3e 62fc a93e b085 193f
00000310: 91cc e83d c929 603e efdd d73e 1d65 8a3e
00000320: e3d8 373e 5cbc 993e a954 6e3d 909d 60bb
00000330: 6a52 233c e231 673e 26b7 413e 1304 f53d
00000340: f6c9 c03d e646 e83b 77ce 4abd ff43 033d
00000350: 3c29 ca3d 27d8 c4bc 94d3 16be 6738 5bbd
00000360: 3e6e 763d e13e 1dbe 52f2 18be e71d 22be
00000370: 1bfc 92bd ed22 51be 6703 80bd 82bf 98bd
00000380: c376 15be 1923 9a3a f725 ffbd 5572 eebc
00000390: aad7 0fbe 05fc 01bc d903 4d3d 09c7 63be
000003a0: c84d c8bd d2ff c1bd 2bf3 ab3c 4f35 0bbe
000003b0: fb5d dabc c4fe 39bd b138 f33c d356 d8bc
000003c0: 8e0b 8d3c a492 51bd fc70 2cbe 5071 55bd
000003d0: 6db9 7fbe 7b50 dcbc 4c4c 03bb d195 29be
000003e0: df54 57bd 57e4 2fbe ccca f2bd 1f41 cf3b
000003f0: f738 8abd 4cdc 7abe debf 4cbe d475 213d

model.encoder.0.bias f4 [9]
0.10572219 -0.050001252 -0.14274107 0.14728478 -0.09910267 0.028688109 0.0074776025 -0.121442825
0.020483209
00000000: e084 d83d 1dce 4cbd b72a 12be d2d1 163e
00000010: 57f6 cabd 5303 eb3c ad06 f53b 04b7 f8bd
00000020: 67cc a73c

model.encoder.3.weight f4 [2, 9]
-0.35859385 0.18632261 -0.12742186 -0.00023875019 -0.1983801 -0.1195849 0.267706 -0.27421904
-0.44523278 0.1981725 0.11451705 0.12050876 -0.39110932 0.4079516 -0.32897896 0.05340529
0.24025162 0.18668847
00000000: 9d99 b7be 5bcb 3e3e e07a 02be 0459 7ab9
00000010: 2724 4bbe eee8 f4bd c310 893e 7066 8cbe
00000020: 8df5 e3be bbed 4a3e ea87 ea3d 4ccd f63d
00000030: 7b3f c8be 08df d03e ee6f a8be 81bf 5a3d
00000040: 8504 763e 432b 3f3e

model.encoder.3.bias f4 [2]
0.09296439 -0.022646455
00000000: 1d64 be3d 0f85 b9bc

model.decoder.0.weight f4 [9, 2]
-0.30091172 0.43904543 0.26302233 0.6698013 -0.056236155 0.114684045 0.3727402 0.39066508
0.5480986 0.685678 -0.68917024 0.3574629 -0.29504374 0.028124543 0.45119625 -0.0069299815
-0.6497803 -0.29112002
00000000: 1a11 9abe 90ca e03e ddaa 863e 1978 2b3f
00000010: e257 66bd 78df ea3d ced7 be3e 4105 c83e
00000020: 3150 0c3f 9888 2f3f 766d 30bf 6105 b73e
00000030: f90f 97be 7165 e63c 3203 e73e e614 e3bb
00000040: 0058 26bf af0d 95be

model.decoder.0.bias f4 [9]
0.16616985 0.2382915 0.41284758 0.04098196 -0.8711459 0.29374963 -0.63053393 0.31874835
-0.22412713
00000000: 6e28 2a3e b002 743e c260 d33e b3dc 273d
00000010: 6b03 5fbf 5a66 963e ac6a 21bf fc32 a33e
00000020: 9581 65be

model.decoder.2.weight f4 [52, 9]
-0.16325144 0.4624311 0.115282945 -0.32453033 -0.06791889 0.09391259 -0.06366448 0.4581192
-0.06684062 0.18620048 -0.008364404 -0.17517558 -0.30730897 0.08249687 -0.10228255 0.15988018
0.17587085 -0.115402445 0.0060639167 0.024971262 -0.13340193 0.09378098 -0.037848152 0.13683055
-0.13679469 -0.014608658 0.1280752 0.44805345 -0.15263292 -0.23482926 0.099711336 -0.15147413
-0.059334077 -0.03785998 0.18882437 0.10019199 0.12774429 0.21377163 0.22708288 0.075940184
-0.028263705 0.24196748 -0.23269393 0.39375195 0.2818774 0.22581783 0.35003647 0.21256927
0.18623634 -0.3731937 0.48054308 -0.30675042 0.34019074 0.047203053 0.05739508 -0.32403353
-0.29963914 0.011384288 -0.24426715 -0.1567519 0.2021923 -0.28994194 -0.35698155 0.073596105
-0.37409997 -0.22975424 0.050423004 0.019495482 0.16674556 0.4019317 0.15900001 -0.19523792
-0.19267613 0.109691 0.096224226 0.045053985 -0.08827433 0.1948981 0.034156103 0.41926566
-0.05925916 -0.3202629 -0.31541374 -0.13238467 -0.16880406 -0.1740165 -0.0041316855 -0.14655145
-0.022530545 0.1690647 -0.5326152 -0.16407107 0.47502965 -0.52361184 0.09972088 -0.14495625
-0.44788262 0.30466545 0.5497923 0.16907418 -0.17892605 -0.09962806 -0.4148615 -0.3155165
0.5629699 -0.081859276 0.0057182456 0.32653534 -0.22972578 0.11532334 -0.048107997 0.052568868
-0.11125326 -0.04574657 -0.18915038 0.27679536 0.2813745 0.009632591 -0.29191756 -0.22009799
-0.1965352 -0.2313956 -0.18757257 -0.07005693 -0.28028965 0.54692084 -0.24325602 -0.068077974
0.2828214 -0.23610063 -0.11405649 -0.02337204 -0.2741133 0.3619976 0.16109662 -0.050170537
-0.28742173 -0.18714085 -0.26131004 -0.09848438 0.010773543 0.35935158 -0.058768686 -0.31289887
-0.16820978 0.022803586 0.24326439 0.05946928 0.15986031 -0.19352828 0.2601289 -0.037979547
0.012492574 -0.26505062 -0.15865563 0.08484165 -0.15045364 -0.19974795 0.2377579 0.042019222
0.44988325 0.00061467604 -0.27366152 -0.061314397 0.24359855 0.08354793 -0.00607926 0.09990944
0.1787381 0.08500015 0.011192711 -0.44178334 -0.1395959 0.14860642 0.12845615 -0.012137637
0.11617308 -0.1921261 0.0992692 0.12646556 -0.012398958 0.08911852 -0.28140655 -0.2803384
-0.16967933 -0.08641607 -0.12775877 0.22064316 -0.044474814 -0.1157548 0.3438387 -0.08068822
-0.010970675 -0.21255516 -0.023086471 -0.14800657 0.4079141 0.30018178 -0.063464046 -0.19294216
-0.27129596 0.26327583 0.13096118 0.12518163 -0.34520602 -0.056282703 -0.04402601 -0.34813246
0.028197492 0.05885221 -0.47210395 -0.47994816 0.03213765 -0.6616266 0.27413568 -0.45498917
0.111145236 0.08019888 0.23721048 -0.400037 -0.4539358 0.70728225 -0.14364395 0.00046264264
0.3885948 -0.2875168 0.075141974 0.3944772 -0.02320824 -0.23180604 0.5106933 0.1154182
0.15519057 0.02308786 -0.105340324 -0.058203705 -0.020945897 -0.23480369 0.1526898 0.08370853
-0.12621696 -0.08744293 -0.14191538 -0.5954649 0.055909343 -0.048153147 -0.19489902 0.0057473863
-0.19658995 -0.049277563 0.39091352 0.14215498 -0.08164662 0.061493576 -0.2599458 0.17577724
00000000: 632b 27be c5c3 ec3e 7719 ec3d d728 a6be
00000010: 0f19 8bbd 3e55 c03d 8662 82bd 9a8e ea3e
00000020: bce3 88bd 57ab 3e3e da0a 09bc 3a61 33be
00000030: 9a57 9dbe 1ef4 a83d 8379 d1bd a1b7 233e
00000040: 7d17 343e 1e58 ecbd d2b3 c63b 8890 cc3c
00000050: 849a 08be 3e10 c03d aa06 1bbd 4f1d 0c3e
00000060: e813 0cbe 2759 6fbc 2526 033e 4367 e53e
00000070: ce4b 1cbe 1577 70be 7535 cc3d 091c 1bbe
00000080: 4a08 73bd 1113 1bbd 2d5b 413e 7531 cd3d
00000090: 66cf 023e f3e6 5a3e 6a88 683e 8786 9b3d
000000a0: 4989 e7bc 53c6 773e 5147 6ebe db99 c93e
000000b0: 3c52 903e ca3c 673e fb37 b33e c2ab 593e
000000c0: bdb4 3e3e 3f13 bfbe be09 f63e 640e 9dbe
000000d0: 7b2d ae3e fd57 413d 1a17 6b3d b9e7 a5be
000000e0: 4d6a 99be 2a85 3a3c 2b21 7abe 9283 20be
000000f0: 800b 4f3e 4573 94be 49c6 b6be 8eb9 963d
00000100: 088a bfbe b244 6bbe 5a88 4e3d fdb4 9f3c
00000110: 59bf 2a3e fec9 cd3e e6d0 223e 73ec 47be
00000120: e44c 45be ada5 e03d 3511 c53d 878a 383d
00000130: 2cc9 b4bd 5e93 473e 45e7 0b3d fda9 d63e
00000140: bcb9 72bd 80f9 a3be e97d a1be d98f 07be
00000150: f9da 2cbe 6231 32be 1763 87bb 9511 16be
00000160: fa91 b8bc 4c1f 2d3e 7859 08bf 3f02 28be
00000170: 1637 f33e 6d0b 06bf 763a cc3d 696f 14be
00000180: df50 e5be 1cfd 9b3e 30bf 0c3f c821 2d3e
00000190: 6438 37be cc09 ccbd ba68 d4be 618b a1be
000001a0: cc1e 103f d6a5 a7bd 1f60 bb3b a42f a73e
000001b0: 3c3d 6bbe a52e ec3d e40c 45bd 7452 573d
000001c0: c0d8 e3bd c160 3bbd a3b0 41be 1fb8 8d3e
000001d0: 5210 903e 04d2 1d3c 3876 95be 5e61 61be
000001e0: 8640 49be f8f2 6cbe 0613 40be 027a 8fbd
000001f0: 2082 8fbe 0103 0c3f 1b18 79be 776c 8bbd
00000200: f7cd 903e 5dc4 71be 7396 e9bd b876 bfbc
00000210: 9458 8cbe c057 b93e 83f6 243e 9f7f 4dbd
00000220: f128 93be daa1 3fbe 6eca 85be 2eb2 c9bd
00000230: 8483 303c eefc b73e 6fb7 70bd 4834 a0be
00000240: 2f3f 2cbe 96ce ba3c 4d1a 793e 0f96 733d
00000250: 6cb2 233e 472c 46be 9d2f 853e 7190 1bbd
00000260: a7ad 4c3c b7b4 87be 9f76 22be 76c1 ad3d
00000270: 8510 1abe ba8a 4cbe cf76 733e 591c 2c3d
00000280: 1957 e63e 3622 213a 5d1d 8cbe ce24 7bbd
00000290: e671 793e 2d1b ab3d 8734 c7bb 529d cc3d
000002a0: 1f07 373e 8f14 ae3d a261 373c 6d31 e2be
000002b0: 3af2 0ebe 482c 183e 028a 033e f0dc 46bc
000002c0: 27ec ed3d b4bc 44be a64d cb3d 3080 013e
000002d0: 0025 4bbc c583 b63d 8514 90be 8488 8fbe
000002e0: 6bc0 2dbe e9fa b0bd 32d3 02be 48f0 613e
000002f0: 392b 36bd da10 edbd a00b b03e de3f a5bd
00000300: 59be 33bc 0fa8 59be d71f bdbc 098f 17be
00000310: 1eda d03e 6db1 993e 70f9 81bd a192 45be
00000320: 4ee7 8abe 17cc 863e b01a 063e 9d2f 003e
00000330: d8be b0be b188 66bd 9e54 34bd 6b3e b2be
00000340: 6dfe e63c 040f 713d 9cb7 f1be c4bb f5be
00000350: c5a2 033d 5c60 29bf 835b 8c3e 57f4 e8be
00000360: 1da0 e33d 4f3f a43d 4ee7 723e a6d1 ccbe
00000370: 466a e8be 7310 353f 6617 13be d88e f239
00000380: e6f5 c63e 6735 93be 09e4 993d eaf8 c93e
00000390: 351f bebc 905e 6dbe ccbc 023f 6160 ec3d
000003a0: 47ea 1e3e c022 bd3c abbc d7bd 0267 6ebd
000003b0: bb96 abbc 6170 70be b75a 1c3e 616f ab3d
000003c0: 053f 01be 4715 b3bd 4452 11be 6370 18bf
000003d0: 3201 653d 3c3c 45bd 9c93 47be 9254 bc3b
000003e0: e04e 49be 45d7 49bd d125 c83e 1391 113e
000003f0: 5836 a7bd b0e0 7b3d 9e17 85be f3fe 333e

model.decoder.2.bias f4 [52]
0.0046879062 0.19814977 0.103316724 0.05295806 0.1015245 -0.005840318 0.26180863 0.13775708
0.03471606 0.094569966 -0.08732953 -0.016657358 0.034738857 0.28096727 -0.18737376 0.14927728
0.25301406 -0.14072277 -0.032280196 -0.05243328 0.09920976 -0.02981153 0.0915231 -0.003361992
-0.010806351 0.0053033535 0.08269898 0.21481614 0.178594 -0.042042855 0.05729197 0.10434908
-0.064713754 -0.022093346 0.273794 -0.0151682915 -0.10374299 0.048963968 -0.013605029 0.12324199
0.14793587 0.1860552 0.06387144 0.0058736107 0.21326996 0.121411555 -0.12477752 0.13916141
0.0297019 0.15233114 0.17387472 -0.027893933
00000000: 029d 993b c6e7 4a3e b897 d33d 8dea 583d
00000010: 14ec cf3d 2360 bfbb c80b 863e 3110 0d3e
00000020: 6d32 0e3d e6ad c13d d3d9 b2bd 0375 88bc
00000030: 554a 0e3d f1da 8f3e e8de 3fbe 25dc 183e
00000040: 0f8b 813e a119 10be 3d38 04bd 47c4 56bd
00000050: 7d2e cb3d 4f37 f4bc 7770 bb3d de54 5cbb
00000060: 1f0d 31bc c1c7 ad3b 155e a93d c3f8 5b3e
00000070: 58e1 363e 2135 2cbd fcaa 6a3d f8b4 d53d
00000080: a588 84bd 1bfd b4bc ba2e 8c3e 6d84 78bc
00000090: 3477 d4bd 718e 483d a1e7 5ebc 4c66 fc3d
000000a0: 807c 173e 4185 3e3e 08cf 823d 6b77 c03b
000000b0: 7163 5a3e 9fa6 f83d 5b8b ffbd 5480 0e3e
000000c0: 6651 f33c b2fc 1b3e 370c 323e d181 e4bc
