torch_model_storage_26_Jun_2025/model_Early_IA_Correct_v_Late_IA_Het postCLNZ_Early_IA_Correct.pt (torch, 16143 bytes, 8 tensors)

model.encoder.0.weight f4 [9, 145]
0	0xbdd8d99e	-0.10588382
1	0x3d6ff695	0.05858477
2	0xbcec05c7	-0.028811349
3	0xbd3485c0	-0.044072866
4	0x3c25dc12	0.01012327
5	0xbc3c662c	-0.011498969
6	0xbd8d7dbd	-0.06908748
7	0x3e10fbac	0.14158505
8	0xbd49d6c2	-0.049277075
9	0x3d1c409c	0.038147554
10	0x3d962f45	0.07333235
11	0xbc0896b6	-0.008336714
12	0x3c91fc7e	0.017820593
13	0x3a89f43c	0.0010525058
14	0xbda7583b	-0.081711255
15	0xbc79d00c	-0.015247356
16	0x3e48e587	0.19618808
17	0x3dcd4c70	0.10024345
18	0xbcea389c	-0.028591447
19	0xbd1c0ae8	-0.03809634
20	0xbdced646	-0.10099463
21	0x3cd36980	0.025807142
22	0xbda501a6	-0.08056955
23	0x3d65d92d	0.056115318
24	0x3cd4854e	0.02594247
25	0x3d4197fb	0.04726408
26	0x3ce89711	0.028392347
27	0xbb8a81bd	-0.004226892
28	0x3dcc3728	0.09971458
29	0x3d4d95e4	0.050191775
30	0xbd75fb5f	-0.06005418
31	0x3b86baed	0.0041116388
32	0xbd85e4c4	-0.06537774
33	0xbd7656e4	-0.06014146
34	0xbde87527	-0.1135047
35	0xbd42f384	-0.047595516
36	0x3db8fb97	0.09032362
37	0x3cc8151d	0.02442413
38	0x3d613b4f	0.0549882
39	0x3df6fa61	0.12059475
40	0x3d78d918	0.06075391
41	0x3c7792d7	0.015110693
42	0x3d02cd21	0.031933907
43	0xbdf86bf0	-0.121299624
44	0xbca9586f	-0.020672051
45	0xbd714b38	-0.058909625
46	0xbd69d2a7	-0.05708566
47	0x3d18e3d7	0.03732666
48	0x3ce1bc40	0.027555585
49	0x3e1e7cb5	0.1547726
50	0x3dcc8c04	0.09987643
51	0x3dcf080d	0.101089574
52	0xbde53b2c	-0.11192927
53	0xbcc503ae	-0.024049606
54	0x3b1cb6b1	0.0023912604
55	0xbde3bf47	-0.11120468
56	0x3bd32cbf	0.006444543
57	0xbdaeb0c9	-0.08529813
58	0xbd324dd3	-0.04353125
59	0xbd7c8ea5	-0.061659474
60	0x3d934aa2	0.071919695
61	0xbdb81d27	-0.08989935
62	0x3a6f60a6	0.0009131528
63	0x3e01240a	0.12611404
64	0x3c484d86	0.012225514
65	0x3e5551ca	0.20831981
66	0xbda0332b	-0.078222595
67	0x3c0290fe	0.007969139
68	0x3e3f1f06	0.18664178
69	0xbcfe1f1c	-0.031020693
70	0x3d4b6b5f	0.049662944
71	0x3cee84d1	0.029116066
72	0xbca4269f	-0.020037947
73	0xbb6ec90f	-0.0036435758
74	0xbc950ff9	-0.018196093
75	0xbcd28a4d	-0.025700713
76	0xbd805b58	-0.062674224
77	0xbe0d15ed	-0.13777895
78	0xbce2d97e	-0.027691599
79	0x3c8a347f	0.016870735
80	0x3dbad8f5	0.091234125
81	0xbc1981fc	-0.00936937
82	0xbd8ca5c6	-0.06867556
83	0x3e3aa1da	0.18225804
84	0x3d8666be	0.06562565
85	0x3e338e33	0.17534713
86	0x3d802b1c	0.062582225
87	0x3c7b07ee	0.015321715
88	0xbd91ed6b	-0.07125362
89	0xbca955e1	-0.020670833
90	0xbe163a27	-0.14670621
91	0x3ce3bfb5	0.027801374
92	0xbdece95b	-0.115679465
93	0xbc885d8a	-0.016646165
94	0x3da829cb	0.082110964
95	0xbd6eeaf9	-0.058329556
96	0xbe23dca2	-0.16002133
97	0xbca8a281	-0.0205853
98	0xbc8309e7	-0.015995933
99	0xbda85bd8	-0.08220643
100	0xbc4be546	-0.0124448
101	0xbb359e8f	-0.0027712916
102	0x3c4e3792	0.012586491
103	0xbdef0ddb	-0.116725646
104	0xbd3c80a3	-0.046021115
105	0xbe062830	-0.13101268
106	0xbc7bf261	-0.015377612
107	0x3b467ea0	0.0030287877
108	0xbc9e6255	-0.019333998
109	0x3cac40db	0.02102702
110	0x3e2f0037	0.17089926
111	0x3e01c3b3	0.1267231
112	0xbdecdd97	-0.115657024
113	0xbe18aea3	-0.14910369
114	0xbdf74929	-0.12074501
115	0x3d80d0bb	0.06289812
116	0xbe240876	-0.16018853
117	0xbd1d4c38	-0.038402766
118	0x3be10971	0.0068675806
119	0xbdc71b8e	-0.097220525
120	0x3d24b882	0.040215023
121	0xbcf03fc4	-0.02932728
122	0xbe2f91a2	-0.17145398
123	0x3d40008a	0.046875514
124	0x3d87b4ed	0.06626306
125	0xbd896a01	-0.06709672
126	0xbcfb6e3a	-0.030692209
127	0xbc98dfeb	-0.01866146
128	0x3bb5c27b	0.0055468655
129	0xbcb276cf	-0.021785168
130	0x3d161fd5	0.03665145
131	0x3cda7efa	0.026671875
132	0x3d36ccd1	0.044628922
133	0x3d4412aa	0.047869362
134	0xbd84cbf9	-0.06484217
135	0xbd846167	-0.064638905
136	0xbd49ac77	-0.04923674
137	0x3d424f93	0.04743917
138	0x3e1ad95b	0.15121977
139	0xbd8bbaf9	-0.068227716
140	0x3bb460c9	0.0055047018
141	0xbcdc7508	-0.026911274
142	0xbe4e9732	-0.20174864
143	0xbd6f0485	-0.05835392
144	0xbdb60302	-0.088872924
145	0x3d9d3784	0.076766044
146	0x3b90fde8	0.0044247992
147	0xbc776653	-0.01510008
148	0x3d051aa8	0.032496125
149	0xbd0b63c9	-0.03403071
150	0xbdcbf50f	-0.099588506
151	0xbd7251f1	-0.059160177
152	0x3ce367f4	0.02775953
153	0x3d211059	0.03932223
154	0xbc392aa3	-0.011301669
155	0xbcf8953c	-0.030344598
156	0xbd8590fb	-0.065217935
157	0xbda9fd3c	-0.08300254
158	0x3cd894e9	0.026438193
159	0xbc4f481d	-0.0126514705
160	0x3d1b88a4	0.037972108
161	0xbd6c8049	-0.05773953
162	0x3cd4e948	0.025990143
163	0xbdd32047	-0.10308891
164	0xbc900e99	-0.017585086
165	0xbe19aeaa	-0.15008035
166	0xbd7bcb33	-0.061473083
167	0x3daa6f77	0.083220415
168	0x3db2e848	0.087357104
169	0xbe485341	-0.19563009
170	0x3c49d9d3	0.01232
171	0x3cd5a7c0	0.026080966
172	0x3d14db8d	0.036342192
173	0xbd1ca7cb	-0.038245957
174	0xbd9d951a	-0.076944545
175	0xbde15d62	-0.110041395
176	0xbd85f40d	-0.065406896
177	0xbd2cddf0	-0.042203844
178	0xbdb82683	-0.089917205
179	0xbd1c98fc	-0.038231835
180	0xbbf9e612	-0.0076263035
181	0xbda4840f	-0.08033001
182	0xbd3bfa7d	-0.04589318
183	0x3d030aa9	0.03199259
184	0x3c4d1e37	0.012519411
185	0xbd9b36ba	-0.07578798
186	0xbda03ee7	-0.07824498
187	0x3d4edea2	0.050505288
188	0x3cb1d296	0.02170686
189	0xbd00dca1	-0.031460408
190	0xbc8d84b0	-0.017275184
191	0xbdb8dedd	-0.09026883
192	0xbd8f5cb0	-0.070001006
193	0xbdd0be51	-0.1019255
194	0x3bebb2c9	0.0071929437
195	0xbd67abab	-0.0565602
196	0xbdb39e6a	-0.087704495
197	0xbd8f9abc	-0.07011935
198	0xbdd81176	-0.105502054
199	0xbd85c89c	-0.06532404
200	0xbcd7e2ef	-0.026353328
201	0xbe1715c7	-0.14754401
202	0xbd691612	-0.056905814
203	0x3de7d52e	0.11319958
204	0xbd100b56	-0.03516706
205	0xbd4fab6a	-0.050700583
206	0xbce670da	-0.028129984
207	0xbdb0ee4f	-0.08639204
208	0x3db9332d	0.09042964
209	0xbd8fb96e	-0.0701779
210	0x3c67c645	0.014146392
211	0x3da4631b	0.08026715
212	0x3bd512ce	0.006502486
213	0xbdae4d76	-0.08510868
214	0xbc04ad16	-0.0080979075
215	0xbca421f2	-0.020035718
216	0x3db19f3d	0.086729504
217	0xbdb0c186	-0.08630662
218	0xbd8f9fbe	-0.0701289
219	0xbde1c15d	-0.11023209
220	0xbd1226b7	-0.035681453
221	0x3d1fc33e	0.039004557
222	0x3d61886f	0.055061754
223	0x3d2d8844	0.04236628
224	0xbd30f957	-0.04320654
225	0xbcfc5db0	-0.030806392
226	0xbb9beb3d	-0.004758267
227	0xbddee61f	-0.10883736
228	0xbde34d5d	-0.1109874
229	0xbca65021	-0.02030188
230	0xbd10ad45	-0.035321493
231	0x3cecc90a	0.028904457
232	0xbd7b93c2	-0.06142021
233	0x3cde0576	0.027102213
234	0xbe641031	-0.22271802
235	0x3cbc6287	0.0229962
236	0x3cc4b7cd	0.024013424
237	0xbdfcbbec	-0.12340531
238	0x3ab5c5e6	0.0013868182
239	0xbd854226	-0.065067574
240	0xbe398ab2	-0.18119314
241	0x3d078df4	0.03309436
242	0xbc6fee9e	-0.014644293
243	0xbdc62dad	-0.09676681
244	0xbd373615	-0.04472931
245	0xbd270261	-0.040773753
246	0xbe1f5117	-0.15558277
247	0xbc79ecd5	-0.015254219
248	0xbdc98271	-0.09839333
249	0xbd25b4e3	-0.04045571
250	0xbd9dc1cd	-0.0770298
251	0x3d301352	0.042987175
252	0xbe01924d	-0.12653466
253	0xbd4c5d25	-0.049893517
254	0x3cca3d46	0.02468742
255	0xbe4baf18	-0.19891012

model.encoder.0.bias f4 [9]
0	0x3d3187dd	0.04334246
1	0x3e42ea1b	0.19034617
2	0xbd5f6375	-0.05453821
3	0x3ec45b36	0.38350838
4	0xbe5798bf	-0.21054362
5	0x3d7f3b48	0.062312394
6	0x3e5963c4	0.21229464
7	0xbe74f177	-0.23920237
8	0xbc8b02b0	-0.016969055

model.encoder.3.weight f4 [2, 9]
0	0xbd733ab3	-0.05938215
1	0xbe173d68	-0.14769518
2	0x3e1e0826	0.15432796
3	0xbdb484ba	-0.08814378
4	0x3ea4b0f6	0.3216626
5	0xbdc600b1	-0.096681006
6	0xbe3ab485	-0.18232925
7	0x3e71c061	0.23608543
8	0xbe2fdd96	-0.17174372
9	0xbe2f7525	-0.17134531
10	0x3d88dfa9	0.06683285
11	0xbeafec39	-0.3435991
12	0xbe1fdd01	-0.1561165
13	0x3e168d8e	0.14702436
14	0x3e8cad05	0.27475753
15	0x3c26a32d	0.01017074
16	0x3daaa0af	0.08331429
17	0x3e7d86f5	0.24758513

model.encoder.3.bias f4 [2]
0	0x3e00a828	0.12564147
1	0x3e0f18b0	0.13974261

model.decoder.0.weight f4 [9, 2]
0	0xbe9087b3	-0.2822853
1	0xbeb85442	-0.36001784
2	0xbdbf3ade	-0.093374
3	0x3e2e5dbf	0.17027949
4	0xbeadca7c	-0.33943546
5	0x3e1de27d	0.1541843
6	0x3f072656	0.5279287
7	0x3f0c251a	0.5474411
8	0x3e027482	0.12739757
9	0xbea283d1	-0.31741193
10	0xbefe815a	-0.49708062
11	0xbebb9842	-0.366396
12	0xbe68cdb5	-0.22734721
13	0xbc97983d	-0.01850521
14	0x3e579eae	0.21056625
15	0x3d096df7	0.033552136
16	0x3f0fdb65	0.56194144
17	0xbf133fa8	-0.57519007

model.decoder.0.bias f4 [9]
0	0x3e3c3baa	0.18382135
1	0xbeee187a	-0.4650305
2	0x3e70866e	0.23488781
3	0x3db3d2f3	0.0878047
4	0xbe5be21c	-0.21472973
5	0xbe53d8be	-0.2068815
6	0xbd28fe9b	-0.041258436
7	0xbe5458cf	-0.20737003
8	0xbda10865	-0.07862929

model.decoder.2.weight f4 [145, 9]
0	0xbecc4355	-0.3989512
1	0x3e9288e8	0.28620076
2	0x3da20b60	0.07912326
3	0x3ce2a152	0.027664814
4	0xbe7198b9	-0.23593415
5	0x3d7100f9	0.05883882
6	0xbede026b	-0.4336122
7	0xbe168519	-0.1469921
8	0x3acee63d	0.0015785169
9	0x3df2726e	0.11838232
10	0x3e1b786b	0.15182655
11	0xbd631175	-0.05543657
12	0x3e595ee4	0.21227604
13	0x3efb92de	0.49135488
14	0x3e96c4fd	0.29447165
15	0xbe84126e	-0.2579531
16	0x3eb95220	0.3619547
17	0x3d8a5714	0.0675489
18	0x3da2fd71	0.07958496
19	0xbe034f79	-0.12823285
20	0x3eb6f0e6	0.35730666
21	0x3da0f7c1	0.07859755
22	0xbe83711d	-0.25672236
23	0x3cc7dd19	0.02439742
24	0xbe71650e	-0.23573706
25	0xbcfe89d8	-0.031071588
26	0x3e8e9b9e	0.27853101
27	0xbd290ba8	-0.041270882
28	0x3d35deb4	0.04440184
29	0x3dd01b42	0.10161449
30	0x3ed1b327	0.40956995
31	0xbd8992e1	-0.06717468
32	0xbd8276b9	-0.06370301
33	0x3dc1a3c2	0.094550624
34	0xbc696396	-0.014244935
35	0x3dad25b6	0.084544584
36	0x3ea8709e	0.3289842
37	0xbc43301d	-0.011913327
38	0xbe054042	-0.13012794
39	0x3e6fea25	0.23429163
40	0xbeaa86f1	-0.33306077
41	0xbd76acee	-0.060223512
42	0xbe860c2b	-0.26181158
43	0xbe9ad6b5	-0.30241933
44	0x3e6a8915	0.22903855
45	0xbe246dd1	-0.16057517
46	0xbca273f1	-0.019830676
47	0xbe7e7842	-0.24850562
48	0x3dc63bae	0.09679352
49	0x3e70e95d	0.23526521
50	0xbd5e5674	-0.054281667
51	0x3e8d1538	0.2755525
52	0x3f044c27	0.516787
53	0x3da517bf	0.0806117
54	0xbca432c3	-0.020043736
55	0x3d724ce7	0.05915537
56	0x3e784231	0.24244
57	0x3e39fb36	0.18162236
58	0xbe8346a3	-0.2563983
59	0xbec4268c	-0.3831066
60	0xbd958de8	-0.07302457
61	0x3e431a56	0.19053015
62	0x3e5609db	0.20902197
63	0x3c626ace	0.0138194095
64	0xbe0786af	-0.13234971
65	0x3dbadc86	0.09124093
66	0xbe5e1a00	-0.21689606
67	0x3e2653e5	0.1624294
68	0x3e34c38e	0.17652723
69	0xbe4c690b	-0.19961946
70	0xbe3bd848	-0.18344223
71	0x3ccca19b	0.024979403
72	0xbecba79a	-0.39776307
73	0x3dcc9483	0.09989264
74	0xbd158e25	-0.036512513
75	0x3e6e13a3	0.23249678
76	0xbd1ed726	-0.0387794
77	0xbe72f1fe	-0.23725125
78	0xbe89f6c8	-0.26946092
79	0x3e7f010f	0.24902748
80	0x3d91e8cf	0.07124483
81	0x3e5f8653	0.21828584
82	0x3e857da3	0.26072416
83	0x3db0e24f	0.08636915
84	0x3e1cfe56	0.15331396
85	0xbd12f2ce	-0.035876088
86	0x3dbb7f1b	0.09155103
87	0x3e06e60c	0.13173693
88	0xbe602120	-0.21887636
89	0x3eb5dc23	0.35519513
90	0xbd02a74c	-0.031897828
91	0x3e5205f4	0.20510083
92	0xbd6b4c0a	-0.057445563
93	0x3bfd6f50	0.0077342167
94	0x3e004783	0.1252728
95	0x3d6a6589	0.057225738
96	0x3e4b0e57	0.19829689
97	0x3ed311be	0.41224474
98	0x3cb2b5ca	0.0218152
99	0x3d8451ba	0.064609006
100	0x3d26ede5	0.040754218
101	0x3e91f1a7	0.2850468
102	0x3d7a3a43	0.06109072
103	0x3dc87ade	0.0978906
104	0xbe11228f	-0.1417334
105	0xbeba7343	-0.36416063
106	0xbe66e16b	-0.22546928
107	0x3e61d28a	0.2205297
108	0x3e89f2ff	0.26943204
109	0xbc88ac95	-0.016683856
110	0x3e822e61	0.2542601
111	0x3ec4400d	0.38330117
112	0xbe00a3a3	-0.12562422
113	0xbde31517	-0.11088007
114	0xbeaa6c0f	-0.33285567
115	0xbec44265	-0.38331905
116	0x3f0b504a	0.54419386
117	0x3d606b81	0.054790024
118	0xbe12040b	-0.14259355
119	0x3cb15a23	0.021649426
120	0x3e50f831	0.20407178
121	0xbdeb8822	-0.11500575
122	0x3e265fa5	0.16247423
123	0x3e271323	0.16315894
124	0xbe8ca4ac	-0.27469385
125	0xbe49df02	-0.19713977
126	0x3ec8319c	0.3910035
127	0xbeb1478d	-0.346249
128	0xbeed90e0	-0.46399593
129	0x3e90b435	0.28262487
130	0xbc8d9162	-0.017281238
131	0xbea8e515	-0.32987276
132	0xbe232961	-0.15933754
133	0x3df31d94	0.11870876
134	0x3e762e7a	0.24041167
135	0xbd981517	-0.074258976
136	0xbe413c57	-0.18870674
137	0x3daf1d90	0.085505605
138	0x3e4d5b5f	0.20054387
139	0xbe178104	-0.1479531
140	0xbed81a25	-0.42207447
141	0xbe4723d9	-0.19447269
142	0xbef3efbb	-0.47643837
143	0x3e3a9cbe	0.18223855
144	0x3d1d2248	0.03836277
145	0xbe104b6f	-0.14091276
146	0x3d28bfdd	0.0411986
147	0xbe9072dd	-0.28212634
148	0xbe60da47	-0.21958266
149	0xbe4b74c5	-0.19868763
150	0x3c796535	0.015221884
151	0xbdca1e98	-0.098691165
152	0x3eab345e	0.3343839
153	0xbdc98e4b	-0.09841593
154	0x3d815166	0.06314354
155	0x3d44b8aa	0.048027672
156	0xbda1c75a	-0.078993514
157	0xbe36ed17	-0.1786388
158	0xbe02bc95	-0.12767251
159	0xbe9a06d2	-0.30083328
160	0xbea8feef	-0.33007
161	0x3d6251df	0.05525386
162	0xbd330377	-0.043704476
163	0xbd1f6d83	-0.038922798
164	0xbc992c62	-0.018697921
165	0x3e468d92	0.19389942
166	0xbd471f46	-0.04861381
167	0x3d8ad161	0.06778217
168	0x3e201460	0.15632772
169	0x3d7a6ca2	0.061138757
170	0x3ddd16f3	0.10795393
171	0xbe82a1d4	-0.2551409
172	0x3e404480	0.1877613
173	0xbe293d5e	-0.16527316
174	0xbd91c837	-0.07118266
175	0x3e0f98c6	0.14023122
176	0x3d6aab63	0.057292353
177	0x3e2fd59b	0.17171328
178	0x3d90e9c9	0.07075841
179	0x3e063b7a	0.13108626
180	0x3e2b33af	0.16718934
181	0xbb480ed7	-0.0030526423
182	0xbe9b50a2	-0.30334955
183	0x3e4a1cfc	0.19737619
184	0xbe2fb035	-0.17157061
185	0xbe40a912	-0.18814495
186	0xbd90fafb	-0.07079121
187	0x3d40c05c	0.04705845
188	0x3e1e02f6	0.15430817
189	0xbe1e01eb	-0.15430419
190	0xbe708d76	-0.23491463
191	0x3dc66493	0.09687152
192	0x3e479a3b	0.19492428
193	0x3e2ee502	0.17079547
194	0x3e33e863	0.17569117
195	0x3dab2bde	0.083579764
196	0x3d51549a	0.051106073
197	0x3e25941f	0.16169785
198	0xbd1df038	-0.03855917
199	0xbd7b89b8	-0.061410636
200	0x3d7f89aa	0.062387146
201	0x3e10286d	0.14077921
202	0xbcb92737	-0.022601707
203	0x3eb2ad11	0.34897664
204	0x3ea5f8ff	0.3241653
205	0x3e289343	0.16462426
206	0x3df2fe0c	0.11864862
207	0xbe91799b	-0.2841309
208	0xbdc63b32	-0.09679259
209	0x3e157b2c	0.14597768
210	0x3cb02894	0.021503724
211	0xbd916a72	-0.07100381
212	0x3db77898	0.08958548
213	0xbe6f396b	-0.23361747
214	0xbdabf3b1	-0.0839609
215	0x3d529801	0.051414493
216	0x3e49489f	0.19656609
217	0xbe83c170	-0.2573352
218	0xbdfba9f8	-0.12288278
219	0x3cdbc942	0.026829366
220	0xbea217c7	-0.31658766
221	0xbe8362bd	-0.2566127
222	0xbebbd314	-0.36684477
223	0xbd2f2e78	-0.042768925
224	0x3e1ea34a	0.15491977
225	0x3e9c2e0c	0.3050388
226	0xbe8f940e	-0.28042644
227	0x3d9b2794	0.07575908
228	0xbe1d31f0	-0.15351081
229	0xbe01eab1	-0.12687184
230	0xbe7f194f	-0.24911998
231	0x3dbe4964	0.09291342
232	0xbd9f0b9b	-0.077658854
233	0x3ec7f14c	0.39051282
234	0x3db9a55c	0.09064743
235	0xbd8f7e59	-0.07006521
236	0xbba7e768	-0.0051240213
237	0xbda748f4	-0.081682116
238	0xbe017c88	-0.12645161
239	0xbe67f613	-0.22652464
240	0x3d0401b7	0.032228198
241	0xbed0d874	-0.4079014
242	0x3c8698be	0.016430255
243	0x3da18427	0.07886534
244	0xbed110f0	-0.40833235
245	0x3e9ef668	0.31047368
246	0xbb43c244	-0.002987043
247	0xbeba3819	-0.36370924
248	0xbddcecdc	-0.10787365
249	0xbe720b20	-0.23637056
250	0xbda5e26c	-0.08099827
251	0x3f2a785e	0.66589916
252	0x3db98b17	0.090597324
253	0xbeba8328	-0.3642819
254	0x3dc5fe1f	0.096676104
255	0x3e10d6b4	0.14144403

model.decoder.2.bias f4 [145]
0	0x3e015a89	0.12632193
1	0x3e416621	0.18886615
2	0xbdf16bbc	-0.11788127
3	0x3d3a430f	0.04547411
4	0xbd9579e4	-0.072986394
5	0x3e196697	0.14980541
6	0xbcd50992	-0.02600554
7	0x3e0028f8	0.12515628
8	0x3ddcdf0f	0.107847326
9	0x3d7ec316	0.062197767
10	0x3e18c8f4	0.14920408
11	0xbd45144a	-0.048115052
12	0xbdd1307b	-0.10214325
13	0x3d590c2c	0.052990124
14	0xbd9f5669	-0.07780153
15	0xbdc2ef8e	-0.09518348
16	0x3e12e9f7	0.14347063
17	0x3e12ea8e	0.14347288
18	0x3c8ad5bb	0.016947618
19	0x3e1218ec	0.1426732
20	0x3c4093f0	0.011754021
21	0x39bfee3d	0.0003660786
22	0x3d34e0a5	0.04415955
23	0x3da1fea6	0.079098985
24	0xbdda0cec	-0.10646996
25	0x3e3a70d9	0.1820711
26	0x3d8bde5e	0.068295226
27	0xbd292171	-0.041291658
28	0xbe0b7051	-0.13617064
29	0x3e7c20ab	0.24621837
30	0x3e14a01d	0.14514203
31	0xbe189ee2	-0.14904359
32	0x3d879868	0.06620866
33	0xbd86c018	-0.06579608
34	0x3d314faf	0.043288883
35	0xbd1e9de9	-0.038724814
36	0xbd46b898	-0.048515886
37	0xbd9d2a75	-0.07674114
38	0x3c83d28f	0.016091613
39	0x3e11a6ba	0.14223757
40	0x3e275d29	0.16344132
41	0xbb1cc6a8	-0.002392212
42	0xbd39d5e2	-0.04536999
43	0xbcaf67a9	-0.021411734
44	0x3cd751e2	0.026284162
45	0x3db19511	0.0867101
46	0x3d5a660d	0.05331998
47	0x3e6a0763	0.2285438
48	0xbd0bd771	-0.034141008
49	0x3df94049	0.121704645
50	0x3e1c80f3	0.15283565
51	0x3e0fbd85	0.1403714
52	0x3d3d42c5	0.046206255
53	0x3e0fbc27	0.14036618
54	0x3e46a6a3	0.19399504
55	0x3e644086	0.22290239
56	0x3e701031	0.23443677
57	0xbdfecf7d	-0.12441919
58	0x3dd70e9f	0.105008356
59	0xbd1ea4a1	-0.03873122
60	0x3dac0c41	0.08400775
61	0x3d51381a	0.051078893
62	0xbe0f3dd8	-0.13988435
63	0x3e80b6cc	0.25139463
64	0x3d844552	0.06458534
65	0x3d8c0549	0.068369456
66	0xbc55cba9	-0.013049045
67	0xba7b3631	-0.0009582965
68	0x3e2f2ba4	0.17106491
69	0x3e077263	0.13227229
70	0x3e5f06a4	0.21779877
71	0x3d8377d5	0.064193405
72	0xbcc2ccef	-0.02377936
73	0x3d539a7e	0.051661007
74	0x3de74a93	0.11293521
75	0x3c892322	0.016740385
76	0x3dba215a	0.090883926
77	0xbd907dea	-0.07055266
78	0x3c19f3d1	0.009396509
79	0xbe12878d	-0.14309521
80	0x3dada0ca	0.08477934
81	0xbe19eaf8	-0.1503104
82	0x3bb0fc4d	0.0054011703
83	0x3e1c2817	0.15249668
84	0x3e29c6b6	0.16579708
85	0x3be9f90a	0.0071402835
86	0xbcfd680d	-0.030933404
87	0x3e3c2ce9	0.18376507
88	0xbcb9dccc	-0.022688292
89	0xbc3dd8fa	-0.011587376
90	0x3c800f12	0.015632186
91	0x3e81930c	0.253075
92	0xbcb046d2	-0.021518145
93	0xbe2678e3	-0.16257052
94	0x3ddfb58a	0.10923298
95	0x3e005149	0.12531008
96	0xbdc176a6	-0.094464585
97	0x3dd30c42	0.10305072
98	0x3cfeefdf	0.031120239
99	0x3cb343c5	0.021882901
100	0x3e41f4aa	0.18940988
101	0x3dcd0b74	0.1001195
102	0x3da246f9	0.07923693
103	0xbdb3e97f	-0.0878477
104	0x3e176e41	0.14788152
105	0x3e69310f	0.2277262
106	0xbde4bbe6	-0.11168651
107	0x3d3cfeb1	0.04614133
108	0xbcf17c7d	-0.029478306
109	0xbd803201	-0.062595375
110	0x3e28dbfa	0.16490164
111	0x3e5b3e89	0.21410574
112	0x3e44cd3f	0.1921892
113	0xbb37d3cc	-0.0028049825
114	0xbb8eaf65	-0.0043544048
115	0x3e2e82c8	0.17042077
116	0x3d104189	0.03521875
117	0x3bf7f581	0.007567108
118	0x3de110a6	0.109895036
119	0xbd92bd03	-0.071649574
120	0x3c8cdc38	0.017194852
121	0x3c98694a	0.018604893
122	0x3e52c82b	0.2058417
123	0x3e351376	0.17683205
124	0xbddcb557	-0.10776775
125	0xbd3a4dc5	-0.045484323
126	0x3e0c5b99	0.13706817
127	0x3dc7660a	0.09736259
128	0x3cf04159	0.029328035
129	0x3e27d258	0.16388834
130	0x3e1b4309	0.1516229
131	0x3daaf239	0.083469816
132	0xbca94fe8	-0.020667985
133	0xbe285fdf	-0.16442822
134	0xbd557681	-0.052114967
135	0xbc4242a0	-0.011856705
136	0xbbc36d98	-0.0059639923
137	0xbdc2db23	-0.09514453
138	0x3e4965ee	0.1966779
139	0xbd4bba02	-0.049737938
140	0xbdc54dd1	-0.09633983
141	0x3d5acc1b	0.053417306
142	0xbd27f47e	-0.04100465
143	0xbc6bd5f1	-0.014394269
144	0xbccc4e6f	-0.024939744
