torch_model_storage_24_Jun_2025/model_Early_IA_Correct_v_Early_RS_Correct_Het VEH_Early_IA_Correct.pt (torch, 14407 bytes, 8 tensors)

model.encoder.0.weight f4 [9, 117]
00000000: e9d4 23be b462 22be 0f54 eabb 87bf ddbd
00000010: 6d99 dabc 6863 3bbe 5b59 acbb 5ec0 61bd
00000020: dd6b 7abe 6251 27be 86a3 1fbe 8415 19be
00000030: a2c0 a6bd 36ca e1bd fb5e 16be 4209 f4bd
00000040: 361d 5ebd 0d1c 83bb 3d64 10bd 8874 ddbd
00000050: 6fd1 09be bf55 4bbe 09a8 62bd 62cd 27bd
00000060: df34 4ebe 28e8 89bd 7a29 07be 3dc3 38be
00000070: d527 1bbd ca8d fcbd 9273 55bd 294d 3fbe
00000080: 7ba8 e0bd 12af 4dbc 5022 e2bd 8d53 03be
00000090: 1eff 1bbe 7d9b 45be d69e 633c c690 16be
000000a0: e5cf 02be d3cd e0bd a8bb 99bd 6f74 96bd
000000b0: 1644 343d d8a5 eebc a741 5dbe 3454 03be
000000c0: eb47 a9bd 350b dabd 7b2d b9bd 6df1 51be
000000d0: d62c 6cbe 132c 6bbe d37b 7bbe 1dc3 4bbe
000000e0: 3531 0cbe 10c8 42be 5988 69be fb1a f2bc
000000f0: efbd 3ebd 5682 21be 47ae 61be 339a d0bd
00000100: 05ed 303c 75e3 30be bf16 8bbd 0b96 16bd
00000110: b31c 1cbc bf81 18be e302 43be 3a04 66bd
00000120: 0d73 d7bc 8aff 29bd f9d7 58be 5352 39bd
00000130: a42d c5bd 209b fbbc 8545 37be 78a3 e2bd
00000140: 22d7 46bd 70e9 0abe 7be3 0fbe 5378 4fbc
00000150: e5ae 24bd 4234 a7bd 2434 dabd f088 84bd
00000160: 9e17 efbd 840e d9bd dd0a f4bd 72cf 33be
00000170: 1955 1dbe 00d1 0ebc 5088 c3bd c176 37be
00000180: dbf0 42be 0abc a5bc 1cce b7bd 2f72 fabd
00000190: 7597 3bbe 0079 2ebd a82b ccbd 6ae4 83bd
000001a0: 3f02 45bd 67de 6dbd ec06 74be 2561 29be
000001b0: bee7 28be 593d e0bd e570 07bd bd53 d4bd
000001c0: f0ec 653b 5676 debd 6db6 98bd 2d8e 3bbe
000001d0: 5221 b5bc bbe0 9d3d efff bf3d 6588 febc
000001e0: 6199 583d 12f3 95bd 0726 8dbd f576 3ebd
000001f0: e7ce c4bc 581b 8cbd bb01 babd 9e5e 88bd
00000200: fb0e 9bbc aacb a63c 3b36 9fbd 4ec8 b43d
00000210: 0004 f23c 5e75 0ebe dd20 e13d b0ee 36bd
00000220: e2e9 6c3e 9589 8f3d 3fcd 7bbc d3f1 17be
00000230: 7aa8 893d b3f8 1f3d 45a6 4f3d 8e4b a93e
00000240: 427b 803b 00a2 143d dacf 49bd 2bdf 95bc
00000250: 03ea c4bd a3ae 803a c4d3 7c3d 7f6c 5fbd
00000260: c677 e03d 5971 313d ce05 3c3d 8b70 503d
00000270: e418 303d 866a 003d 951b 933d d7ba 02be
00000280: 11ea 0a3c 0f71 2c3d 025b 33bd 2b4d 853c
00000290: 3ee9 10be 0ce9 263d d85b c53c 15bc 2f3d
000002a0: a7a2 8c3e c1ad 46bd c517 a13e 289a 91bc
000002b0: b3f3 93bc 5bdf 36bd ee82 bc3c 3a5e ea3c
000002c0: a1f3 86bd 7381 9d3d bc1a 04bb f8d9 b03d
000002d0: f279 013d a757 92bc db43 84bc 7dbc 6e3e
000002e0: ab43 d13c f09a b53c ec8c 94bc 6503 01bd
000002f0: 398a d8be 6d7c f93c 2b41 b5bd 88cf 30bd
00000300: 82b5 0c3e 32fc bdbd 2c5b 963c 7cbe 17bd
00000310: e6ee b4bc b5e0 073e b95b dd3c ead7 ebbc
00000320: 8d45 db3c 37b3 9e3d 2064 963c 27d1 c53d
00000330: f412 443c e33c 413d 9f98 183d c200 de3d
00000340: 0768 fc3c fcb0 c43c f73e bd3d e09f 1fbe
00000350: 3354 e63c 957b 833d f542 80bd aed9 0bbe
00000360: 5d9c 8a3c e69b af3d 4684 7bbd f0bc 8fbc
00000370: f1db 833d a81c bfbc c6d1 b1bc bd3f 8cba
00000380: 26db b9bc 0757 4a3d e250 7e3d 1c1d d4bd
00000390: c0e3 dabb 0c10 bbbd 795b 1b3d 35c1 83bd
000003a0: ac30 9c3c a627 fa3d dab6 ca3c 0baa 65bd
000003b0: 7c58 d8bd 94bb 03bc 3c66 95bc 49c3 4c3d
000003c0: 7eb3 833d 9549 0abc c872 1bbc fdc6 15bd
000003d0: dc92 83bb 4699 f83d 6590 81bc a4d7 cb3c
000003e0: 11ba 87bd ca04 56bd b1a0 a5bc f825 f23c
000003f0: 7a36 ffbc e1e9 adbd 94d5 42bc 22ff 0cbd
-0.15999188 -0.15857965 -0.007151134 -0.108275466 -0.026684487 -0.18299639 -0.0052596754 -0.055115096
-0.24455209 -0.16339639 -0.15589723 -0.14949614 -0.081422105 -0.11024897 -0.1468467 -0.11915828
-0.054227076 -0.0040011466 -0.035251845 -0.10813242 -0.13458799 -0.19856928 -0.055336032 -0.040967353
-0.20137356 -0.067337334 -0.13199416 -0.18043227 -0.037879784 -0.123317316 -0.05211217 -0.18681778
-0.10969635 -0.012553947 -0.11041701 -0.12824841 -0.15234038 -0.19297595 0.01389285 -0.14703664
-0.12774618 -0.10976758 -0.07506496 -0.07346427 0.044010244 -0.029131815 -0.21607076 -0.1282509
-0.082656704 -0.10646669 -0.09041878 -0.20502253 -0.23063979 -0.22966032 -0.24558954 -0.19898649
-0.13690646 -0.1902163 -0.22805919 -0.02955388 -0.046567854 -0.15772375 -0.22039138 -0.10185661
0.010798697 -0.17274268 -0.06791448 -0.036764186 -0.009528327 -0.14893244 -0.1904407 -0.056156375
-0.026299978 -0.041503467 -0.21176137 -0.045244526 -0.09627846 -0.030713618 -0.17897613 -0.110663354
-0.04854501 -0.13565612 -0.1405162 -0.012662965 -0.040205855 -0.08164264 -0.10654476 -0.06471431
-0.116744265 -0.10598472 -0.119161345 -0.17559603 -0.15364493 -0.008716822 -0.09547484 -0.17916395
-0.19037192 -0.020231266 -0.08974859 -0.1222881 -0.18319495 -0.042595863 -0.09969264 -0.06440051
-0.048097845 -0.058073428 -0.23830765 -0.16540964 -0.16494653 -0.10949201 -0.03306665 -0.10367534
0.0035083853 -0.108624145 -0.0745667 -0.18315955 -0.022110615 0.077088796 0.09374987 -0.031070897
0.05288065 -0.073217526 -0.06892019 -0.046500165 -0.02402444 -0.06841153 -0.09082361 -0.06658672
-0.018928042 0.020360786 -0.077740155 0.088272676 0.029542923 -0.1391196 0.10992596 -0.044661224
0.23136094 0.070086636 -0.015368759 -0.14838342 0.067215875 0.039055537 0.050695676 0.33065456
0.0039209435 0.036287308 -0.04927049 -0.018294891 -0.09614947 0.0009817671 0.061725393 -0.05454683
0.10960345 0.043320987 0.045903973 0.05088858 0.042992488 0.03135159 0.07182995 -0.12766586
0.008478657 0.04210001 -0.043787964 0.016272148 -0.14151475 0.040749595 0.024091646 0.04290398
0.27467844 -0.04850555 0.31463447 -0.017773703 -0.01806054 -0.044646602 0.02301165 0.028609384
-0.06589437 0.07690706 -0.0020157536 0.08635324 0.031610437 -0.017864062 -0.016145637 0.2331409
0.025544962 0.022168607 -0.018133603 -0.031497378 -0.42292956 0.030454839 -0.088503204 -0.043166667
0.13741115 -0.09276618 0.018354021 -0.037046894 -0.022086572 0.13269313 0.027021276 -0.02878948
0.026766563 0.07749026 0.01835829 0.09659033 0.011967409 0.047177207 0.037254926 0.10839988
0.030811323 0.024010174 0.09240525 -0.15588331 0.028116321 0.06420056 -0.06262771 -0.13657257
0.016920263 0.08574657 -0.061405443 -0.017546147 0.06438435 -0.023329094 -0.021706473 -0.0010700148
-0.022687506 0.049399402 0.062088855 -0.10357115 -0.006679982 -0.0913392 0.037929032 -0.06433336
0.019066177 0.122145936 0.024745394 -0.05607037 -0.10563752 -0.008040328 -0.018237226 0.049990926
0.0643072 -0.008440395 -0.009487815 -0.036566723 -0.0040153097 0.121386096 -0.015815923 0.024883099
-0.06627286 -0.05225066 -0.020218225 0.02955912 -0.031153906 -0.084918745 -0.011891741 -0.034423

model.encoder.0.bias f4 [9]
00000000: 0385 47be 563b 073f 8837 743d 979d 0a3d
00000010: 16cd f4ba ebb9 133e 1049 d93d 6b13 393d
00000020: fc17 173e
-0.19484334 0.52824914 0.05962327 0.033841696 -0.0018676843 0.14426391 0.10609639 0.045184534
0.14755243

model.encoder.3.weight f4 [2, 9]
00000000: eb3f 0e3e b05b 3ebe 6416 773e b2e1 063e
00000010: 44ac c6bd bb7a 69be f712 a1be 8d24 05be
00000020: 1b54 8dbd a370 27be 663c c43e 42af bb3e
00000030: 03ad d93d 3d3f e73c 5604 b03e 3e56 d53d
00000040: c878 63be dd9b 613e
0.1389157 -0.18589664 0.24129635 0.13172033 -0.09700826 -0.22800724 -0.31459782 -0.13002224
-0.069008075 -0.16351561 0.3832733 0.3665715 0.106287025 0.028228397 0.34378308 0.1041684
-0.22214043 0.22032113

model.encoder.3.bias f4 [2]
00000000: d8f1 50bd 11ad 33be
-0.05101189 -0.17546488

model.decoder.0.weight f4 [9, 2]
00000000: 42ea 053f db6e 353f 8d26 b93e 4437 153e
00000010: be6c d23e 85a8 11bf f0b5 cabd d28f 9e3e
00000020: 8621 09be 2f1b 49be 2faa 163f 9acb d23e
00000030: a77c d33d f850 55be e493 f3be 0340 063e
00000040: 3ec1 2b3f fa3c c8bd
0.52310574 0.7087228 0.36162224 0.14571863 0.4109859 -0.56897765 -0.09897983 0.309691
-0.13391694 -0.19639276 0.5885343 0.4117096 0.1032651 -0.20831668 -0.4757377 0.13110356
0.6709174 -0.09777255

model.decoder.0.bias f4 [9]
00000000: 9be0 873e d9fb 053f 484b 5d3e f7c1 3a3e
00000010: 7735 2fbe c292 7c3e 69ce 9dbe 4148 dabd
00000020: f18e 083f
0.26538548 0.52337414 0.21610749 0.18238054 -0.17110239 0.24665359 -0.3082154 -0.106583126
0.5334311

model.decoder.2.weight f4 [117, 9]
00000000: 7cc5 7bbe 2db2 98bd 478d 3bbe 2b9e 283e
00000010: 697a 22bb 556f d0bd f8c4 86be a4fe 86be
00000020: cd0c 563e 2154 31bd 2fe0 ebbd 8372 55be
00000030: a500 a63e 4399 b9bd a3b3 8a3d 72bc 9bbe
00000040: 70ef ce3d 33e4 8f3e 560c e3be c12c 8c3e
00000050: bf22 1dbd cd22 edbd a74f a3bd c838 d1be
00000060: 42aa 97be 17c8 5bbe b222 f6bd 86e9 283d
00000070: f581 353d ae93 ba3d 8dc7 973d ac0e 8fbc
00000080: 53e5 6fbc 30b1 c03d adad 4abe c603 36be
00000090: 60d2 9ebe d497 25be a01b ef3e 9399 b23e
000000a0: 8d48 bdbe fc80 5abe 38e6 643d 1204 033e
000000b0: 6ce8 943c 2fc6 5fbd dede b0b9 781b 823e
000000c0: e237 d03d 1a9e cfbe b35b 4fbe d7f4 ebbe
000000d0: 7753 493d 043c 7e3e 6e37 80bc 8569 1e3e
000000e0: aed8 7bbd b32d a9bd b67c d9bc dadb 7fbe
000000f0: 0762 9b3d a827 5e3d d9eb f9bc 0be1 1c3e
00000100: c01d 283e 8e08 843e ef0d a2be f12b 613e
00000110: 9828 903c 7040 c73d 8326 0a3e 3c74 f8bd
00000120: 5277 e03e ef8b babc a0fe c5bd 076f abbe
00000130: 5128 923e 9ce5 babd ee97 37be b87b a2bd
00000140: 2517 623e 842c 81bd 5cc3 fc3e 1e88 a53e
00000150: 3135 50bc 0339 2abe 7120 5ebe 2b7b 0fbf
00000160: 87f7 a03e 162d a03e 2045 59bf 5fc5 543d
00000170: 2472 273e 1b03 903e c33f 44bd bde1 61be
00000180: dbd1 0a3e e033 bb3d 2b3f 713e 6902 a1be
00000190: c7f2 5c3d f8d7 0ebe 0c13 74be 59c9 9d3e
000001a0: 8f72 8c3e c1e5 9cbd b882 3cbd 787f d93d
000001b0: 5aa0 6cbe 144f 4dba 9f56 663e c4de b53d
000001c0: 5c24 a5be 991e 443b ffbb 97bc e312 423e
000001d0: 0ee0 243d bdff d63c 6730 1f3e 2809 8dbd
000001e0: dcbd 1cbe b869 283e b2ad bf3c 175f e2bd
000001f0: ef1f 0ebf e86c 19be 51d6 803d 90e6 ac3e
00000200: 9945 8d3e 1f56 3e3e 9f72 b8be 4c38 c7be
00000210: 67f7 38be eb87 6f3e c72c b83a 18f6 70be
00000220: a482 50bd 8d20 3cbd 04e9 cfbe c13e 923e
00000230: 865b 27be 4395 453e f3b7 8f3e a8da e93d
00000240: 77b1 33bf ccaa c8bd 9474 5a3e fa3e 0c3e
00000250: 611a 9bbe 48ea d6be 19fe 3e3d 2dc5 233e
00000260: 391f ad3e c7ce 85be acc3 4cbe 5bcf 4abe
00000270: 9a7e 6dbe 2708 7cbe 84c2 4f3d 8982 923e
00000280: 2e8b 853e 3c54 963e 1ab8 23bf 830e ce3c
00000290: 4219 a8bc e5e1 9c3e bdb3 05be 7d85 e9be
000002a0: 187e d83b 3dfd 06be 58c4 dcb7 d7f0 8d3e
000002b0: 1b63 5d3e 829b 19be 6443 c03d 515f 38be
000002c0: 1dae b93e f8fb 9cbe c3cb 463e 13ab 5ebe
000002d0: b061 923d f1ef 1d3e 6aa9 f4bd 5c29 c2bd
000002e0: 6cc0 aabe 62f5 06bc 616a 533e fcb6 903e
000002f0: 38c0 afbd 9c24 8cbe 42a4 49be 2a02 093e
00000300: 3433 933e fe17 a3bd a8d6 04be c713 3ebe
00000310: dc80 e43c 35bc 28be 82bd e5ba b7db 9a3e
00000320: 952a 9a3e 2cba 6f3e 8f5c b53e 0907 91be
00000330: 17c7 60be 8b71 f7bd 9b11 3c3e 47da 3a3d
00000340: 7385 48be 0722 8d3e 416b aabc 6684 913d
00000350: dfff f9bd 3458 7fbe deea a6bd 8bb0 1cbe
00000360: dfba 953d 276f 7dbd b64b 12bd 6c87 6bbd
00000370: c6d0 a23e f11a eabd f5a4 ac3e 3815 cdbe
00000380: 8495 efbd 3d62 afbd 4680 50be 0615 283e
00000390: 8947 8fbd 5605 5cbe 004f 77be 7cff 94be
000003a0: 4877 a03e d8f4 663d 3089 30bc 88c7 1cbd
000003b0: 0a07 b6be 934f 2c3e e271 11be 73e3 e3be
000003c0: 91cb 8cbe 0f69 6d3f 6ccc 1ebe 70da 48be
000003d0: 7184 87bd 331b bd3e 745e 1b3e af12 39bc
000003e0: c1d6 b1be 25b2 aebe 6656 44bd 8b04 ea3d
000003f0: 1a53 ba3d 7f0e da3e fa21 8f3e a755 763d
-0.24587053 -0.07455859 -0.18315612 0.16466586 -0.00247922 -0.10177485 -0.2632215 -0.2636615
0.2090332 -0.043293122 -0.11517369 -0.20844464 0.32422367 -0.090624355 0.06772544 -0.3041721
0.10104263 0.2810379 -0.4434535 0.27377895 -0.038363215 -0.11578903 -0.07974177 -0.40863633
-0.29622084 -0.21463047 -0.12018336 0.04123833 0.04431339 0.09110199 0.07411108 -0.01746305
-0.0146420775 0.09408796 -0.19792815 -0.17774877 -0.31019878 -0.16171199 0.46700764 0.34882793
-0.36969414 -0.21338266 0.055883616 0.12794521 0.018177234 -0.054632362 -0.00033735385 0.25411582
0.10166909 -0.4055031 -0.20249824 -0.46085235 0.049151864 0.24827582 -0.015651431 0.1546994
-0.06148594 -0.082606696 -0.026548725 -0.2498621 0.075870566 0.054237038 -0.030507969 0.15320222
0.16417599 0.25787777 -0.31651255 0.21989419 0.017597482 0.09729087 0.13491254 -0.12131545
0.43841034 -0.022771804 -0.096677065 -0.33483145 0.28546384 -0.09125826 -0.1792905 -0.07933754
0.22079141 -0.06307319 0.49367797 0.32330412 -0.012707994 -0.1662331 -0.21692063 -0.56047314
0.31438848 0.31284398 -0.848711 0.05194604 0.16352135 0.2812737 -0.04791237 -0.22058769
0.13556616 0.09140754 0.23559253 -0.3144715 0.053942468 -0.13949573 -0.23835391 0.3081768
0.2743115 -0.076610096 -0.0460231 0.10620016 -0.23108044 -0.0007831913 0.22493981 0.0888038
-0.32254303 0.0029925464 -0.01852226 0.18952517 0.040252738 0.026244992 0.15545808 -0.06886512
-0.153068 0.16446579 0.023398254 -0.11053293 -0.55517477 -0.1498295 0.062908776 0.33769655
0.2759216 0.1858754 -0.3602495 -0.3891014 -0.18063127 0.23391692 0.0014051431 -0.23531377
-0.05090584 -0.04592948 -0.40607464 0.28563502 -0.16343507 0.1929522 0.2807003 0.114186585
-0.70192665 -0.09798202 0.21333534 0.13695899 -0.30293563 -0.41975617 0.046629045 0.15993185
0.33812883 -0.2613432 -0.19996518 -0.19805662 -0.23192826 -0.24612485 0.050722614 0.28615215
0.26082748 0.2936114 -0.6395279 0.025153404 -0.020519856 0.30641094 -0.13056846 -0.45609656
0.0066068284 -0.1318254 -2.6317473e-05 0.2772281 0.21619837 -0.15000728 0.09387854 -0.1800511
0.3626565 -0.30660987 0.19413666 -0.21744947 0.07147539 0.15423562 -0.11946376 -0.09480545
-0.3334993 -0.008237215 0.20646049 0.28264606 -0.08581585 -0.2737168 -0.19691566 0.13379732
0.28750002 -0.079635605 -0.1297251 -0.18562232 0.027893476 -0.16478045 -0.0017527791 0.30245754
0.30110613 0.23410863 0.3542218 -0.2832568 -0.21950947 -0.120822035 0.18366091 0.04561832
-0.19582157 0.27565023 -0.020803096 0.07105331 -0.12207007 -0.2493599 -0.08150266 -0.15301721
0.073110335 -0.06187358 -0.035716735 -0.057502195 0.31799906 -0.1143092 0.33719602 -0.4005525
-0.1169844 -0.08563659 -0.20361432 0.1641427 -0.06996066 -0.2148641 -0.2415123 -0.2910117
0.31341004 0.056385845 -0.010774896 -0.038276225 -0.35552245 0.1682723 -0.14203599 -0.44509467
-0.2749906 0.9273843 -0.15507668 -0.19614577 -0.06617058 0.36934814 0.1517275 -0.011295958
-0.34734157 -0.34120288 -0.04793396 0.11426648 0.090978816 0.42589185 0.2795561 0.06014028

model.decoder.2.bias f4 [117]
00000000: cdd4 3cbd d12d 683d dda7 5fbc eac1 253d
00000010: cadf 5abb 7069 3fbd 1430 e43a c856 0d3e
00000020: aae7 fd3d 8502 b03c bb57 813e dd21 373d
00000030: e318 2f3d 0a7d 263e 6b19 f1bc 3185 0e3e
00000040: 13a8 943c a5a5 c93d 1565 ff3c 84d6 f13d
00000050: 41e9 713e 5e79 3a3d 5591 a0bd 4dd9 c63d
00000060: 6750 383e 319a 0c3c 6e82 863e 9244 36bd
00000070: ceff fcbc 8a7f 873e 8f5a e5bc 749b df3d
00000080: d274 8c3e e8d2 1b3e 4810 003d 29ad b5bc
00000090: 64d8 ae3d bfc8 373e 6e0d 3a3e 7f78 573c
000000a0: 6795 d03d 949f 8dbd e9ed 87bd f1a2 b4bd
000000b0: bdf1 5bbd cddb 0f3e 64b6 193e 7bd5 233e
000000c0: dac5 8b3e f7fa 8d3d a05d 943e 3bc6 c73e
000000d0: c74a a43d e68d 543e 615e 183e 694b 573d
000000e0: f602 d63d 02ba 453e dd84 113e b321 2e3e
000000f0: b03c 053e 8707 a43d ddae 87bd 3484 373e
00000100: 5a65 503e 7f4a a93d 7fa8 1eba 3d58 023e
00000110: dd00 ca3d e239 223e 4b1a d83c 5d0d d63d
00000120: 096c 9ebd 73af 913b 3548 333e dd8e 1cbd
00000130: 8c44 5b3e 46f2 4f3d 1572 e33d 6158 373e
00000140: 955a 6c3d fa69 d93d b41f 453e 221a f63c
00000150: 37c7 24be d262 973d dc3b f73d 042a d6bc
00000160: 2634 403e 90dd 923d 6792 46bd ea39 ad3d
00000170: 0ba9 2d3d 5d15 39bd 848d 203e 3167 243d
00000180: 772d 3fbd b0a3 1e3d d4c9 13bb 4ec4 2d3e
00000190: 4e5c 6e3e b07b b3bc 40f2 273e a41a c73d
000001a0: 3226 09bd 5a32 393c 27e1 a93c e411 88bc
000001b0: a51e 393e 93bd afbd ac7e bf3d 05dc e13d
000001c0: 7a25 053e cddf 4a3e 95b5 a5bd a0c1 083e
000001d0: 6717 9cba
-0.04610138 0.05668432 -0.013650862 0.040468134 -0.0033397549 -0.046731412 0.0017409348 0.13802636
0.12397702 0.021485576 0.25262246 0.04471003 0.042748343 0.16258636 -0.029431066 0.13917996
0.01814655 0.09846047 0.03117613 0.11808494 0.23624136 0.0455259 -0.0784022 0.097094156
0.17999421 0.008581684 0.26271385 -0.044498987 -0.030883696 0.26464492 -0.027997283 0.10918322
0.27432877 0.15217173 0.031265527 -0.022177296 0.08537367 0.17947672 0.18169186 0.013151287
0.10184746 -0.06915203 -0.06637175 -0.08820141 -0.053697336 0.14048691 0.15010983 0.15999405
0.27299386 0.06932633 0.2897768 0.39018425 0.08022075 0.20757255 0.14879753 0.05256215
0.104497835 0.19309238 0.1421084 0.17005043 0.13011432 0.08009248 -0.066251494 0.17921525
0.20351163 0.08266162 -0.00060523296 0.12728973 0.09863446 0.15842393 0.026379725 0.104517676
-0.0773545 0.004445964 0.17508014 -0.038222183 0.21412867 0.05076816 0.11105744 0.17904808
0.057703573 0.106159166 0.19250375 0.030041758 -0.1609162 0.07391895 0.12071964 -0.026143081
0.18769893 0.07171166 -0.048479464 0.08458312 0.04239754 -0.04518639 0.15678984 0.040137473
-0.046674218 0.038730323 -0.002255072 0.16969416 0.23277399 -0.021909565 0.16401005 0.09721878
-0.03348369 0.011303509 0.020737244 -0.016610093 0.18078096 -0.0858108 0.093503326 0.110282935
0.13002577 0.19811936 -0.08091275 0.13355112 -0.001190883
