torch_model_storage_24_Jun_2025/model_Late_IA_v_Early_RS_Correct_Het CLNZ_Early_RS_Correct.pt (torch, 9559 bytes, 8 tensors)

model.encoder.0.weight f4 [9, 60]
000000 04 e1 4f 3e ae c6 c3 3a 90 72 1b be d6 2b 6b 3e
       0.2030068 0.001493653 -0.15180421 0.22965941
000010 17 4c a0 3e d2 cc 93 3d 27 fc 89 3c 40 19 62 3c
       0.31308052 0.07216801 0.016843868 0.013799965
000020 73 97 01 3e 39 ed 34 3d ae bd c7 3d ea 6f 87 3c
       0.1265543 0.044171546 0.097529754 0.016532857
000030 f5 37 8e 3e 45 96 96 bd a0 50 1b 3e 3b 46 f2 3d
       0.27777067 -0.073528804 0.15167475 0.11829802
000040 a5 51 e3 3d d6 20 d9 3d eb df 29 bc 96 4e 13 bd
       0.11099557 0.10601966 -0.010368328 -0.035963617
000050 20 c6 77 3d 8f 51 86 bd 82 ba d4 3d 24 b7 88 bd
       0.06049168 -0.06558525 0.10387136 -0.06675556
000060 57 a3 05 3c e9 2e 43 3d 57 5f ac bd f2 9e 02 bd
       0.008156619 0.04765216 -0.08416622 -0.031889863
000070 38 0c 94 3d 69 72 0c be fc c9 a1 ba ba ca cf bd
       0.07228893 -0.13715519 -0.0012343521 -0.10146089
000080 70 c5 a4 3d 79 ee aa 3b 17 c8 29 3d ee 66 83 bd
       0.08045471 0.0052164164 0.041450586 -0.06416117
000090 bc ed 62 3d df 81 6e 3c 81 ca a9 3d 10 63 5b 3b
       0.055402502 0.014557331 0.08290578 0.0033475794
0000a0 3d 1b 71 3e 54 ac 04 3d a1 5c 95 3d 8c 85 02 3d
       0.23545547 0.032390907 0.07293058 0.03186564
0000b0 5c e5 c1 3d ae 6d 95 3c f2 25 2d bd 7e 2b 0e bd
       0.09467575 0.018240776 -0.042272516 -0.034709446
0000c0 9e c8 c3 3c 50 ec 84 3d a8 9a ce bb ae e0 c0 bc
       0.023899373 0.064903855 -0.0063050576 -0.023544636
0000d0 c7 0d d7 3d fd f7 f1 3d 30 b5 b8 3b ed c2 22 3e
       0.10500675 0.11814878 0.0056368336 0.15894671
0000e0 18 c7 ab 3d b3 f7 2d bd 1d 43 ba bd 95 e4 c2 3d
       0.083875835 -0.042472553 -0.09094832 0.09516255
0000f0 cf 3a 95 3e e8 82 3f 3d a3 b2 77 3d 99 04 07 3f
       0.2914643 0.0467557 0.060473096 0.5274139
000100 3a 7c b0 3e e9 db ba 3e 6e d9 e6 3c 8f 1e a6 bd
       0.34469777 0.36495903 0.02817985 -0.08111297
000110 fc 83 a9 3c 10 7c 04 3d 4e 35 ce 3d c5 dd 83 3d
       0.020692818 0.032344878 0.10068761 0.064387836
000120 5a c8 d4 3e 0a a5 d3 3d 38 46 b8 3c e6 ef 14 3e
       0.41559106 0.10334213 0.02249442 0.14544639
000130 95 ca 96 bd 0f 6e c0 bd 4d bd 68 3d 46 eb e5 bb
       -0.07362858 -0.09395992 0.056821156 -0.007016572
000140 a7 5d bb bd 4a c7 14 3e 9e af 75 3e 79 ce a7 bc
       -0.09148722 0.14529148 0.23992774 -0.020484196
000150 e1 de 14 3c 57 62 84 be de f1 c0 bd 1e 48 8b be
       0.009086342 -0.25856277 -0.094211325 -0.2720346
000160 bf 99 c5 3d ca 6a c2 3a 2b f3 b0 3d 2f c8 ea 3d
       0.09648465 0.0014832851 0.086401306 0.11463963
000170 82 4a 17 be 18 f4 1b 3e 07 d7 88 3d 64 8f af 3e
       -0.14774516 0.15229833 0.06681638 0.34289086
000180 16 14 f0 bd 82 f7 6d bc 8f b8 df bc 54 d4 2d 3b
       -0.11722581 -0.0145243425 -0.027309684 0.0026524263
000190 bc a8 2e 3e 20 f5 38 3d f7 b6 06 3e 3e 3e 9c 3c
       0.17056555 0.045155644 0.13155733 0.019072648
0001a0 21 56 b5 3e c3 df c8 bc cd 60 c4 3d 2f 52 6a 3e
       0.35417274 -0.02452076 0.09588776 0.22882913
0001b0 16 76 b0 3d 8d f3 b2 3d 70 04 41 3e f1 90 08 3d
       0.08616273 0.0873786 0.18849349 0.033341352
0001c0 b5 f7 77 3e 49 40 8b 3e f7 86 1a 3d 3b 5f fc 3e
       0.24215586 0.27197483 0.03772637 0.49291405
0001d0 48 8d 8c 3e c9 b1 80 bd 19 ef b8 bd 5a c5 06 be
       0.2745154 -0.0628391 -0.09029979 -0.13161221
0001e0 cb b4 31 3e 68 06 10 3e 7c 12 bf bd a0 f1 42 3e
       0.17354123 0.14064944 -0.093296975 0.19037485
0001f0 5b 13 9b 3e 59 d0 f0 3d 77 72 a9 3d ca 40 62 bc
       0.30288205 0.11758489 0.082737856 -0.013809392
000200 7e 6b 19 3d d4 4d 0b be 01 cc 15 bd 42 b1 d8 bb
       0.03745603 -0.13603908 -0.036571506 -0.0066129277
000210 2e d9 77 3e 3c d9 b5 bd 1c a9 aa bd 01 67 49 3e
       0.24203941 -0.08879325 -0.08333036 0.19668199
000220 58 09 03 be 2c b7 30 3e 5d a8 e6 3c db 20 89 3d
       -0.12796533 0.17257375 0.028156454 0.0669572
000230 80 54 c0 bc 23 54 80 bd 09 8f 4a 3e 33 c4 6b bd
       -0.023477793 -0.06266048 0.19781126 -0.057560157
000240 d0 fb e8 bd 9b d5 a5 3e 40 4b 3e 3e d6 94 b6 3d
       -0.113761544 0.3238953 0.18583393 0.08915107
000250 91 73 7b 3d ba f4 c4 3d 88 aa 96 3d a1 25 9a bc
       0.06138951 0.096169904 0.07356745 -0.018816771
000260 07 87 11 3d bc f5 24 3e 91 c8 27 3d 3e d6 e7 3d
       0.035529163 0.16109365 0.04096276 0.1132016
000270 33 45 d1 3c 95 f9 96 3c b3 f3 02 be 1a ea fd bc
       0.025545692 0.018429557 -0.12788276 -0.030995417
000280 32 ab 79 3e 03 cb 20 bd b5 0f 8b 3d 6d 9f a4 3d
       0.24381712 -0.039256107 0.06790105 0.080382206
000290 20 53 45 3d 80 ca 0b 3d c7 72 0c bd d2 06 98 bd
       0.048174977 0.034128666 -0.034289148 -0.07423176
0002a0 ce 33 9d 3d f4 80 b5 3d 06 24 a4 3c 28 d5 93 bd
       0.076758966 0.088624865 0.020036709 -0.07218391
0002b0 5d 7e de 3d a5 00 76 3d 51 6f 56 3d 19 25 1c 3d
       0.10863946 0.06005921 0.052352253 0.038121317
0002c0 bb 35 07 3e 68 e8 92 ba fd c6 13 bb 8f 8b 82 3d
       0.1320409 -0.0011208178 -0.0022549026 0.06374275
0002d0 96 42 af 3e 30 e4 97 bd 3e 5f 67 3d 1a 48 6d 3e
       0.3423049 -0.0741657 0.056487314 0.23172036
0002e0 50 fd 8f 3e c8 b3 07 3e 40 78 fb 3d 86 18 c8 3d
       0.2812295 0.13252175 0.12278795 0.097703025
0002f0 7c 05 cc 3c f7 03 0f be 68 50 52 3d cb 3e c4 bc
       0.024904959 -0.13966356 0.051346213 -0.023955723
000300 c0 21 2e 3e cc 6e 4d bd b1 d7 1a be 8b 17 15 ba
       0.17005062 -0.050154492 -0.15121342 -0.0005687407
000310 10 13 0b 3d 91 c4 cd 3e ac df ee bc 88 7b 19 3d
       0.033953726 0.4018903 -0.02915939 0.037471324
000320 70 d6 c4 3d 1c 89 68 3d 02 89 fb 3d 6e e4 fd bc
       0.09611213 0.056771383 0.122819915 -0.030992713
000330 d8 32 a5 bb 29 4f 06 3f af ee b1 3e 57 b7 c2 3e
       -0.0050414614 0.5246454 0.34752414 0.38030502
000340 22 67 84 bc 27 fd 6f bd 4a 70 6e bb 74 c8 8b 3d
       -0.016162459 -0.058591034 -0.0036382847 0.06825343
000350 7f 1d a5 bc 3a 46 0a 3b 95 15 67 bd de 2a d5 bc
       -0.020155666 0.0021098987 -0.056417067 -0.026021417
000360 18 f3 18 be 61 11 c5 3d e3 9b 0a be 5c 3e 04 be
       -0.14936483 0.096224554 -0.13536029 -0.12914413
000370 ae 67 3c 3e f6 44 ec 3b f9 9c 66 3e 09 c6 db bc
       0.18398926 0.007210369 0.22520818 -0.026827829
000380 8f 2c 31 be 41 49 08 bd 39 da 25 3e 67 db 16 3d
       -0.17302154 -0.033272985 0.16196527 0.036830332
000390 ca ef a0 3d 1e 0c 60 3d f8 aa f9 3c ac c8 47 bd
       0.07858236 0.054699056 0.030477032 -0.04877536
0003a0 96 75 43 3e 00 9a ac 3d 32 41 a9 bd d3 b2 76 bc
       0.19087824 0.08427811 -0.08264388 -0.015057283
0003b0 ab 79 61 3e 22 9b b7 3d 1f 6c 5c bc 9b f3 64 3d
       0.22019069 0.08965136 -0.013453512 0.055896383
0003c0 3e 22 dc bd d0 66 8a bd 6a 8a 3c bc 50 6b b7 bd
       -0.10748719 -0.06757891 -0.01150761 -0.08956015
0003d0 cd 48 60 be aa 38 b4 bd 69 5e 36 be bc 3b 0d be
       -0.21902771 -0.0879987 -0.17809452 -0.13792318
0003e0 eb 5c c0 3c 96 dd 08 bd 40 58 5b 3d d0 42 fe 3d
       0.023481807 -0.033414446 0.05355096 0.12415087
0003f0 e3 75 b0 3c 93 1f 66 bd 63 9d 20 bd 4c a0 97 bb
       0.021540588 -0.056182455 -0.039212596 -0.004627263

model.encoder.0.bias f4 [9]
000000 97 a8 ae 3d c7 b6 02 3e cb f6 90 bd 14 f2 09 be
       0.0852825 0.12765037 -0.07078322 -0.13471252
000010 3d 7d 08 3e 1d d3 a6 3d 78 f6 04 be 73 85 8b 3d
       0.13329025 0.081457354 -0.12984645 0.06812563
000020 94 2a 65 bd
       -0.05594881

model.encoder.3.weight f4 [2, 9]
000000 06 b7 0b bc aa c1 b9 be 0d 1d ad 3e 74 79 cd 3e
       -0.008527523 -0.36280566 0.33811226 0.40131724
000010 1c f2 00 bf e4 86 b1 3d a6 91 f8 3e f2 78 ef bd
       -0.5036943 0.086683065 0.4854862 -0.1169299
000020 ce fa 1d be 83 9b 23 be d9 98 91 be 28 d4 28 be
       -0.15427706 -0.15977292 -0.28436926 -0.16487181
000030 f6 ad 0d be f9 76 47 3e 35 15 6a 3e 06 0b 5d 3e
       -0.13835892 0.19478978 0.22859652 0.21586236
000040 35 9f 51 3e 5a 99 30 3d
       0.20470889 0.043114997

model.encoder.3.bias f4 [2]
000000 03 9b 83 3d be 03 28 3e
       0.064260505 0.16407678

model.decoder.0.weight f4 [9, 2]
000000 fa 27 ef be c7 72 4d 3f 53 4d ab 3e 4e 81 fd be
       -0.46710187 0.8025326 0.3345743 -0.49512714
000010 c2 47 df 3e f1 0f 9d be 5a 47 e8 3d f4 b1 38 3e
       0.43609434 -0.30676225 0.11341734 0.18036634
000020 2d 02 00 3f d0 5e 37 3f e4 9c 98 be 10 1f 0c be
       0.5000332 0.7162905 -0.29807198 -0.13683724
000030 e7 66 92 3d df c3 ea 3e 7f e2 7a 3d a4 ae 16 3f
       0.07148533 0.45852563 0.06125116 0.5886023
000040 44 5d 24 bf 1f a8 9e be
       -0.6420481 -0.3098764

model.decoder.0.bias f4 [9]
000000 45 32 93 bd 30 10 94 be 94 43 b1 be 60 e5 c5 3e
       -0.071873225 -0.289186 -0.3462187 0.38651562
000010 13 fc 32 be 1f 4a 38 be 8f 87 9a bd 1f fd 2d be
       -0.17478971 -0.17997025 -0.07545387 -0.1699109
000020 c5 39 99 bd
       -0.07481722

model.decoder.2.weight f4 [60, 9]
000000 b0 89 07 bf b0 82 b9 3e c1 b5 18 3d 4d b5 32 be
       -0.5294447 0.3623252 0.03728271 -0.17451973
000010 f0 75 f8 bd 62 a5 82 3d 13 52 fc be f5 48 dc be
       -0.1213187 0.063792005 -0.49281368 -0.43024412
000020 f3 75 39 bd b9 15 ec be 19 b0 5a be a1 2a e5 bd
       -0.0452785 -0.46110323 -0.21356238 -0.111897714
000030 08 b6 f2 bd 81 68 e1 3d 88 ff 6d be 8c 72 91 3c
       -0.11851126 0.11006261 -0.23242009 0.017754816
000040 5e 5e ef be cb 7b 75 bc 9a 47 95 ba 6f 1e 44 3d
       -0.46751684 -0.014983128 -0.0011389137 0.047880586
000050 0f af 08 be 6c 38 8a 3d c7 09 88 be 51 ee ad 3e
       -0.1334803 0.06749043 -0.2656996 0.33970883
000060 a0 25 e5 3d 8e dd 49 ba 34 62 fc bd cb a0 dc be
       0.11188817 -0.0007700556 -0.12323418 -0.43091425
000070 77 59 13 3f f1 ca 88 3e af 1c 73 3d 5c a9 01 bf
       0.5755839 0.26717332 0.059353527 -0.50649047
000080 c6 ce a2 3e bd 3d f5 3d 4b e1 52 be e4 9c 04 3f
       0.3179838 0.11974666 -0.20593755 0.51801896
000090 b3 24 19 be c6 c4 10 3f 50 ee 00 3f 21 f6 41 be
       -0.14955406 0.5655025 0.50363636 -0.18941547
0000a0 83 44 84 be a0 84 7e 3e 4f 81 06 bd 2e 2c df bd
       -0.2583352 0.2485528 -0.032838162 -0.108970985
0000b0 ae 84 4b 3e 0b 86 6a be c6 5c 4f 3e 5f c5 48 3e
       0.19874832 -0.22902696 0.20250234 0.19606541
0000c0 27 4f a1 be fd 41 9c 3d 23 32 89 3d 34 e9 c9 be
       -0.315057 0.07629774 0.06699016 -0.39435732
0000d0 6d 80 a2 3c 06 c1 9d 3e 91 1f 87 be 07 01 1b bc
       0.019836629 0.30811328 -0.2639127 -0.009460694
0000e0 35 5b 87 3e 7c 77 27 3e 8e 42 50 be 35 6e 9b 3e
       0.26436773 0.16354173 -0.20337889 0.3035752
0000f0 fc eb 7d bd 28 4a e9 be de 44 8c be 93 0d cf bd
       -0.06199263 -0.4556439 -0.27396291 -0.10110011
000100 e0 c3 e2 bc e2 44 45 3e 09 49 03 be e3 d8 c1 bd
       -0.027681291 0.19264558 -0.1282083 -0.09465196
000110 9d b0 17 3e bb 6e 68 bc 1e a1 1e 3e 6b e6 84 be
       0.14813466 -0.014186556 0.15491149 -0.25957045
000120 88 56 42 be 50 8e bc 3d 41 dd b5 3c c5 45 7f be
       -0.18978322 0.092068315 0.022200229 -0.24928959
000130 b5 77 26 be 2b 90 a0 bd ab 92 1a 3e 65 3a 08 be
       -0.16256602 -0.07839998 0.15095012 -0.13303526
000140 3e 4c 70 3d c5 83 df 3d d4 51 d3 be 4d e0 c6 3c
       0.05866646 0.10913805 -0.41273367 0.024276877
000150 d5 56 cf bc 32 38 3e be 51 39 80 be 54 0e bb 3d
       -0.02530996 -0.18576124 -0.2504373 0.09133592
000160 45 c7 f4 be 94 1e c5 3d 94 95 33 be 58 8f 6f be
       -0.4780828 0.09624973 -0.17537528 -0.23394525
000170 46 63 64 3d af 6e ac 3c db 80 04 bd 31 f3 f3 3c
       0.055758737 0.021048872 -0.03234945 0.029779049
000180 95 46 da be d2 ae 8a bd 4f ad 78 3d b0 aa 85 3e
       -0.42631975 -0.067716256 0.060712155 0.26106787
000190 ff 5b ad bd 39 95 76 3e 72 98 1e 3d 97 58 1a bd
       -0.084648125 0.24080361 0.038719602 -0.037682142
0001a0 87 03 c3 3e 85 2e bf bd 3b dc ae bb f5 c6 e6 3d
       0.3808863 -0.09335045 -0.005336312 0.11268417
0001b0 6b 49 f4 bd ed d8 cb 3e 60 f9 87 3e e7 6e 9f be
       -0.11928066 0.3981394 0.26557446 -0.311393
0001c0 28 06 5e 3d 47 b6 36 bd b6 db 0a 3e e9 00 da be
       0.05420509 -0.044607427 0.13560376 -0.4257882
0001d0 ee ce 03 3f 85 bc da be 0f fc cd bd f4 9a f3 bd
       0.51487625 -0.42721954 -0.10057842 -0.11894789
0001e0 96 d8 35 3e c9 c5 17 be 28 84 1c be b9 25 a3 3c
       0.17758402 -0.14821543 -0.15284789 0.019915449
0001f0 b8 91 17 3c d5 b6 3a 3e 09 5e 8e be 7b 42 6f be
       0.009251051 0.18233807 -0.27806118 -0.23365204
000200 03 2f 9c be 68 06 4f be 47 7d c5 be 8c 0b 65 bd
       -0.30504617 -0.20217288 -0.38572142 -0.055919215
000210 ff 9b d5 3c d4 bb 5b be 3d 03 2e bd f7 63 a9 be
       0.026075361 -0.2145837 -0.042483557 -0.3308408
000220 6c a4 41 3e 6c 2c 20 3d aa a0 d1 3d 85 f0 d0 bd
       0.18910378 0.039104864 0.10235722 -0.102021255
000230 8c d6 71 3e 50 25 e1 bd 8e 0a 4b be a6 3b e9 3d
       0.23617 -0.10993445 -0.19828245 0.1138833
000240 7d f7 e1 bd 27 41 5e be 2b cb 5f 3d 9b 16 32 3e
       -0.11033533 -0.21704541 0.054637115 0.17391436
000250 37 24 be 3c e4 6a 48 3e 4c d4 96 be 7d 7a cd be
       0.023210628 0.19572026 -0.29458845 -0.40132514
000260 6d fb 56 be 83 82 d8 be 0b 3b 53 3e 26 a3 30 3e
       -0.20994349 -0.42287073 0.20627992 0.17249736
000270 db 11 5c 3e d0 7b 07 be 6a 18 d9 be 85 46 cf be
       0.21491186 -0.13230824 -0.4240144 -0.4048349
000280 64 ed eb be d7 e1 ca be ce f9 74 be 4c f1 a4 be
       -0.46079552 -0.39625427 -0.23923418 -0.32215345
000290 7c 92 0c 3e c7 7b 6a be 5a a1 99 be 7c 58 3e 3d
       0.13727754 -0.2289878 -0.30005914 0.046471104
0002a0 e7 c6 a0 bd 9d 1a 44 3e df 52 02 be 1e ea 24 be
       -0.078504376 0.19150777 -0.12726925 -0.16104934
0002b0 53 52 23 be b1 73 c1 3e 5f 8e 05 3d 12 c8 94 3e
       -0.15949373 0.37783578 0.03260648 0.29058892
0002c0 e7 ca 0b 3e 67 89 d6 3d 8a 7b 3f be 09 9d 09 3e
       0.1365162 0.10475426 -0.1869947 0.1343881
0002d0 b8 b5 e6 be b7 62 1b be 48 e9 fe bd 75 7c 2c 3e
       -0.45060515 -0.15174375 -0.124468386 0.16844352
0002e0 e3 da 39 3c 1a 57 f7 bd dd 09 3d be f7 d7 f9 bd
       0.011343691 -0.1207716 -0.18460794 -0.12199395
0002f0 b1 cc a4 be 78 65 3b be c8 28 3d be 0e 7a ea bd
       -0.32187417 -0.18300426 -0.18472588 -0.11449061
000300 3d 21 a3 3d 1a 91 29 bf 52 9d 0b 3e df fd e0 bb
       0.07965324 -0.6623703 0.13634232 -0.0068662013
000310 49 a1 94 be 1b 5b 2c be 5f 30 38 3e 62 4b e5 3d
       -0.290293 -0.16831629 0.17987202 0.11196019
000320 26 7f 08 3f fa 17 a2 be b9 13 59 3d 6f 26 37 3c
       0.53319013 -0.31658918 0.052997325 0.011178597
000330 74 a1 84 bd 3f 9c 68 bb 9b 42 81 3e e9 61 63 be
       -0.06476107 -0.003549352 0.25246128 -0.22205319
000340 25 74 22 3d 53 13 84 bd 0f 28 44 be 80 0b 4f 3d
       0.039661545 -0.06448998 -0.19155906 0.050548077
000350 ba f8 59 3e 38 f5 29 3e 98 92 7a 3e 49 4a 7a bb
       0.21286288 0.1659745 0.24469984 -0.003819125
000360 5c e6 fe bd a9 04 a9 be c1 07 df 3d 38 b9 f0 bd
       -0.12446281 -0.33011368 0.10890151 -0.11754078
000370 fd 8d b1 be 52 01 71 be 43 b8 16 bd 83 94 06 be
       -0.3467864 -0.2353566 -0.03679682 -0.1314259
000380 4f 65 0a 3c fb 45 0d bf fe d2 a4 3e 1b ad 01 3f
       0.008447005 -0.55184907 0.32192224 0.50654763
000390 23 f8 d4 bd a8 0f dc 3e 36 45 de be 2a f7 95 3e
       -0.10398891 0.42980695 -0.4341218 0.29290134
0003a0 61 23 3e be e0 0a 34 bf ee 36 89 be 7a 2b 8e 3e
       -0.18568183 -0.70329094 -0.2679972 0.27767545
0003b0 e8 29 f0 3e 1a d4 7f be 34 91 9d 3b 4c 99 b8 bd
       0.46906972 -0.24983254 0.0048085693 -0.09013614
0003c0 52 fd 2e 3e 02 6a 32 3e 8e 73 e6 be e1 a0 cf be
       0.17088822 0.17423251 -0.45010036 -0.40552428
0003d0 45 28 95 3d 5d a8 c2 3e 0a 0a fc 3e fa af fc 3d
       0.072830714 0.38019076 0.4922641 0.12338252
0003e0 2d 93 dc be 34 00 73 be 00 4f 92 bc 36 24 ed be
       -0.43081036 -0.23730546 -0.017859936 -0.4631669
0003f0 b8 f4 d2 be da 17 95 be 85 31 a8 3d 3c 4a 8d 3e
       -0.4120233 -0.2911976 0.0821257 0.275957

model.decoder.2.bias f4 [60]
000000 77 b4 28 3d 08 e1 0f bd 31 e5 8a 3d f6 3c dd 3d
       0.04118773 -0.035126716 0.06781996 0.10802643
000010 c2 d6 65 3e a1 90 1c 3e 6c c3 02 bd 3c dd 23 3e
       0.22445205 0.15289547 -0.03192465 0.16002363
000020 81 78 db 3d 1e e6 6a 3d 01 93 a5 3d 2d 89 2f 3e
       0.10716344 0.057348363 0.080846794 0.17142172
000030 f9 24 5c 3e 65 75 e7 bd de 47 5c 3d d6 38 0b 3b
       0.21498479 -0.11301688 0.053779475 0.0021243594
000040 3e ce d4 bd 8c 25 b1 3c 6c 12 0d 3d f7 9e eb 3d
       -0.103909 0.021624349 0.034441397 0.115049295
000050 12 80 2a bd 09 45 c6 bd c1 0a 5e 3e a2 28 05 3e
       -0.041626044 -0.09681136 0.2168379 0.13003781
000060 b6 0c 50 bd 70 37 73 3e 82 d6 a7 3e b6 c3 62 bd
       -0.050793372 0.23751616 0.32780844 -0.055362426
000070 7b c3 a7 bd be b2 ed bc ed da 12 3d c8 de 97 3b
       -0.08191582 -0.029015895 0.035853315 0.004634712
000080 79 7b b9 3d 75 0b 05 be 70 be ee bd 93 57 1e 3e
       0.09056754 -0.12992652 -0.11657417 0.15463094
000090 63 2c 10 be 7e ca cc 3d 33 0f ea 3d c1 5f fb bc
       -0.14079432 0.0999956 0.1142868 -0.030685307
0000a0 86 96 85 3e 42 69 6c bd c6 c3 33 3e 82 3c 56 bd
       0.26091403 -0.05771757 0.1755515 -0.0523038
0000b0 f6 23 25 bc e2 aa 2d 3e 20 1b 57 bc 39 c6 6b 3e
       -0.010079375 0.16959718 -0.013129026 0.23024835
0000c0 3f 55 07 3e 37 6c 0f be a3 b6 ae bd 04 bd 08 3d
       0.13216113 -0.14006124 -0.08530929 0.033383384
0000d0 23 27 52 bd da 6d c8 3b c4 ec 2d ba be 1f b2 3d
       -0.051306855 0.006116611 -0.0006634707 0.086974606
0000e0 70 bf 90 3d 1d 7c b3 bd a5 cd 24 bd f4 3d 63 bc
       0.07067764 -0.08763907 -0.04023518 -0.013869751
