torch_model_storage_24_Jun_2025/model_Late_IA_v_Early_RS_Correct_Het VEH_Late_IA.pt (torch, 11915 bytes, 8 tensors)

model.encoder.0.weight f4 [9, 94]
0	0x3cbade3d	0.02281105
1	0x3e407798	0.18795621
2	0xbdc0e5d5	-0.09418837
3	0x3e189a2f	0.14902566
4	0x3ed5f913	0.4179159
5	0x3de4ef86	0.11178498
6	0x3c78fe16	0.015197298
7	0xbd6d0f09	-0.057875667
8	0xbe271a03	-0.16318516
9	0x3df81fc5	0.121154346
10	0x3e107742	0.14107993
11	0xbda70a34	-0.08156243
12	0x3d3a60f9	0.045502637
13	0xbd847f3c	-0.064695805
14	0xbdf52b1b	-0.11971112
15	0x3dea5a4d	0.11443005
16	0x3d7eba1d	0.06218921
17	0xbc59dea0	-0.013297707
18	0x3d62e26c	0.055391714
19	0x3e1e0629	0.15432037
20	0x3c9b6fab	0.018974146
21	0xbc1a45c1	-0.009416045
22	0x3e10a00a	0.1412355
23	0x3dd46a15	0.10371796
24	0x3e17d957	0.14829002
25	0x3e84e71d	0.25957575
26	0x3dda53f8	0.10660547
27	0xbe152dbf	-0.14568232
28	0x3b71b42e	0.0036881077
29	0x3de10311	0.10986913
30	0x3e12a721	0.14321567
31	0x3decbcec	0.115594715
32	0x3d546723	0.05185617
33	0x3deee238	0.116642416
34	0x3dd4abb4	0.10384312
35	0x3cf320ca	0.029678721
36	0x3b716030	0.0036831014
37	0x3d9151ba	0.07095666
38	0xbe68ddaf	-0.22740816
39	0x3da558d7	0.080735855
40	0x3d03fd16	0.032223783
41	0x3dbebb6e	0.09313093
42	0x3e4f5349	0.20246615
43	0x3ef9ab86	0.48763674
44	0x3e24ae06	0.1608201
45	0x3d749152	0.0597089
46	0xbe909a15	-0.28242555
47	0x3e1b36c2	0.15157607
48	0x3d981bc3	0.0742717
49	0x3ef016a1	0.46892264
50	0x3d76e309	0.06027511
51	0xbc4ca3ea	-0.012490252
52	0xbcc69203	-0.024239546
53	0x3dd23c15	0.10265366
54	0xbd14291d	-0.03617202
55	0x3e6235c3	0.22090821
56	0xbcc09ee4	-0.023513265
57	0x3da87769	0.08225901
58	0xbd176f4d	-0.03697138
59	0x3dbdbab0	0.092641234
60	0x3d863282	0.06552602
61	0xbd22cba6	-0.039744996
62	0x3e0441ac	0.12915677
63	0x3dd99ab4	0.106252104
64	0x3e1ee414	0.15516692
65	0xbd9205be	-0.071300015
66	0xbcefbb46	-0.029264104
67	0x3e00c1d3	0.12573938
68	0x3e07a6a1	0.13247158
69	0x3dca5a1f	0.098804705
70	0xbc01b252	-0.00791605
71	0x3e0db37f	0.13838004
72	0x3d03c549	0.032170568
73	0x3d8fb318	0.07016581
74	0x3cef9d57	0.02924983
75	0xbe052bf3	-0.13005047
76	0x3d0b62dd	0.03402983
77	0x3c8b22da	0.016984392
78	0x3ccefa69	0.02526589
79	0x3d47d9d7	0.048791733
80	0xbb8afdc5	-0.0042416775
81	0x3caad9fa	0.020855892
82	0x3c97a62a	0.01851185
83	0x3e6b6c29	0.22990479
84	0x3e12907f	0.14312933
85	0x3e192195	0.14954217
86	0x3dc82be2	0.09773995
87	0x3da6d1df	0.081454985
88	0x3cc6a20c	0.024247192
89	0x3de047b9	0.1095118
90	0x3d8e8fd1	0.069610246
91	0x3dad4a4e	0.08461438
92	0xbce404f9	-0.027834402
93	0x3bd3f35e	0.0064682206
94	0xbd6e1d26	-0.058133267
95	0x3d78d9ab	0.06075446
96	0x3d318dec	0.043348238
97	0x3d6354b4	0.0555007
98	0x3e627d83	0.22118191
99	0x3d982919	0.07429714
100	0x3dbe3f4c	0.09289417
101	0x3e1b366b	0.15157478
102	0xbdf68abd	-0.12038181
103	0xbe0d2034	-0.13781816
104	0x3c1aa1a3	0.009437951
105	0x3e6ab17f	0.22919272
106	0x3c0e6f13	0.008693474
107	0x3da0df21	0.078550585
108	0xbd7da8bb	-0.061928492
109	0x3d1d4991	0.038400237
110	0xbc66db8a	-0.014090428
111	0x3d144d96	0.036206804
112	0x3cd60f5e	0.026130375
113	0x3e01b595	0.12666924
114	0x3d154553	0.036443066
115	0x3d36ceaa	0.044630684
116	0xbdedf245	-0.11618475
117	0xbd03eaaa	-0.032206215
118	0x3d032357	0.032016125
119	0xbe1fac0e	-0.15592977
120	0x3d12f59c	0.035878763
121	0x3e0b18a0	0.13583612
122	0xbd6b30b4	-0.057419494
123	0x3e64fc33	0.22361831
124	0xbd4258e1	-0.047448043
125	0xbd84c0e9	-0.06482107
126	0x3d74f164	0.05980052
127	0x3d938a90	0.07204163
128	0x3dbf0f1f	0.09329056
129	0x3ce1a4af	0.027544348
130	0x3d0cc2a0	0.034365296
131	0xbc426a78	-0.011866204
132	0x3dd7a377	0.10529225
133	0x3db20dc6	0.08694033
134	0x3d697edb	0.057005744
135	0xbda15827	-0.07878142
136	0x3d3db4b1	0.0463149
137	0x3e71adcf	0.23601459
138	0x3cd28766	0.025699329
139	0xbd823284	-0.06357291
140	0x3e9692ea	0.29408962
141	0x3e0a647f	0.13514899
142	0x3d33cf03	0.043898594
143	0x3cd3378e	0.025783326
144	0x3d8be9d4	0.068317086
145	0xbdcb05a0	-0.09913182
146	0x3d53002e	0.051513843
147	0xbddc4459	-0.10755224
148	0x3d47cdee	0.048780374
149	0x3d4700c5	0.04858472
150	0xbd01729a	-0.031603433
151	0x3c90b7e1	0.017665805
152	0x3e0b7d03	0.13621907
153	0x3d6e4218	0.0581685
154	0xbe127f6a	-0.14306417
155	0x3ddebeaa	0.1087621
156	0x3d0c5cfa	0.034268357
157	0x3d98e8be	0.07466267
158	0xbcdc3e3d	-0.026885146
159	0xbdc146c6	-0.09437327
160	0xbd41932d	-0.0472595
161	0x3e6d8284	0.23194319
162	0x3cab46a1	0.020907702
163	0x3bc72033	0.0060768365
164	0x3d9e5b23	0.07732227
165	0x3de1387c	0.10997102
166	0xbd80dbc0	-0.06291914
167	0x3da0a372	0.07843675
168	0x3e071e61	0.13195182
169	0xbde1db71	-0.11028183
170	0xbe1af8ae	-0.15133926
171	0xbd055052	-0.032547303
172	0x3d23eb71	0.040019456
173	0x3d798eca	0.06092719
174	0x3b584047	0.0032997297
175	0x3e2ab462	0.16670373
176	0x3d920bbd	0.07131145
177	0x3e466a6c	0.19376534
178	0x3db0235c	0.08600494
179	0x3de1eac1	0.11031104
180	0x3cdb254b	0.026751181
181	0x3d019e48	0.03164509
182	0x3e015413	0.12629728
183	0x3e846a36	0.25862283
184	0x3dea59ac	0.11442885
185	0xbd0979b1	-0.03356332
186	0x3e62db97	0.2215408
187	0x3ba4c7b0	0.0050286874
188	0x3bacb491	0.0052705486
189	0xbb9f562e	-0.0048625683
190	0x3e0d7025	0.13812311
191	0xbdf66196	-0.12030332
192	0xbd9bd3e6	-0.07608776
193	0x3c2aa3f3	0.010415065
194	0x3db5e6b0	0.08881891
195	0x3d178c82	0.036999233
196	0xbcc2fc53	-0.023801958
197	0xbe26d11f	-0.16290711
198	0x3c7a01a0	0.0152591765
199	0x3e8c2a3c	0.27375972
200	0xbc9a27c9	-0.0188178
201	0xbc3a320d	-0.011364472
202	0x3d94e93e	0.0727105
203	0xbd7d3169	-0.0618147
204	0xbd3e6c29	-0.04648987
205	0x3c7c774a	0.0154093
206	0xbd5e1a62	-0.05422438
207	0x3de77542	0.11301662
208	0x3d07741c	0.033069715
209	0xbdd3faaf	-0.103505485
210	0xbd9cf6fa	-0.076642945
211	0xbe7056ee	-0.23470661
212	0xbd62a1c6	-0.05533006
213	0xbe70befa	-0.23510352
214	0x3c9031db	0.017601898
215	0x3d43dd1f	0.0478183
216	0xbd231bb1	-0.03982133
217	0xbb730ad9	-0.0037085323
218	0xbe8b0dbd	-0.2715892
219	0xbe478428	-0.19484007
220	0x3e1d84ca	0.15382686
221	0xbd1b7b39	-0.03795931
222	0x3c96a2b5	0.018388132
223	0xbd0adebc	-0.033903822
224	0x3d596f04	0.05308439
225	0x3d468be2	0.048473246
226	0x3e6d42c8	0.23170006
227	0xbcb31e4f	-0.021865038
228	0x3d85d32d	0.06534419
229	0xbe567f4b	-0.20946996
230	0x3b888d12	0.0041672075
231	0xbd5ff8a1	-0.05468047
232	0xbe39fbdf	-0.18162487
233	0xbb26fe86	-0.0025481298
234	0x3f07a380	0.52983856
235	0x3d82ec1a	0.06392689
236	0x3d963e49	0.07336099
237	0xbe37b3f3	-0.17939739
238	0xbdb7ece2	-0.08980729
239	0xbdf2231d	-0.118231036
240	0x3ddaca0c	0.10683069
241	0x3ca37161	0.019951524
242	0x3d59a3e3	0.05313481
243	0xbd6d5326	-0.057940625
244	0xbe4cde86	-0.20006761
245	0x3d246ed4	0.040144756
246	0xbd2ede13	-0.042692255
247	0x3ceb5f01	0.028731825
248	0xbe01d5a7	-0.12679158
249	0x3ca716e6	0.020396661
250	0xbcf1833a	-0.029481519
251	0x3d2cb664	0.04216613
252	0xbe08f7e2	-0.1337581
253	0xbd4f3f5e	-0.05059754
254	0xbdb41107	-0.0879231
255	0x3dead514	0.11466423

model.encoder.0.bias f4 [9]
0	0xb9cbc174	-0.0003886331
1	0xbdf36707	-0.11884885
2	0x3ced2ff5	0.028953532
3	0x3b98640c	0.0046505984
4	0x3ce5bf8b	0.028045436
5	0x3e1feb45	0.15617092
6	0x3dfded87	0.1239882
7	0x3d7c8bf3	0.061656903
8	0xbb216c86	-0.0024631335

model.encoder.3.weight f4 [2, 9]
0	0xbe02f8f5	-0.12790282
1	0x3e9e302c	0.30896127
2	0x3ead5f35	0.338617
3	0xbe699f76	-0.22814736
4	0xbd977d1e	-0.07396911
5	0xbec3b073	-0.38220558
6	0x3e4f9119	0.20270194
7	0x3dc4657f	0.09589671
8	0x3cd37cef	0.025816409
9	0xbead3fa6	-0.33837622
10	0xbe187da8	-0.14891684
11	0x3e341112	0.17584637
12	0xbd89211d	-0.06695769
13	0x3e02de03	0.12780003
14	0x3e5d5bdc	0.21617073
15	0x3e60592a	0.21909013
16	0x3e22f8c3	0.15915208
17	0x3da7dc6f	0.08196341

model.encoder.3.bias f4 [2]
0	0xbeb56485	-0.35428253
1	0x3e8bd014	0.2730719

model.decoder.0.weight f4 [9, 2]
0	0x3f1377dd	0.5760477
1	0xbf313fc3	-0.6923792
2	0xbd7995dc	-0.060933933
3	0x3e79d698	0.24398267
4	0xbca9e3ec	-0.020738564
5	0x3f21dc17	0.63226455
6	0x3e8a7791	0.27044347
7	0xbe90b5ac	-0.28263605
8	0xbe9fa600	-0.31181335
9	0x3e77b690	0.24190736
10	0xbef2064d	-0.47270432
11	0xbf09ed1d	-0.5387743
12	0xbf4ed15f	-0.80788225
13	0x3f2bed2f	0.6715879
14	0x3ea8820b	0.32911715
15	0x3e9a809c	0.30176246
16	0x3da76c81	0.08174992
17	0xbd3a4513	-0.04547603

model.decoder.0.bias f4 [9]
0	0x3ebeefec	0.3729242
1	0x3be61d6d	0.007022551
2	0xbe9b2ebf	-0.30309102
3	0x3d4e689e	0.05039274
4	0x3e706fa2	0.23480085
5	0xbe801bde	-0.2502126
6	0xbed5bfe6	-0.4174797
7	0xbe629fee	-0.22131321
8	0x3ec24482	0.37942892

model.decoder.2.weight f4 [94, 9]
0	0xbe442588	-0.19154942
1	0x3d2f7f89	0.042846236
2	0xbe1fa7cb	-0.15591352
3	0x3e538e16	0.2065967
4	0xbc107fd3	-0.008819538
5	0x3d2c113b	0.04200862
6	0xbe688b32	-0.22709349
7	0x3c2602f1	0.010132537
8	0xbe772132	-0.24133757
9	0x3e101e00	0.14073944
10	0x3dcbbf5f	0.099486105
11	0x3e9173a6	0.28408545
12	0x3e57e92c	0.21085042
13	0xbec0e9b0	-0.3767829
14	0x3ebcbc67	0.3686249
15	0x3d574143	0.052552473
16	0xbe1dbb7a	-0.15403548
17	0x3e758e18	0.23979986
18	0x3e112095	0.14172585
19	0x3e85820e	0.26075786
20	0x3ea6e706	0.32598132
21	0xbdcf4f0e	-0.101225
22	0xbd1dc707	-0.038519885
23	0xbe029e77	-0.12755762
24	0xbe56f658	-0.2099241
25	0x3e4613c6	0.1934348
26	0x3d5d8e6a	0.054090895
27	0x3cb0c666	0.021578979
28	0xbede493e	-0.43415254
29	0x3e7a9664	0.24471432
30	0x3ee389fa	0.44441205
31	0x3dfc630b	0.123235784
32	0x3e5c052e	0.21486351
33	0xbe1e18d1	-0.15439154
34	0xbea144ae	-0.3149771
35	0x3e6923d0	0.22767568
36	0x3ed5d500	0.4176407
37	0xbf14b594	-0.58089566
38	0xbea983bb	-0.33108315
39	0x3f2aa611	0.6665965
40	0xbe7f8ea8	-0.24956763
41	0x3eb2844e	0.34866565
42	0x3dcfcead	0.10146842
43	0xbc8babc7	-0.017049683
44	0xbd9259e2	-0.0714605
45	0x3d5d2fae	0.05400055
46	0xbe4dfe71	-0.20116593
47	0xbe6f6953	-0.23380022
48	0xbdc9dba3	-0.098563455
49	0x3e0f1acc	0.13975066
50	0x3d84369a	0.06455727
51	0xbeb94b54	-0.36190283
52	0xbe027066	-0.12738189
53	0x3ea0f7ce	0.3143906
54	0x3d2473f8	0.04014966
55	0xbe346005	-0.17614754
56	0x3ee6cf9e	0.45080274
57	0x3f000d39	0.50020176
58	0x3d9c61d1	0.076358445
59	0xbd709445	-0.05873515
60	0xbe23a233	-0.15979843
61	0xbdd1640e	-0.10224162
62	0x3dd86842	0.105667606
63	0x3e20789e	0.15671012
64	0x3e68b1c8	0.22724068
65	0xbc4267d8	-0.011865579
66	0x3cfa3356	0.030542057
67	0x3d4cbeed	0.04998677
68	0xbe43b58d	-0.19112225
69	0xbd9d70de	-0.07687543
70	0xbc361dba	-0.011115486
71	0xbe51292d	-0.20425864
72	0xbdbb11c8	-0.09134251
73	0x3ec298de	0.38007253
74	0xbd8e5b2e	-0.06950985
75	0xbf1099c9	-0.5648466
76	0x3e486fef	0.1957395
77	0xbedc87e1	-0.43072417
78	0x3dc84457	0.0977866
79	0xbef623c0	-0.4807415
80	0x3f0e984b	0.5570113
81	0xbdf73755	-0.120711006
82	0x3dbca4a0	0.09211087
83	0xbead46b0	-0.33842993
84	0x3d7f23ce	0.062290005
85	0x3eb503dd	0.3535451
86	0x3ec07651	0.37590268
87	0x3d3a9fe2	0.045562632
88	0x3dbc58d4	0.0919663
89	0x3e00ab03	0.12565236
90	0x3d94073f	0.072279446
91	0x3e61ba9a	0.22043839
92	0x3e841a5d	0.25801364
93	0xbc4d5fc8	-0.012535043
94	0xbd99290c	-0.07478532
95	0xbc6af4db	-0.014340605
96	0xbd18974c	-0.037253663
97	0xbeb3e620	-0.3513651
98	0x3eaeb9fa	0.34126264
99	0x3e842ffe	0.25817865
100	0x3e285a44	0.16440684
101	0xbd9ad493	-0.075600766
102	0x3e36ea77	0.17862879
103	0xbecd9cc3	-0.40158662
104	0xbec19a0a	-0.37812835
105	0x3d84880f	0.064712636
106	0x3e96cd91	0.2945371
107	0xbe4ef9e1	-0.20212509
108	0xbd5c98b8	-0.05385658
109	0xbce5c258	-0.028046772
110	0xbd942dfa	-0.07235332
111	0x3dd85677	0.10563367
112	0x3e85383e	0.26019472
113	0x3e4c3284	0.19941145
114	0xbe947445	-0.28994957
115	0x3dbfed63	0.0937145
116	0x3eba8f5a	0.36437494
117	0x3e4c8127	0.19971143
118	0x3e83eacc	0.25765073
119	0x3c5f9265	0.013645743
120	0x3e324663	0.17409663
121	0x3eec4f3b	0.46154198
122	0xbe566aed	-0.20939226
123	0x3d43050c	0.047612235
124	0xbe536eaa	-0.20647684
125	0x3ee688d2	0.4502626
126	0xbc7ceb43	-0.01543695
127	0x3e167fd2	0.14697197
128	0xbeb8e0eb	-0.361091
129	0xbea4ddfb	-0.32200608
130	0x3f12f12f	0.57399267
131	0xbe9e1083	-0.30871972
132	0xbe136ac6	-0.143962
133	0x3d440377	0.047854867
134	0x3e94de94	0.29076064
135	0xbe494a1f	-0.19657181
136	0xbea47186	-0.32117862
137	0xbe1b906d	-0.15191813
138	0x3e580dea	0.21099058
139	0xbe34f719	-0.17672385
140	0x3de34e63	0.110989355
141	0xbe5556de	-0.20833918
142	0xbb7680b8	-0.0037613343
143	0x3e0876ac	0.1332652
144	0xbe087572	-0.13326052
145	0x3e24f12d	0.16107626
146	0xbeded412	-0.43521172
147	0xbd4f761f	-0.05064976
148	0xbdea9660	-0.11454463
149	0x3bc2c57b	0.0059439517
150	0xbe1a21b4	-0.15051919
151	0xbe123b07	-0.1428033
152	0x3e89a496	0.26883382
153	0x3d1b6bc6	0.037944578
154	0xbe978f6f	-0.2960162
155	0x3e9f9278	0.31166434
156	0xbe2b5825	-0.16732843
157	0xbd1839e4	-0.037164584
158	0xbd27992c	-0.04091756
159	0xbe8ebc4e	-0.2787804
160	0xbe381b7a	-0.17979231
161	0x3e1ca698	0.15297925
162	0x3e3065f9	0.172264
163	0xbd2128f9	-0.039345715
164	0xbeb5c73f	-0.35503575
165	0x3da6e14a	0.08148439
166	0x3e145511	0.14485575
167	0xbe49a477	-0.19691645
168	0x3e7899f5	0.2427748
169	0xbe7cfaa7	-0.24704991
170	0x3dd1e9af	0.1024965
171	0x3e900ced	0.28134862
172	0x3e69480d	0.22781391
173	0xbe405b88	-0.18784916
174	0xbe127313	-0.1430171
175	0x3e27a321	0.16370822
176	0xbd981bee	-0.07427202
177	0x3c1c32cb	0.009533594
178	0xbe5e2271	-0.21692826
179	0x3e56f91b	0.20993464
180	0x3e136edd	0.1439776
181	0x3daf3ac7	0.08556133
182	0xbe34e219	-0.17664374
183	0xbda468da	-0.08027811
184	0x3e8866d1	0.26640943
185	0xbd968a4c	-0.07350597
186	0xbdfc557d	-0.12320993
187	0xbd88f9ca	-0.066882685
188	0x3e5a236c	0.21302575
189	0x3e4665a1	0.19374706
190	0xbdd01841	-0.10160876
191	0x3ea65680	0.3248787
192	0x3d8bb8c5	0.06822351
193	0xbe8aec48	-0.27133393
194	0xbd21402d	-0.039367843
195	0x3e77cc8e	0.24199125
196	0xbe41bf42	-0.18920615
197	0x3d792ca9	0.060833607
198	0xbe51e8b1	-0.20498921
199	0x3e08ec3d	0.13371368
200	0xbdbdf3a8	-0.09274989
201	0x3ea81c85	0.3283426
202	0x3e75e80d	0.24014302
203	0x3e6847cc	0.22683638
204	0xbec6515b	-0.38733944
205	0xbe531cee	-0.20616505
206	0xbda38923	-0.07985141
207	0x3d96f0d7	0.07370155
208	0x3d990b9d	0.07472918
209	0xbe8c59b0	-0.27412176
210	0x3e722dcf	0.23650287
211	0x3d5fa1e9	0.05459777
212	0x3e53938b	0.20661752
213	0x3f13fd5a	0.5780846
214	0xbe4bc166	-0.19897994
215	0x3d5d66b9	0.054053042
216	0x3e073130	0.13202357
217	0xbe8c1d1f	-0.27365968
218	0x3d348b55	0.04407819
219	0xbe18faf7	-0.14939485
220	0x3e182315	0.14857133
221	0x3e0d10f5	0.13776
222	0xbe6656d4	-0.2249406
223	0xbe582f83	-0.21111874
224	0x3e3e62fd	0.18592449
225	0x3db6f37e	0.08933161
226	0xbea1f14d	-0.3162941
227	0x3de3f2ca	0.11130293
228	0xbe05c519	-0.13063468
229	0x3e0bebb3	0.13664131
230	0x3f13be1b	0.5771195
231	0x3e4d4902	0.20047382
232	0xbe71c2de	-0.23609492
233	0xbe7b62d4	-0.24549419
234	0x3e1d9380	0.15388298
235	0x3e70a8b0	0.23501849
236	0xbd41ed0d	-0.04734521
237	0xbea7b07b	-0.3275183
238	0xbdb19266	-0.086705014
239	0x3db394cf	0.08768617
240	0xbd9968bf	-0.07490682
241	0x3d326ced	0.04356091
242	0x3e82d575	0.2555348
243	0x3e07e629	0.13271393
244	0x3d42ad5a	0.047528602
245	0x3e8e3b77	0.27779743
246	0x3d046103	0.03231908
247	0x3eb89f60	0.36059093
248	0xbe07d111	-0.13263346
249	0xbe34eef3	-0.17669277
250	0xbee5592b	-0.44794592
251	0x3cdf4c84	0.027258165
252	0x3bd9f98b	0.0066520623
253	0x3ded4acd	0.11586533
254	0xbddb97c6	-0.10722308
255	0xbd610644	-0.054937616

model.decoder.2.bias f4 [94]
0	0x3d9b421a	0.07580967
1	0x3dd49a3b	0.103809796
2	0x3e3f69e8	0.18692744
3	0xbcfd80e4	-0.030945249
4	0x3e0ffbfb	0.14060967
5	0xbd1fae76	-0.03898474
6	0x3dfd3174	0.12362948
7	0x3de99911	0.11406148
8	0xbcd8e209	-0.02647497
9	0x3dbbb176	0.09164707
10	0xbdb2054f	-0.08692419
11	0x3e6db1b3	0.23212318
12	0xbdc1b3fd	-0.09458158
13	0xbe0e2a74	-0.13883382
14	0xbcb616e2	-0.022227708
15	0x3e6a0938	0.22855079
16	0xbd678de5	-0.056531806
17	0x3d1a27e8	0.037635714
18	0xbdd8116c	-0.10550198
19	0xbe314909	-0.17313017
20	0xbe19d62a	-0.15023103
21	0x3ddd770a	0.108137205
22	0x3dccba7e	0.09996508
23	0x3d442882	0.047890194
24	0xbcf875c9	-0.030329602
25	0x3e339719	0.17538108
26	0xbd2bee94	-0.041975573
27	0xbe21af5b	-0.15789549
28	0x3d3f51ce	0.046708874
29	0x3db8032c	0.0898498
30	0x3e72e82d	0.2372138
31	0x3c266482	0.010155799
32	0x3e59c58c	0.21266764
33	0x3d4283fe	0.04748916
34	0xbba17189	-0.0049268645
35	0x3d2ba00b	0.041900676
36	0x3de4560b	0.11149224
37	0x3d7f6f58	0.062362045
38	0xbd7e7598	-0.062123865
39	0x3e07acd9	0.1324953
40	0x3e0165f9	0.12636556
41	0x3d99c0ef	0.07507502
42	0x3ddd1eb8	0.10796875
43	0x3e3ab529	0.1823317
44	0x3e046521	0.12929203
45	0x3e94d472	0.29068333
46	0x3ed627e8	0.4182732
47	0xbc9cfad6	-0.019162577
48	0x3d7350bb	0.059403162
49	0x3dfdfb50	0.1240145
50	0x3d8491ac	0.06473097
51	0x3db11315	0.08646218
52	0x3e371dd0	0.17882466
53	0x3e0c517f	0.13702963
54	0x3d82baee	0.0638331
55	0x3d150788	0.036384135
56	0x3dfb93b9	0.12284035
57	0x3cf83d9a	0.030302811
58	0xbdbf6f4e	-0.093474016
59	0x3cf2ea80	0.029652834
60	0x3bea42e2	0.0071490863
61	0x3d2c3ac5	0.042048234
62	0xbdf20987	-0.118182234
63	0x3d8a87cc	0.067641824
64	0x3e3b580a	0.18295303
65	0xbd4e842b	-0.050419014
66	0x3e26b4fa	0.16279975
67	0x3e4e2c3b	0.2013406
68	0xbdf44498	-0.11927146
69	0xbd3c58a7	-0.045982983
70	0x3c4dd23f	0.012562334
71	0x3e021a42	0.12705329
72	0x3df32e1e	0.118740305
73	0xbdb26c99	-0.087121196
74	0xbdc8903d	-0.09793136
75	0x3da67787	0.08128267
76	0x3e571adc	0.2100634
77	0x3d167a7c	0.036737904
78	0x3d375a68	0.044763952
79	0xbdf8d158	-0.12149304
80	0xbe255e68	-0.16149294
81	0xbd983692	-0.074322835
82	0x3e3d4fd3	0.18487482
83	0x3d8a174c	0.06742725
84	0x3dbc9290	0.09207642
85	0x3cfc931b	0.030831864
86	0x3e281e51	0.16417815
87	0x3e2c740d	0.16841145
88	0xbdb2b138	-0.08725208
89	0x3c65b102	0.014019253
90	0x3d8d72f3	0.069066904
91	0x3cf54412	0.029939685
92	0x3b15eb84	0.0022875974
93	0xbc766d17	-0.0150406575
