torch_model_storage_24_Jun_2025/model_Early_IA_Error_v_Early_RS_Error_Het postCLNZ_Early_IA_Error.pt (torch, 14137 bytes, 8 tensors)

model.encoder.0.weight f4 [9, 114]
00000000: f558 91bb ccaa 20be 2128 c4bd cf96 7ebd
00000010: aed4 c1bd 94ea fabc cfa3 443c 5b20 e0bc
00000020: 6dd6 08be b5de 84bd 13b2 c9bd 81e6 80bc
00000030: 3450 20bd 94a2 fabd 1026 49bd 59b3 08be
00000040: 8885 37bd d7ab 2c3d 4070 b9bd 6a41 01be
00000050: b528 86bc d43d 05bd 9802 7b3d 5298 513d
00000060: 3783 3e3c c337 26be b664 d2bd 171d 46bd
00000070: 3db9 943d fe81 20be 5247 acbd 82bb c0bd
00000080: b7f9 14bd 6cb5 a9bb 49a7 d4bc f7c7 dcbc
00000090: ac99 28bd 9dcb bcbd b2f4 debc 3c47 9d3c
000000a0: 0178 71bd 7fc2 04be 01f1 e7bc 444d fbbd
000000b0: ad39 213e 4022 bebd 0ddd 6b3c fab8 41bd
000000c0: 591d 2abc b043 6c3d e563 5d3c 1cf4 80bd
000000d0: e32b 7bbd b00a a9bd 7ace f83d 5ec4 04bc
000000e0: 2a24 49bd 3426 82bc e91a 99bd ccd0 0fbe
000000f0: 5d0e 323d e524 08bd 7a2c 9bbd 46f1 333c
00000100: 0441 22bd 77ee 463d f938 dbbd dc54 d2bd
00000110: b397 22be 2b08 94bd 1355 dbbd 9c5e 9aba
00000120: 9908 9dbb 1105 733d 0461 17be 60ec 04bd
00000130: d7ac 8fbd 5fe3 76bb 7faf e9bc 5ec1 02bb
00000140: e402 30bc 74ff 09bd d88d 8cbd 6c1e fbbb
00000150: 25d6 06bc 5d28 4f3e 6d25 e8bb 1482 0bbe
00000160: 8dfb 91bd 5a7c f3bd 65a7 c83d 08ca a4bd
00000170: 67b5 8ebd e69b 14be 8596 a93c 3b35 26be
00000180: 6ef1 cb3d 882b 48be a507 053d 905f 83bc
00000190: f93a 6fbd 1d1e b5bc 9211 fc3c 5ace f83c
000001a0: 114e bdbd 4788 9cbd 117a 9ebc 7cb3 a0bc
000001b0: e533 c1bd aef5 abbd a46d c5bd 93a9 08bc
000001c0: 3084 94bd 370d 27be 2f55 e43d 4e8d 5d3e
000001d0: 3667 50bc f22b aa3c 365f 0e3e 58a1 89bd
000001e0: 1013 6eb9 056d cbbd 9e4f e0bb 0a48 193d
000001f0: 4b2b 62bd 5fe1 693c 0e6b b23b cc5d bfbc
00000200: 8db5 1c3d e651 b23c f71f 36bd 4c9e f43c
00000210: 0993 0b3e b3f6 e1bd 2cc5 883d 65ad cfbc
00000220: 9a35 cbbd 90d1 f1bd c51f 1a3a 1fc0 e6bb
00000230: dcae 813c 80da 3c3d ce47 98bd e978 ff3c
00000240: 0a62 b03c 49aa cabd 2c9e 93bc 86a4 873b
00000250: 2936 0bbe 41a5 9f3d bf84 0c3e 5ba1 e43b
00000260: 96ea b6bc 7d60 243d 47c6 bbbc 773d 163e
00000270: eedd 0ebd 0b6a b5bd 2733 5ebd aa79 e43b
00000280: 1477 08be 1689 db3d 99ed fe39 3238 5abd
00000290: 6c3b a23b e8c5 9e3d 714e 263d 0f56 153d
000002a0: f92f 99bd c671 ee3b aa3d ac3c c3e3 4abd
000002b0: 70d1 8ebc c9b1 26bd 89bb 0cbe aad9 b03c
000002c0: c430 003d 72e4 babd f58b a33c 8804 40bc
000002d0: c247 cebd a844 b63d 26ac 493e dab8 183e
000002e0: 52f3 7cbd b843 98bd aad0 edbc 1a8d b5bd
000002f0: 19f1 673c a1a9 8e3d cdc8 543e 9149 433d
00000300: 60a2 9dbd 6856 f6bd 8880 6dbd bdaa c3bc
00000310: fa32 d23d 216f 043d dff7 8fbc 01fd 96bd
00000320: e23c 06be 3364 8bbc 6c38 223e 14af 3ebc
00000330: 2901 90bd 764c 29bc e705 8e3d 545e e3b9
00000340: 1553 e53b 5064 f93c e27b cbbd 683c 843c
00000350: 84ad 9cbd 2a36 e23b f1b5 dc3c 905f c33d
00000360: 0ce6 9f3d aff1 09be 527c 82bb 21b3 b8bd
00000370: a398 19bd 993c 423d 584a 26bd 3a77 5dbc
00000380: 296d 69bd 66d9 1fbd f1f3 27bb 4bd1 8a3c
00000390: bf3f 86bb e17c 1f3e 6a6c 32bc 93db b93d
000003a0: 6eca 0b3d e7e8 923c 7f6a 723d 3c2d 53bd
000003b0: 327a 333b d248 71bc 6e6d bc3b 65d8 2d3d
000003c0: 91a3 16be 297c 52bd eaf6 8fbd d23d 96bd
000003d0: 7738 00be 82eb 34bd 203d 4bbd d884 00be
000003e0: 5ead 58bd b071 7a3d 7640 5bbd cf8c 42bd
000003f0: 6846 72bd 00fd 81bd 7431 23bd 074b 323d
-0.0044356533 -0.15690154 -0.095779665 -0.06215554 -0.094643936 -0.030629434 0.012001946 -0.027359178
-0.13363047 -0.064877905 -0.09848418 -0.015734913 -0.039138988 -0.122380406 -0.049108565 -0.13349666
-0.04480508 0.042156067 -0.09054613 -0.1262261 -0.016376833 -0.032529667 0.06128177 0.051170655
0.011627964 -0.16232209 -0.10273115 -0.048367586 0.07261894 -0.15674588 -0.08412041 -0.09410764
-0.03637096 -0.005179098 -0.025958674 -0.02695082 -0.041162178 -0.09218524 -0.02721629 0.019199006
-0.058952335 -0.1296482 -0.028313162 -0.122705966 0.15744658 -0.092838764 0.014395964 -0.047295548
-0.010382974 0.05768174 0.013512586 -0.0629656 -0.06132115 -0.082539916 0.12148757 -0.008103458
-0.049106754 -0.015887357 -0.07475836 -0.14044493 0.04347073 -0.03323831 -0.075768426 0.010982817
-0.039612785 0.04856726 -0.10704226 -0.10270092 -0.15878181 -0.072281204 -0.10709586 -0.0011777463
-0.0047922847 0.059331004 -0.14783102 -0.032451987 -0.070153885 -0.0037672145 -0.028526066 -0.0019951682
-0.010742877 -0.033690885 -0.06862992 -0.0076635387 -0.008229767 0.20230241 -0.0070845396 -0.1362384
-0.07128058 -0.118889526 0.09797553 -0.08046347 -0.069681935 -0.14512596 0.020701656 -0.16231243
0.099581584 -0.19547856 0.032477994 -0.016036779 -0.05840585 -0.022109086 0.030770097 0.030371834
-0.092434056 -0.0764318 -0.019345315 -0.019616835 -0.09433726 -0.08396469 -0.09640053 -0.008341211
-0.07251775 -0.16313635 0.1114906 0.21635935 -0.01271992 0.020772908 0.13903508 -0.06720227
-0.0002270455 -0.09932903 -0.0068454286 0.037422217 -0.05521707 0.014274924 0.005444891 -0.023360156
0.038259078 0.021767568 -0.044464078 0.029860638 0.13630308 -0.11033382 0.066782326 -0.025351236
-0.09922333 -0.11807549 0.0005879368 -0.0070419456 0.01583045 0.046106815 -0.07435571 0.031185584
0.021531124 -0.098957606 -0.018019758 0.004139486 -0.13594879 0.077951916 0.13722514 0.006977243
-0.022328656 0.04013108 -0.022921694 0.14671884 -0.034879617 -0.08858117 -0.054248 0.0069725113
-0.13326675 0.107195064 0.0004862368 -0.05327625 0.0049509313 0.07752591 0.04060215 0.036459025
-0.07479853 0.0072767464 0.021025497 -0.049533617 -0.017433852 -0.040696893 -0.13743414 0.021588165
0.031296507 -0.09125604 0.019964198 -0.01171983 -0.100722805 0.08899814 0.19694576 0.14914265
-0.061755486 -0.07434791 -0.029030163 -0.088648036 0.014156603 0.06965948 0.20779724 0.04767758
-0.07696986 -0.120281994 -0.057983905 -0.023885125 0.10263629 0.032332543 -0.017574249 -0.073724754
-0.13109162 -0.017015552 0.15841836 -0.011638422 -0.07031471 -0.010333171 0.069347195 -0.00043367094
0.0069984295 0.03044334 -0.09935738 0.016142085 -0.07650283 0.0069034295 0.026942225 0.095397115
0.0780755 -0.13471101 -0.0039821053 -0.09018541 -0.03749908 0.04742107 -0.040598243 -0.013517195
-0.05698887 -0.039025687 -0.0025627578 0.016945502 -0.0040969546 0.15574981 -0.010890106 0.090750836
0.0341286 0.017933322 0.059183594 -0.05155681 0.0027386067 -0.014726834 0.0057503497 0.042442698
-0.14710833 -0.05138794 -0.07029517 -0.0733601 -0.1252154 -0.04416991 -0.04961884 -0.12550676
-0.05289971 0.061143577 -0.05352827 -0.047497567 -0.059149176 -0.06347084 -0.039842084 0.043528583

model.encoder.0.bias f4 [9]
00000000: d3f1 e1bd cff2 573d c55a 033e d6a3 34be
00000010: aa03 37be 06df 22be 9c5d de3d 88c0 f9bd
00000020: bf6b 02be
-0.110324524 0.052721795 0.12827595 -0.17640623 -0.17872491 -0.15905389 0.10857698 -0.121949255
-0.12736414

model.encoder.3.weight f4 [2, 9]
00000000: 7337 68be 5fcc ee3d cf4c 483e 2434 f5bd
00000010: dc89 15bc 2fa1 77be 2500 6e3e 8dea 84be
00000020: 7d8a 1abe 81dc aabe b499 dbbc 9ccd 5bbe
00000030: 0214 593d 3a6c e2bb 1e20 993d 87b6 343e
00000040: 02a6 513e 6179 ddbd
-0.22677402 0.116600744 0.1956055 -0.11972836 -0.0091271065 -0.2418258 0.23242243 -0.25960198
-0.15091892 -0.33371356 -0.02680669 -0.21465153 0.052997597 -0.0069098743 0.07476829 0.17647754
0.20473483 -0.10814167

model.encoder.3.bias f4 [2]
00000000: ea17 093e 00ff 47be
0.13388029 -0.19530869

model.decoder.0.weight f4 [9, 2]
00000000: 5e53 263f 07b2 05bf ccf2 a6be 77ee acbe
00000010: a9b2 fc3e 1d21 99be 3f77 79be 20dc 2c3e
00000020: b0b6 023f fd5a 0e3e 36bd 153e 6c63 1a3f
00000030: 070e e4be 40c7 27bd 57ce d03e 6fab 11be
00000040: b2d2 c93e b108 ebbd
0.6497096 -0.52224773 -0.32607114 -0.33775684 0.49355057 -0.29908076 -0.24361895 0.16880846
0.5106001 0.13901897 0.1462296 0.60307956 -0.44541952 -0.040961504 0.40782425 -0.14225553
0.3941856 -0.11476267

model.decoder.0.bias f4 [9]
00000000: 6c6d f4be 0f11 243e 12e0 f5be fe71 8c3e
00000010: 2d53 adbd 290c 52be 51ae 4d3e 4aee a9be
00000020: 2862 003e
-0.47739732 0.16022132 -0.48022515 0.2743072 -0.0846313 -0.20512451 0.20086028 -0.33189613
0.12537444

model.decoder.2.weight f4 [114, 9]
00000000: 3b4b 3e3e e330 9fbe a58a 44bd 07be ebbd
00000010: 5283 a23e 9eac 4b3e 3e4d bb3c 6425 d4bd
00000020: 1f1d 96be 3fc6 e23e 6015 debe 6eda e83d
00000030: f1b1 833e d302 173f 9e87 7cbe 1596 b9be
00000040: 8858 993e 0ec8 9d3c 9df9 c03c dace a3be
00000050: 55d4 6dbd 2642 1a3e d60e b0be ca31 683e
00000060: c7d3 6bbe 9cbb e3bc c1bc adbe 24d0 b13e
00000070: 166c 8ebe c255 3bbe b14a 883d 1de9 cb3e
00000080: 6532 c73b ef02 313d b2b4 20bd 242b cd3e
00000090: f1e5 2fbd c5d3 40bd 9cd3 6f3e 667a 373e
000000a0: f00a 14be a1eb 833e 98e4 bdbe aebd 673e
000000b0: 7b9e 62be 6cf7 cd3c 34da b0be 6d98 08be
000000c0: 8f70 4f3d a270 d73d 22eb 32be 0cd8 c53d
000000d0: 0d07 6dbd 86ee 08be 9492 29bb 2a33 aabe
000000e0: 4c0c b63e 3c28 a9bd d1b8 403e 49b1 5c3d
000000f0: 7380 143e 86ee 40be 9366 c9be e406 133e
00000100: aa56 adbe 5fdf 623e 489b 273e fbc7 80bd
00000110: 987f b93d ad5f 843d 832b 2cbe 2626 a5be
00000120: 827f 06be 49e2 71be 096c 06bd b9e2 9d3d
00000130: c2a0 663e 0626 e2bd a1ff e8bd 0c93 2dbd
00000140: 98f3 ecbc ea0d 113e dabc c1be fa87 8b3e
00000150: c269 47be 606c 713e be0b 723e 8baf 9cbe
00000160: 5be4 91be 38f2 05bf 60e3 af3d 52ef 913e
00000170: 32b7 afbd b7f1 1d3e 9fd3 8dbd 81e6 b13e
00000180: 9d09 83be 7736 d03d 8978 59be b337 2ebe
00000190: e476 523c 8290 a23e 6564 d1bd 7d80 14be
000001a0: fad4 a9bb b7a0 16be 3d3a 58be b310 08bd
000001b0: caaf 05be 55d8 e43d 088b 943e d2a1 823e
000001c0: dc4a 97bc e276 ac3e 973d 4dbe c2e5 3ebe
000001d0: 5ad0 f1be 75ec 623d 05f0 35bf 8829 a0be
000001e0: fd74 ecbd ef26 863e a9af 163f 601b af3d
000001f0: 1ca8 bebd fc31 24bf 574f 82be 7d55 9ebe
00000200: 23ce 8b3e a7ad 583e 26e5 2ebe 31d0 2c3e
00000210: 1753 123e 5eb2 423e b6aa c5be 1952 c7bd
00000220: eb1d 8ebe c3ea 343e f7a7 f53d 0acc cb3e
00000230: 9811 aa3d 960f 9c3d cece 733d 23eb bfbe
00000240: e30f 05be 2748 8b3e 702a 123e 1cf3 463e
00000250: c157 443e 5dd8 553e be6c e03d c1e6 01be
00000260: 556c 933e aa31 e4be cb16 9b3e e861 cebd
00000270: ea8f 213e a7f2 11be 8d41 1b3e c915 19be
00000280: 82fe 9abe a0d8 bd3e 9a80 02be 5c99 81bd
00000290: 74be 793c 6781 8a3e 9b44 7c3d e9c4 b93c
000002a0: 22c5 68be 1fb5 23be 0396 0d3e 5a29 2ebc
000002b0: cb77 013e 2a69 4ebe 3444 4c3e 1c32 0b3e
000002c0: 2493 003e 95dd 273e 40ed 77bd 754b 34be
000002d0: e565 ccbe a71b 1e3e 52ca 8c3d f01f 703e
000002e0: 9869 273d ff87 8a3d e81c 883d 688e e03d
000002f0: c275 d43e 9960 313e b8f0 9bbe 651e 8e3d
00000300: 91af e53d be4b 9c3c e64f 52bd f178 eabd
00000310: c8cf 363e 1ca8 e3bd 241e 723e c05b 703e
00000320: d6f7 74be 84bd 5a3e 5785 af3e 8460 ec3b
00000330: bcd9 943d 3a57 6abe 67ae 24be 9355 bcbe
00000340: ac17 bf3e 3296 79be 866b 2cbb 4dc6 16be
00000350: 2355 3dbd 3eff e93e 7ece efbd 7c63 203e
00000360: 2ef7 39be 2a6c 573d bf38 4ebe 5b71 9c3c
00000370: cae3 293e 302d 8f3d ae4e a93d 3c93 9d3e
00000380: 5b42 87be 45b5 96be 8fc9 d6bd c4b7 0a3d
00000390: d41d 27be d4a8 923e 5d05 373f 3fea 983d
000003a0: 2c0f 403e 562d 923c 4a81 4a3e aa8b 25be
000003b0: 52aa d6bc 9112 40bc 8659 b53d f98e 593d
000003c0: b038 0d3e 42f2 f03d 048a 8dbe 1e6c d53d
000003d0: 0844 4e3d 474f 483e 5827 293e dda9 46bc
000003e0: 397b 8f3e e8f5 2cbd 7983 843e ebaa 88be
000003f0: b816 a93d 3dc3 433e 9e57 223e 0a51 923e
0.18583386 -0.31091985 -0.047983784 -0.11510854 0.31740814 0.19890067 0.02286398 -0.10358694
-0.29319093 0.44291875 -0.43375683 0.11369787 0.25721696 0.58988684 -0.24661109 -0.36247316
0.29950356 0.019260433 0.023556525 -0.31993753 -0.058063824 0.15064296 -0.3438632 0.22675243
-0.23030005 -0.02779942 -0.3393307 0.3472911 -0.27816838 -0.18294433 0.06654871 0.3982629
0.0060790055 0.04321569 -0.039234824 0.40071976 -0.0429439 -0.04707696 0.23420566 0.17917785
-0.14457297 0.25765708 -0.37088466 0.22630951 -0.22130768 0.025142394 -0.34541476 -0.13339396
0.050644454 0.1051953 -0.17472509 0.09660348 -0.057868052 -0.1337224 -0.002587472 -0.3324216
0.35556257 -0.08259627 0.18820502 0.05388001 0.14502124 -0.1884099 -0.3933607 0.14358097
-0.33855182 0.22155522 0.16367829 -0.06288143 0.0905754 0.06463561 -0.16813473 -0.32255667
-0.13134578 -0.23621477 -0.032817874 0.077092595 0.22522262 -0.11042409 -0.11376882 -0.042376563
-0.028924748 0.14165464 -0.37839395 0.2725218 -0.19473937 0.23576498 0.23637292 -0.3060268
-0.28494534 -0.5232272 0.0858829 0.285029 -0.085798636 0.15424238 -0.06925129 0.34746173
-0.25593272 0.10166638 -0.21237387 -0.17013435 0.012845729 0.31750876 -0.10224227 -0.1450214
-0.0051828595 -0.14709745 -0.21115966 -0.03321905 -0.1305534 0.111740746 0.29012322 0.25514084
-0.018468313 0.3368445 -0.20043026 -0.18642333 -0.47229272 0.055401284 -0.71069366 -0.31281686
-0.11545751 0.2620158 0.58861786 0.08550143 -0.09309408 -0.6413877 -0.25451156 -0.30924597
0.27305707 0.21159993 -0.170796 0.16876294 0.14289509 0.19013354 -0.38606805 -0.09732456
-0.277572 0.1766768 0.119949274 0.39804107 0.08304137 0.0762016 0.059523396 -0.37484083
-0.12994342 0.27203485 0.14274001 0.19428676 0.191741 0.20883317 0.10958241 -0.12685682
0.28793588 -0.4456914 0.30290827 -0.10077268 0.15777555 -0.14252721 0.15161724 -0.14949717
-0.302723 0.37079334 -0.1274437 -0.06328079 0.0152431615 0.2705185 0.061588865 0.022676902
-0.2273145 -0.15987061 0.13826756 -0.010629976 0.12643354 -0.20157304 0.19947892 0.13593334
0.1255613 0.1639312 -0.060528994 -0.1760691 -0.3992149 0.15440236 0.06874527 0.23449683
0.040872186 0.067642204 0.066461384 0.10964662 0.41496092 0.17322005 -0.3045709 0.06939391
0.11215127 0.019079085 -0.05134573 -0.11448849 0.178527 -0.11116049 0.2364431 0.234725
-0.23922667 0.21361357 0.34281418 0.007213654 0.07268092 -0.22884837 -0.16082154 -0.36784038
0.37322748 -0.24373701 -0.0026309206 -0.14724083 -0.04622377 0.45702547 -0.11709307 0.1566295
-0.18160698 0.052593388 -0.20138834 0.01909702 0.16590801 0.06991041 0.0826696 0.30776393
-0.26417813 -0.29435173 -0.10487663 0.03386666 -0.16319972 0.2864443 0.7149256 0.07466554
0.18755788 0.017843883 0.19775882 -0.16166559 -0.026204262 -0.011723177 0.08854966 0.053114865
0.13791156 0.11764957 -0.2764436 0.10421012 0.05035785 0.19561492 0.16518915 -0.0121254595
0.280237 -0.042226702 0.25881556 -0.266929 0.082562864 0.19117446 0.15853736 0.28577453

model.decoder.2.bias f4 [114]
00000000: 1267 f23d 4408 953e cc50 ed3d ebff a63d
00000010: 9780 143e c442 ce3d 29e3 053e dbe0 fa3d
00000020: c4cf 823d 4380 8c3e 73b4 9b3d 238f 133e
00000030: c719 e03d 2813 7f3e f854 f73d 3cf6 dc3d
00000040: 6bdf b4bd 2937 ecbd 5fb4 80bd 145b 07bd
00000050: 5085 02be f4c4 203e e28e bebc 9532 06bd
00000060: f24a c43c 474c d63d e1c9 ba3d 5e4e 0f3e
00000070: 8e50 c43c fac7 4ebb b809 05bd 8e4e 423e
00000080: 805b bdbd 8319 1bbe 8bdb 88bd 0e2e 8c3d
00000090: 55f3 573e d542 3e3e a92b a6bd aa94 c03d
000000a0: f1cf 4ebd dbab 5e3e 9497 9dbc 149a 813d
000000b0: 59de bfbd 182f 103e 4cbd 01be 3bf0 023e
000000c0: 165a 00be f6ce 57bd 2887 38bd 6f63 853d
000000d0: de92 413e 1011 083e 71b7 1ebe b907 6dbd
000000e0: 4984 6e3c c90e 873d 4c1b 29bc 6788 ab3d
000000f0: 11d9 793d 7466 84bc 7d6c 0d3e d729 01bd
00000100: b5e2 a63d a76b 56bd ac62 afbd 6c9c 493e
00000110: 7005 303e 8d45 253e dcb2 393e 1781 ecbd
00000120: 3a6b ee3d b80b cdbd 33e3 193e c751 3abc
00000130: f80f 2e3e 0dd4 8bbd f8fb 7dbd d69a aabd
00000140: f263 93bd 39ff 6b3e 23fa 523d 82e1 21bd
00000150: f1b5 b2bd 5b45 583c 6d46 533e b607 d6bc
00000160: 3479 083e 563c e3bd 5d8d 2abc 83f8 933d
00000170: 562e 123e d502 f53d 19dc e2bd fc6f 423e
00000180: 753f 7cbd b160 a83d 1fd9 2abd 8bbc 213e
00000190: 52e3 1a3e d26b e3bc ccbf 743e ea48 e8bd
000001a0: 30e0 d03d 5bec ed3c 8cc7 113c 196b 903e
000001b0: 661c ae3d 2014 ea3c defc bdbd 1d40 103d
000001c0: 116d 213e 2840 4d3e
0.11836065 0.2910787 0.115876764 0.08154281 0.14502178 0.10071328 0.13074936 0.12249919
0.063872844 0.27441606 0.07602777 0.14410071 0.10942417 0.24909651 0.120767534 0.10789153
-0.08831676 -0.115339585 -0.06284403 -0.033045843 -0.12746167 0.15700132 -0.023261491 -0.032763083
0.023961518 0.104637675 0.091205366 0.13994738 0.023964193 -0.00315523 -0.03247997 0.18975279
-0.09245968 -0.1514645 -0.066824995 0.06844722 0.21088918 0.18580182 -0.08113796 0.094033554
-0.050491277 0.21745245 -0.019237317 0.06328216 -0.09368581 0.14080465 -0.12669867 0.12786953
-0.12534365 -0.052687608 -0.04505077 0.06513106 0.18903682 0.13287759 -0.15499665 -0.057868693
0.014557906 0.06594617 -0.0103214495 0.08375626 0.060998026 -0.016162135 0.13810916 -0.031534042
0.0814871 -0.05234876 -0.08563742 0.19688576 0.17189574 0.16139813 0.18134636 -0.115480594
0.116415456 -0.10012001 0.15028076 -0.011372036 0.16998279 -0.06827555 -0.062007874 -0.08330314
-0.071967974 0.23046578 0.05150808 -0.0395217 -0.08726109 0.013200129 0.20632334 -0.026126724
0.13327485 -0.110954925 -0.01040968 0.07225134 0.14275488 0.11963431 -0.110771365 0.18988031
-0.061583955 0.082215674 -0.04171097 0.1579458 0.15125778 -0.027761374 0.2390129 -0.11342032
0.1019901 0.029043367 0.008897673 0.2820671 0.0850151 0.02857405 -0.09276746 0.035217393
0.15764262 0.20044005
