torch_model_storage_24_Jun_2025/model_Early_IA_Correct_v_Late_IA_Het postCLNZ_Late_IA.pt (torch, 12817 bytes, 8 tensors)

model.encoder.0.weight f4 [9, 105]
000000 c8 4a 82 3d 78 b7 45 3d ec 3c 2b bd 63 10 aa bd
       0.0636192 0.048270673 -0.041806147 -0.08303907
000010 60 eb 9a bd f9 b8 1f 3d 76 18 8f bd 0f 6e 51 3e
       -0.075644255 0.038994763 -0.069870874 0.2045214
000020 89 12 26 3d 4c 76 8e bd ac ef 3b be 5f 7c 07 3d
       0.04054502 -0.06956157 -0.18353146 0.033077594
000030 7f ff 46 be 7d ff f5 bc 2c 5e cf bd 8b 43 17 be
       -0.19433402 -0.030029053 -0.10125384 -0.1477186
000040 66 93 74 3e c5 0a e5 3d eb 16 09 3e 5b 72 9e 3e
       0.23884353 0.11183695 0.13387649 0.3094662
000050 ec 8a 27 be c3 ce 85 bd 8f 82 1f be d2 0c ca bd
       -0.16361588 -0.06533577 -0.15577148 -0.098657265
000060 4d 44 36 bc c3 1d d5 3d c1 4e 9c be 11 95 28 3e
       -0.011124683 0.10406067 -0.30528834 0.16463114
000070 6f 6a 20 bd 0e b0 0e be 11 5d 00 3d 07 d7 b4 3d
       -0.039164003 -0.13934347 0.031338755 0.08830076
000080 57 c2 39 3d 12 38 8e be e2 d3 3d be 3e 1f ee bc
       0.045351353 -0.27777153 -0.18537858 -0.029067632
000090 94 ca 91 bd a6 89 fb 3d 97 0e b8 3c ee aa 68 bd
       -0.07118717 0.12282114 0.022467894 -0.056803636
0000a0 75 4f d8 3d 9e ef 05 3e 06 a1 9d 3d 78 75 a4 bd
       0.1056203 0.13079688 0.076967284 -0.08030218
0000b0 e3 26 b6 bd 5b e9 e3 3d b6 08 81 3e 1b 30 10 3e
       -0.08894136 0.111284934 0.25201958 0.14080851
0000c0 b2 6e 89 bd 7a 17 31 bc 41 e0 15 3e 3f 33 85 be
       -0.067105666 -0.01080882 0.14636327 -0.2601566
0000d0 e8 6a c0 bc df a0 ab 3d 4a 0f 91 bc 19 b4 a4 3d
       -0.023488477 0.08380293 -0.017707486 0.080421634
0000e0 31 d2 2c 3e 42 30 54 3d de 21 b9 bd 7d 74 dc bc
       0.16877057 0.051803835 -0.09039663 -0.026911015
0000f0 d7 de f4 3d 26 71 4e 3c 7c f5 5d ba df fe 17 bd
       0.11956566 0.012600219 -0.0008467061 -0.0371083
000100 a5 ce 24 3e 9c 59 d4 bd 6e 10 e4 3d 00 d0 14 3d
       0.16094454 -0.10368654 0.11135946 0.036331177
000110 14 4f c3 bd d8 c0 d8 3d f3 a0 90 3c 6c 8c de bd
       -0.09536567 0.10583657 0.017654872 -0.10866627
000120 dc de 5c 3c ef 7c f8 3d 60 76 70 3c 01 42 c8 bd
       0.013480868 0.12133204 0.01467666 -0.09778214
000130 92 3e df bd d1 d6 3c be 38 dd a6 3c 4f e2 00 be
       -0.10900606 -0.18441321 0.020369157 -0.1258633
000140 9e ab b0 3c 7f 99 12 bc 9c 3c d5 bd 34 81 a7 3d
       0.021566208 -0.008947729 -0.10411951 0.081789404
000150 e5 85 83 3d 74 63 02 be 18 f7 f4 bd 39 cd d8 bd
       0.06422023 -0.12733251 -0.11961192 -0.10586018
000160 d6 bc 29 3d 0c c3 b5 bd 5c 89 5a bc 41 a7 bd 3c
       0.041439854 -0.08875093 -0.013338413 0.023151042
000170 69 6e 4d bd 73 d0 03 3c 43 a7 e7 bd af a3 14 bc
       -0.050154123 0.008045304 -0.113111995 -0.009072228
000180 36 80 e1 bd bc f0 0f 3e e6 a8 09 bc 1b e1 85 bd
       -0.110107824 0.14056677 -0.008402085 -0.06537076
000190 6f 77 07 be e3 92 92 3d 30 9a bd bd f5 cc 73 bd
       -0.13229154 0.07156923 -0.092579246 -0.059521634
0001a0 ba 8f 4f be 1e 7f ce 3b d0 43 80 be d8 27 15 bd
       -0.20269671 0.0063017746 -0.25051737 -0.03641495
0001b0 8a d3 35 bd d2 31 fd bd ce 53 c8 be ee ec e3 bd
       -0.044391192 -0.12363018 -0.39126438 -0.11129175
0001c0 43 ad 0d 3e 3e 83 61 3c b4 3d b7 bc 2e b7 22 be
       0.13835625 0.013764201 -0.02236829 -0.1589019
0001d0 27 ab 46 3d 28 a3 9f bb 78 9c 5b 3e 7f 04 d7 bd
       0.048503067 -0.0048717447 0.21446407 -0.104989044
0001e0 af 68 13 3e 17 de 5a be b5 05 d6 bd 2f 7d f3 bd
       0.14395402 -0.21373783 -0.10450307 -0.11889111
0001f0 f2 f6 c7 3c 4b 88 e0 bd 76 73 4b be e0 7e 89 bd
       0.024409745 -0.10963496 -0.19868264 -0.067136526
000200 b8 9c 20 be fe b0 10 bc 96 21 ba 3d 6b b5 5a be
       -0.15684783 -0.008831261 0.09088437 -0.21358268
000210 c3 e5 10 bd 74 0a 5a be f6 6f 3a bb 05 a3 0c be
       -0.035375368 -0.2129305 -0.0028448082 -0.13734062
000220 b2 e8 91 bd dd 72 93 bd e2 d3 2c 3e be a3 24 3e
       -0.07124461 -0.07199643 0.16877702 0.16078088
000230 57 54 b5 bd 27 2c d3 bd 92 c6 35 3d 70 4f 06 bd
       -0.08853977 -0.10311156 0.044378825 -0.0327906
000240 4e d8 ab bd 5b cb b9 3c f9 40 3f be 21 f8 42 be
       -0.08390866 0.022679975 -0.18677129 -0.19039966
000250 78 92 00 be 38 ac b1 bd 26 59 af bd 3a b3 c1 3e
       -0.12555873 -0.08675426 -0.085619256 0.37832052
000260 fd e2 00 bc 94 a9 ff bc 53 26 17 3d 06 11 12 3e
       -0.007866618 -0.03120879 0.036901783 0.14264306
000270 ba e8 64 3d 23 ad 25 3c cf bd 22 3c 45 7b 4e 3e
       0.055886008 0.01011208 0.009932949 0.20164211
000280 92 87 3d bd e7 3c 1a bd 83 b5 4e 3e 99 82 28 bd
       -0.046271868 -0.037655737 0.20186429 -0.041140173
000290 ce 68 8f 3d 64 23 ca bc 2f 93 89 bc 72 6a c2 bc
       0.07002412 -0.024675079 -0.016793815 -0.023732398
0002a0 05 11 bb 3d d7 06 05 be a5 47 07 3e 62 05 51 be
       0.091341056 -0.1299089 0.13210924 -0.2041221
0002b0 f9 0b 52 3e 41 80 b2 bc ad bf 4c be 5d a4 37 bd
       0.2051238 -0.021789672 -0.19994994 -0.044834483
0002c0 3c de 10 bc 7b 31 14 be f6 9f 5a 3d c8 55 16 be
       -0.008842047 -0.14472 0.053375207 -0.1468116
0002d0 3f cd 7a bd ac 69 4d 3d 1a f6 07 3d 50 66 4e 3d
       -0.061230894 0.050149605 0.033193685 0.05039054
0002e0 5a f0 13 be 28 98 b6 bd 97 e3 32 be 5d 19 4d be
       -0.14447156 -0.0891574 -0.17469631 -0.20029207
0002f0 ca b5 02 3e 95 a5 46 3e b5 78 cb bd 71 81 b7 bd
       0.1276466 0.19399102 -0.099351324 -0.08960236
000300 ea 2c f1 bd 8e cd b8 bd f6 7d 01 be 38 47 57 be
       -0.11776145 -0.090235814 -0.12645707 -0.21023262
000310 14 98 11 be d6 17 f1 bd fc b9 31 bd 9d 14 fc 3d
       -0.1421817 -0.117721245 -0.04339026 0.12308619
000320 11 88 02 be 6a 13 c2 bc 66 43 cc 3d bf fe 52 bd
       -0.12747218 -0.023690898 0.09973793 -0.051512476
000330 39 b1 06 be fe 06 87 3a 52 91 a9 3c af c4 26 bd
       -0.13153543 0.0010301766 0.020699177 -0.040714916
000340 e5 39 1d 3d 1e 56 ac bd 37 91 fc bd aa 19 78 3e
       0.03838529 -0.08414863 -0.12332385 0.2422854
000350 0a c4 c9 3d 5c 8b 4c 3c e2 36 8f 3d 86 ec b5 3e
       0.098518446 0.012484398 0.0699289 0.35532016
000360 56 53 1a 3e a9 04 3c be 48 b2 b9 3c 08 e7 9d bd
       0.15070853 -0.18361153 0.022668019 -0.07710081
000370 c2 31 28 3e 2a 65 2f 3d a2 08 27 bc 9a 6f a1 3d
       0.16425231 0.042821087 -0.010194929 0.078826144
000380 08 a5 b1 bd 54 e0 68 3c 25 df 6d 3e 22 fa fa 3d
       -0.08674055 0.01421364 0.23229654 0.1225474
000390 8e b5 7c 3d 0d c6 d3 3d a6 eb db 3d 98 2c 72 3d
       0.06169658 0.103405096 0.10738306 0.05912456
0003a0 79 15 62 bd e7 fd 82 3d 49 49 6f bd c4 c5 a5 bd
       -0.05519626 0.06396084 -0.0584195 -0.080943614
0003b0 bf 11 26 3d 6d 90 b7 3d ee 38 72 3e dd b8 93 3d
       0.040544268 0.08963094 0.2365453 0.07212994
0003c0 6e 45 50 3d a8 66 95 39 d7 61 18 3e 6b e4 91 be
       0.050847463 0.0002849598 0.14881073 -0.28494582
0003d0 05 c4 af bd 21 a9 1a 3e 23 81 e1 3b 70 b9 bb 3c
       -0.0858231 0.1510358 0.0068818494 0.022915572
0003e0 05 9a 4a bd 61 eb dc 3d c6 3f c9 3c 9d 20 8e 3e
       -0.04946329 0.107870825 0.024566542 0.27759257
0003f0 95 24 ba 3e b0 14 f4 bd ff bc be bd 38 4a 66 3d
       0.36356035 -0.11918008 -0.09313392 0.056223124

model.encoder.0.bias f4 [9]
000000 31 4b 4b 3e 55 13 b1 3d 30 3c 68 bc a3 ac 40 be
       0.19852902 0.086462654 -0.014174506 -0.18815856
000010 d1 8c 13 3e f5 62 94 3b e5 54 a9 bd 8d b7 f2 b9
       0.14409186 0.004528398 -0.082681455 -0.00046294593
000020 6c 34 e0 3d
       0.10947499

model.encoder.3.weight f4 [2, 9]
000000 54 79 21 3e 15 6d 7a 3c ea 3e d2 3d 27 a9 a9 be
       0.1576894 0.015284796 0.10265906 -0.33136865
000010 80 99 e2 3d 5c 3f 35 3e 3f b2 4e be 6e df 38 be
       0.11064434 0.17699951 -0.20185183 -0.18053982
000020 45 b6 7e 3d e3 9b b4 3d 4d aa 5b be 36 ff 32 3e
       0.062185545 0.088187955 -0.21451683 0.17480168
000030 6b 49 b5 be 04 63 e7 3c df ca 2b 3e 26 c4 08 3e
       -0.35407576 0.028245457 0.16776608 0.13356075
000040 c4 7d e2 3d 0c 55 1c be
       0.11059144 -0.15266818

model.encoder.3.bias f4 [2]
000000 dd 53 23 3e c3 9f 1e 3e
       0.1594996 0.15490632

model.decoder.0.weight f4 [9, 2]
000000 24 d4 e7 be fd 4a c6 be 21 a3 38 bf 1e f5 98 3e
       -0.45279038 -0.38729087 -0.72123915 0.2987451
000010 17 b1 10 3c c5 0f d2 be fb af fb be 0c f7 20 3f
       0.008831284 -0.41027656 -0.491577 0.62876964
000020 4e 89 6b 3f df de 9d 3d 7e 8d 8b bd ed 09 2d 3f
       0.92006385 0.07708525 -0.06814097 0.6759327
000030 c0 35 c4 3e 75 cd f6 be c5 2b 14 bd 16 20 24 3f
       0.38322258 -0.48203626 -0.036174554 0.6411146
000040 37 45 1a 3f bb cd ba be
       0.60261863 -0.36485085

model.decoder.0.bias f4 [9]
000000 44 aa 59 be 03 89 e0 3e 3f 73 bf 3e 72 d9 49 3e
       -0.21256357 0.43854532 0.37392613 0.19711855
000010 87 be 62 be 98 9f 95 be 11 c0 13 3d d9 74 c4 be
       -0.22142993 -0.29223323 0.03607184 -0.38370398
000020 9e 13 dc be
       -0.42983717

model.decoder.2.weight f4 [105, 9]
000000 cb b4 e9 be fa 56 b0 3e 5a 95 b5 bd 82 f1 cd bb
       -0.45645747 0.34441358 -0.08866377 -0.0062848935
000010 a2 26 72 3e 32 ac 03 bf 6d 26 a3 3e 1f 26 a7 be
       0.2364755 -0.51434624 0.31865254 -0.32646272
000020 e7 8b 1c be 7a 95 00 bd 28 82 26 3e 20 96 1a 3d
       -0.15287744 -0.031392552 0.16260588 0.037740827
000030 b9 5a 00 3f 98 a1 8c 3d 6b 73 22 3e 54 65 8f be
       0.5013843 0.06866759 0.15864341 -0.28006995
000040 97 82 2e 3c 56 86 88 bd 8b 90 59 3c b2 ed ed bd
       0.010651252 -0.066662475 0.013279091 -0.116176024
000050 3b e6 86 3e be f9 a3 3e 62 af e9 bd 9f 47 12 bd
       0.26347527 0.32026476 -0.11410405 -0.035712834
000060 9b de 92 bd f4 59 d9 bd 21 96 bb be e4 cb 33 be
       -0.07171365 -0.1061286 -0.36637977 -0.17558247
000070 15 cb 88 bb 4b 3a 0d be 53 83 86 be 82 0c 8b bd
       -0.0041746 -0.13791768 -0.26272067 -0.06789495
000080 bc 69 4b bc 12 c3 b3 be 2e bf 68 be a6 64 4a be
       -0.012415346 -0.35109764 -0.2272918 -0.19764957
000090 95 63 34 3d 29 7e a6 3e 7d 63 60 be 47 74 4c 3e
       0.04404028 0.32518128 -0.21912952 0.19966231
0000a0 dc c7 b1 bd 40 a9 7a be 93 a3 97 3c 4b c8 03 3e
       -0.08680698 -0.24478626 0.018510615 0.12869374
0000b0 25 1f 5e be 6c e1 c3 bd 46 1a a2 3e 9a 40 c3 bd
       -0.21691568 -0.0956448 0.3166067 -0.09533806
0000c0 b0 2c e7 3e 98 b2 9f 3e de 85 7f 3e 20 4d 85 be
       0.4515128 0.31190944 0.2495341 -0.26035404
0000d0 ef 79 cf 3e 8c ba f7 bd e2 95 c7 bd 5e ed 46 3e
       0.40522715 -0.12096128 -0.09745385 0.19426486
0000e0 60 1f 05 3e 75 80 19 3e 14 81 69 3b 69 5e a5 3e
       0.1300025 0.14990409 0.0035629915 0.32298592
0000f0 f2 4d 93 39 32 e8 38 be ac 27 e4 bc 27 31 64 3d
       0.000280961 -0.18057325 -0.027850948 0.055710938
000100 73 08 c9 3e 21 d0 9c 3e 6d 2e 8b bd 0e 8e 08 3f
       0.3926426 0.3062754 -0.067959644 0.5334176
000110 89 ed a0 bd ad 84 82 bd 6d 1e e6 be 7e 79 f2 3d
       -0.07857806 -0.06372962 -0.44945088 0.11839579
000120 9d 8e 8b be 15 dd 3a be 01 ce 8b 3e de 79 94 3e
       -0.27257243 -0.18248399 0.27305606 0.28999227
000130 84 e8 63 3d 7e 22 35 bd 0b 15 55 3d e6 cb f1 3b
       0.055641666 -0.044222347 0.05202202 0.007379043
000140 de a0 54 3d 94 ca ea be e1 cd ec 3b 84 89 ed 3e
       0.051911227 -0.4585768 0.007226691 0.4639398
000150 e5 dd e9 3d 96 50 23 3b 82 62 97 be cd 29 8a bd
       0.11419276 0.002491986 -0.29567343 -0.06746254
000160 57 8f 15 3d 5c 3e ca be fc cb 33 3f 43 e9 cf 3d
       0.036513653 -0.395007 0.7023313 0.10151913
000170 19 b8 14 3c 39 8b 45 bd f7 54 85 be 8c 24 d1 3e
       0.009077095 -0.048228476 -0.26041386 0.40848196
000180 39 9f 6b be 04 64 a5 3e 7c 27 66 be 29 e8 92 be
       -0.23009957 0.32302868 -0.22476 -0.2869275
000190 b8 5f 8d bd fe d5 a5 3e 94 3e cc 3e 0a 24 fa 3c
       -0.069030225 0.32389826 0.39891493 0.030534763
0001a0 eb 34 8f be 94 9c 83 3e 50 5a 8a bc f1 ad f9 be
       -0.2797006 0.25705397 -0.016888767 -0.4876552
0001b0 24 c8 97 be 0a 5c ff bc 19 b3 86 3e ea d0 9d bd
       -0.29644883 -0.031171817 0.26308516 -0.07705863
0001c0 26 8a 04 bf 72 e4 bd 3e d0 b0 81 be c6 b9 26 3e
       -0.517733 0.37088352 -0.2533021 0.16281804
0001d0 34 2f 1e 3e d5 a5 de ba 8a 3e 34 be ea 20 8b 3e
       0.15447694 -0.0016986678 -0.17601982 0.2717355
0001e0 78 da 47 3d b1 2f 92 bd 75 c6 0f 3e 88 0c 43 3e
       0.048792332 -0.07138003 0.14040549 0.19047749
0001f0 f6 66 0c 3e ca 32 30 3e eb f5 2f bd 0d 12 06 be
       0.13711151 0.17206874 -0.042959135 -0.13092823
000200 66 b5 29 be 4e 21 35 3e ad c9 85 be fb e5 e8 be
       -0.16573104 0.17688486 -0.2613043 -0.4548796
000210 56 b7 2d be 46 fc 15 3e ac ca 39 bb d4 e3 4c be
       -0.16964468 0.14647016 -0.0028349562 -0.20008785
000220 af a7 52 3e ef 96 1d 3e 5d 1a 8d be 49 51 48 bd
       0.20571779 0.15389608 -0.27559176 -0.048905645
000230 58 32 eb bc 8c 02 11 be 9c 96 74 3e 09 df be 3d
       -0.02871053 -0.14161128 0.23885578 0.09319884
000240 bf df c2 be 0d 0f b6 3d eb 09 77 bc c7 48 06 3f
       -0.3806133 0.088895895 -0.015078048 0.524548
000250 b7 62 2d 3f 10 94 66 3e 43 ca 21 3e d6 42 06 be
       0.6772875 0.22517419 0.15799813 -0.13111433
000260 68 43 db be d8 cd 80 3e d6 18 ba bd 2c 2a 81 bd
       -0.42824864 0.25157046 -0.09086768 -0.06306872
000270 5e 94 04 be f8 63 e6 bc f4 2f 2f 3e ec b0 a4 be
       -0.12947223 -0.02812384 0.17108136 -0.3216623
000280 7f 2e c9 3e a7 6a 89 be 65 a3 cc be 77 e7 73 3e
       0.39293286 -0.26839182 -0.3996841 0.23818766
000290 9c ed 6e 3e 16 a1 5b 3d 36 1b 28 3f 27 91 db bd
       0.23332828 0.05362042 0.6566652 -0.10721045
0002a0 4b a6 40 bd 95 bd e6 bc 73 69 34 be 96 cd 01 bf
       -0.04703359 -0.028166572 -0.1761835 -0.50704324
0002b0 c3 ce a5 3e 84 a8 3e 3e 7b 2e 84 be 27 5e 83 3f
       0.3238431 0.18618971 -0.25816712 1.0263108
0002c0 be 10 75 3d 9b da 91 3d 1c fe 8d bd 98 84 38 3e
       0.05983042 0.07121774 -0.06933233 0.1801933
0002d0 da 0b 35 3e 2e a9 7e 3e 04 85 c7 be 0c 0f 0a be
       0.17680302 0.24869224 -0.3896867 -0.13482302
0002e0 4f c4 bd be b1 f0 8d 3e 37 96 da be b8 0e 85 3b
       -0.37063834 0.27722695 -0.4269273 0.0040605925
0002f0 80 75 64 3c b8 66 5a be 76 32 86 3e 2f c6 bb bc
       0.01394403 -0.21328247 0.26210374 -0.02292165
000300 75 5b a4 3e f4 a8 8c bd 0e 68 a4 3b cf f9 b7 3d
       0.32101026 -0.06868163 0.005017287 0.08983194
000310 f6 42 7f be a4 aa c0 bd fa 99 af be f3 bd e5 3b
       -0.24927887 -0.09407547 -0.34297162 0.007011169
000320 34 ba 1d be 54 e0 b9 3d 92 e8 d1 be 12 d2 05 bd
       -0.15403062 0.0907599 -0.4099775 -0.03267104
000330 a5 91 98 3e c4 39 5a 3c 81 e8 d2 be bc fc a2 bd
       0.29798618 0.013319436 -0.4119301 -0.079583615
000340 8e 7c d4 bd 60 d5 f5 bd 0a d4 ec 3d c5 52 9d be
       -0.103753194 -0.12003589 0.11563881 -0.3072721
000350 dc 8f c2 3d 30 50 37 be 61 33 c2 bd 65 2a 43 be
       0.09500095 -0.17901683 -0.09482456 -0.19059141
000360 d7 24 aa bc e8 6a 0f 3e cd c6 4b be c4 58 8a be
       -0.02076952 0.14005625 -0.19900055 -0.27020848
000370 3a 5c a7 bd 72 b7 1a be ec e0 92 3c b0 e0 6a 3e
       -0.08171888 -0.15109041 0.017929517 0.22937274
000380 b7 07 f6 3d 43 6a 88 bd 14 25 24 be fa 2c 5d be
       0.1201319 -0.06660893 -0.16029769 -0.21599188
000390 60 45 ae be 99 c6 93 3d 74 3d 73 3d fb e6 83 be
       -0.34037304 0.07215614 0.05938478 -0.25762162
0003a0 e2 ce 5e be cb 82 4b be 9b 3c 69 be cf 55 c9 3e
       -0.21758607 -0.19874112 -0.22777025 0.3932328
0003b0 72 89 21 3e 45 f8 df 3e f5 2f 4f bf 6e e0 45 3e
       0.15775087 0.43744102 -0.8093255 0.19323894
0003c0 d0 96 61 be 7f 8e 5b be 9d 2a 06 be e5 c5 ed 3d
       -0.22030187 -0.21441077 -0.13102193 0.11610011
0003d0 5e 4b 8f 3e 1b 40 d6 bd ac 07 7d 3e ab eb cc 3e
       0.27987188 -0.10461446 0.24709958 0.4002355
0003e0 cd a6 32 3e 54 d1 8d 3e f4 3a a6 bc 63 bd ee 3d
       0.17446442 0.27698767 -0.020291783 0.116572164
0003f0 c9 5c cc bd d6 cb 70 3a 30 f9 49 ba 2a ab ee 3b
       -0.09978635 0.00091856474 -0.00077046733 0.007283588

model.decoder.2.bias f4 [105]
000000 de d5 02 be ff 71 5a bd 31 91 c4 bc 76 60 a0 3d
       -0.12776896 -0.05333137 -0.023995014 0.078308985
000010 da fb f8 bc 00 d5 e5 bb 18 8e 8a bd 69 1b b9 bd
       -0.03039353 -0.007013917 -0.067653835 -0.09038431
000020 bb 6e dc 3a 3a 86 87 bd 31 93 64 3e 7c e1 79 bd
       0.0016817668 -0.066173986 0.22321774 -0.061006054
000030 37 44 79 3d 07 da 1d 3e d8 5e eb 3d 92 96 66 bc
       0.06085607 0.15415202 0.114926994 -0.014073985
000040 20 49 ac 3d 7b a0 5b 3e 7c f9 fa bc bb f3 7e 3d
       0.08412385 0.21447937 -0.030636542 0.06224416
000050 71 62 35 3e 1e b6 0f be 4f 56 72 bd d3 ee a8 3d
       0.17713334 -0.14034316 -0.05916434 0.08248677
000060 15 67 5f 3e a6 56 54 3e 30 0b 98 bd 43 7e a3 3e
       0.21816666 0.20736179 -0.07424009 0.31932268
000070 5c 2d 0e 3e 07 c8 3e 3e ca 4d ac 3d df 0e 38 bd
       0.1388449 0.18630992 0.084132746 -0.044936057
000080 b8 3d e4 3c 82 85 19 bc df 5c b6 3d 36 92 b4 bb
       0.027861461 -0.00937021 0.089044325 -0.0055105938
000090 86 0c 74 3a 2f 4b 14 3e 00 d4 af bd 86 d8 34 3e
       0.00093097275 0.14481805 -0.08585358 0.17660722
0000a0 0c 53 16 ba be c7 1e be 16 c3 1b 3b fe 07 67 bd
       -0.0005734421 -0.15505883 0.0023767403 -0.056404106
0000b0 fb 2c e6 3d d8 c1 1f bd 16 96 39 3e f3 da ab 3d
       0.11239048 -0.039003223 0.1812366 0.083913706
0000c0 f7 3e 88 bd cf de 42 3c 18 6d 27 3e ae 98 5b 3e
       -0.066526346 0.011893942 0.1635021 0.21444961
0000d0 b5 52 b9 3d ab 02 a2 bc 31 78 4e 3e 47 e1 17 be
       0.09048978 -0.019776663 0.20163037 -0.1483203
0000e0 e5 5c a9 bd 1a d9 16 3e af 0e 25 bd c4 43 91 3d
       -0.08269671 0.14731255 -0.040297206 0.070930034
0000f0 d4 6d bf 3d ed 8f 81 3c fb 87 b3 bc df 98 ec 3d
       0.0934712 0.0158157 -0.021915426 0.11552595
000100 51 95 e8 3d 6a e9 89 3e 12 62 cb 3c e2 f2 80 3e
       0.11356605 0.26935893 0.024827037 0.25185305
000110 0d 56 07 be 2e 58 8b 3e 0e 2c d4 3d 26 93 e0 bd
       -0.1321642 0.27215713 0.10359965 -0.10965566
000120 5a 62 d5 3d 5c 15 f0 bc 5f f4 43 3c eb 93 31 3e
       0.1041915 -0.02930706 0.011960118 0.17341582
000130 ad 67 d9 3d a0 b8 42 3e 16 77 24 bd 01 0a 43 be
       0.10615478 0.19015741 -0.04015263 -0.19046785
000140 f9 fd 92 ba c6 7a b6 bc 7e 29 a5 3d 7b a5 fa 3d
       -0.0011214606 -0.02227534 0.08064555 0.12238594
000150 01 36 31 3d 55 87 b4 3d 09 f8 23 3e 85 29 4a 3e
       0.043264393 0.08814875 0.16012587 0.19742401
000160 68 86 0e be 14 c3 d4 bb ba 97 81 bd d2 0d 22 bd
       -0.1391846 -0.0064929817 -0.06327768 -0.03956396
000170 46 fc 87 bd 32 7c f8 bc 8d 62 29 3e b4 c8 17 bd
       -0.06639914 -0.030332658 0.165415 -0.03705664
000180 77 a3 5c 3e c3 df 65 3d 0c 73 3d 3b 33 2e 9c bc
       0.21546732 0.0561216 0.0028907685 -0.019064998
000190 fc a4 4c 3e 4b 17 ef bd eb 4e 43 bd 57 9f e1 3d
       0.19984812 -0.11674365 -0.047682684 0.1101672
0001a0 72 bc c6 bd
       -0.09703912
