torch_model_storage_24_Jun_2025/model_Early_IA_Correct_v_Early_RS_Correct_WT VEH_Early_RS_Correct.pt (torch, 10745 bytes, 8 tensors)

model.encoder.0.weight f4 [9, 70]
0	0x3de0e9e0	0.10982108
1	0xbe6f2633	-0.23354416
2	0x3d5c1cc5	0.053738374
3	0xbd4ca178	-0.049958676
4	0xbdf55945	-0.119799174
5	0xbdd37b98	-0.10326308
6	0xbe2ae295	-0.16687997
7	0xbd4c02a1	-0.049807195
8	0xbd2bde94	-0.041960314
9	0xbe3c5f0a	-0.1839563
10	0x3e00ca34	0.12577134
11	0x3cc4bd58	0.024016067
12	0xbdc7b99a	-0.097521976
13	0xbe50a4da	-0.20375386
14	0xbe0d5e02	-0.13805392
15	0xbe5f24ff	-0.21791457
16	0xbe4afe3c	-0.19823545
17	0x3da992bf	0.08279943
18	0xbde43848	-0.11143547
19	0xbd761fc8	-0.060088903
20	0x3e698f6f	0.22808622
21	0xbd8c87f4	-0.068618685
22	0xbdda081a	-0.106460765
23	0xbe88f0cd	-0.26746216
24	0xbe246e9e	-0.16057822
25	0x3d1866e1	0.037207488
26	0x3c83a87b	0.016071549
27	0xbdb452a2	-0.088048235
28	0xbb45a04f	-0.0030155366
29	0xbe1d9f8f	-0.15392898
30	0x3d34274f	0.0439828
31	0xbe5c7558	-0.21529138
32	0xbdef585f	-0.11686777
33	0xbdae7e8d	-0.085202314
34	0xbccb4b56	-0.024816196
35	0xbda62630	-0.081127524
36	0x3c246cf4	0.010035742
37	0x3d2f8ea7	0.042860653
38	0xbdd2ca42	-0.10292484
39	0xbdffb59b	-0.1248581
40	0xbe66f46d	-0.22554179
41	0xbd142da2	-0.03617633
42	0xbddafc01	-0.10692597
43	0xbc22bb79	-0.009932392
44	0xbd790cde	-0.060803287
45	0x3d43acf3	0.04777236
46	0x3c27abc6	0.010233825
47	0xbd8ff680	-0.07029438
48	0xbe027cd1	-0.12742926
49	0xbdc7019e	-0.09717105
50	0xbc9f5849	-0.019451277
51	0xbe02cc25	-0.12773187
52	0xbe1ce655	-0.1532224
53	0xbd99aee7	-0.07504063
54	0x3c9919b6	0.018689018
55	0xbe3e173b	-0.18563549
56	0x3c191543	0.009343448
57	0xbea8554f	-0.32877585
58	0xbe3b9c5d	-0.18321367
59	0xbd3c955d	-0.04604088
60	0xbdd86c6d	-0.105675556
61	0xbe02b852	-0.12765625
62	0xbe70ca88	-0.2351476
63	0x3d95daa9	0.07317097
64	0x3ba813f9	0.005129334
65	0x3d7b4fa6	0.061355256
66	0xbcea8947	-0.028629912
67	0xbe882ce7	-0.26596758
68	0x3dab7b99	0.08373184
69	0xbd7635a2	-0.060109742
70	0xbd8050c9	-0.062654085
71	0xbba47d02	-0.005019785
72	0x3c5c2d58	0.013438545
73	0xbd9de40a	-0.077095106
74	0xbe704d1e	-0.23466918
75	0xbb4f0e84	-0.0031594345
76	0xbd061ee3	-0.0327443
77	0xbe776412	-0.24159268
78	0x3d24a4c4	0.040196195
79	0xbdad5667	-0.084637456
80	0xbe14ace6	-0.1451908
81	0xbdb0f657	-0.086407356
82	0xbe40190a	-0.18759552
83	0xbdc4ef34	-0.09615937
84	0xbcd72846	-0.026264321
85	0x3e47fa45	0.19529064
86	0xbdd7cc8d	-0.10537062
87	0x3cf2a9a7	0.029621912
88	0xbe34b50a	-0.17647186
89	0x3d548767	0.051886942
90	0xbe978503	-0.29593667
91	0xbddc5426	-0.107582375
92	0xbde6dbf1	-0.11272419
93	0x3e3bbe50	0.18334317
94	0xbd0da2fc	-0.034579262
95	0xbe3753a0	-0.17902994
96	0xbdba960f	-0.09110653
97	0x3da98c4b	0.08278712
98	0xbe6c6202	-0.23084262
99	0xbde69de5	-0.11260585
100	0xbe59b061	-0.2125869
101	0xbd0db34a	-0.03459481
102	0xbd8c2919	-0.06843776
103	0xbe5dc0a5	-0.2165552
104	0xbe839312	-0.25698143
105	0xbd8a512e	-0.06753765
106	0xbe5f8e41	-0.2183161
107	0xbd65fe1a	-0.056150533
108	0xbaf2cdcf	-0.001852447
109	0x3d8ed5fa	0.069744065
110	0xbdabf583	-0.08396437
111	0xbe102453	-0.14076357
112	0xbc152df9	-0.009105199
113	0xbe3b17cc	-0.18270797
114	0xbe05daeb	-0.13071792
115	0xbe4b48ba	-0.19851962
116	0xbd11b5f4	-0.035573915
117	0xbdb6bd6d	-0.08922849
118	0xbe00a10d	-0.12561436
119	0xbe2baa93	-0.16764288
120	0xbe33599c	-0.17514652
121	0xbe0941fd	-0.13404079
122	0xbdf11b6e	-0.1177281
123	0xbd24c7d5	-0.040229637
124	0x3d94f50d	0.07273302
125	0xbdbd0959	-0.092302985
126	0xbddb3940	-0.10704279
127	0x3e2159fb	0.15756981
128	0xbda2573b	-0.07926794
129	0x3b82c607	0.003990892
130	0xbd2240ab	-0.039612453
131	0x3c59552f	0.013264938
132	0x3e41f48b	0.18940942
133	0x3d37cf90	0.04487568
134	0xbca9e7ab	-0.02074035
135	0xbe6f42a2	-0.23365262
136	0xbd6e5524	-0.058186665
137	0x3ce31181	0.027718307
138	0xbddb8e9a	-0.107205585
139	0x3dc88ed7	0.097928695
140	0x3e2c8a87	0.16849719
141	0xbdf6862a	-0.120373085
142	0xbd121baf	-0.035670932
143	0x3ddc702d	0.10763583
144	0xbcb5895b	-0.022160223
145	0x3db600be	0.0888686
146	0xbe7843b0	-0.2424457
147	0xbd935e1b	-0.071956836
148	0x3d26267b	0.04056404
149	0xbd0c734c	-0.034289643
150	0xbe257748	-0.16158783
151	0xbe2f139a	-0.17097321
152	0xbd715224	-0.058916226
153	0x3e46e80e	0.1942446
154	0x3b15067e	0.0022739465
155	0xbbe3cd2f	-0.00695195
156	0x3d5420a0	0.051788926
157	0xbcbbf91a	-0.02294593
158	0xbe4430c0	-0.19159222
159	0xbd44f120	-0.048081517
160	0x3d27b980	0.04094839
161	0x3d120d21	0.035657052
162	0xbdc38996	-0.09547727
163	0xbdd2ea9c	-0.102986544
164	0xbd0f2f93	-0.03495748
165	0xbe208d85	-0.15678985
166	0xbe2483c8	-0.16065896
167	0xbbf37f46	-0.0074309437
168	0xbe4c636e	-0.19959804
169	0xbdf87360	-0.12131381
170	0xbe01490f	-0.12625526
171	0xbe28d357	-0.1648687
172	0x3cb224b8	0.021746024
173	0xbdbdb34c	-0.09262714
174	0xbe12cf14	-0.14336807
175	0x3d8bfc62	0.068352476
176	0x3e05effb	0.13079827
177	0xbe1a859c	-0.1509003
178	0xbe6817aa	-0.22665277
179	0xbcd67327	-0.026177956
180	0xbe46383b	-0.19357388
181	0xbd5e303e	-0.054245226
182	0xbe292349	-0.16517366
183	0xbd159deb	-0.036527555
184	0xbceba915	-0.028767148
185	0xbe26aaa1	-0.16276027
186	0xbcd472cf	-0.025933651
187	0xbd953703	-0.07285883
188	0xbe0784cd	-0.13234253
189	0xbda40bca	-0.08010061
190	0x3cbb9357	0.022897406
191	0xbd8082a2	-0.06274916
192	0xbe4529ce	-0.19254228
193	0xbcb5d041	-0.02219403
194	0x3dd96dfb	0.1061668
195	0xbc76e32b	-0.0150688095
196	0xbdfb960d	-0.12284479
197	0x3da60f65	0.08108405
198	0xbdbd1a8a	-0.092335775
199	0xbd5b4240	-0.053529978
200	0x3de5a411	0.11212934
201	0x3cf57b5a	0.029966045
202	0xbe101d87	-0.14073764
203	0xbe41a038	-0.18908775
204	0xbc98a5d0	-0.018633753
205	0xbddc9909	-0.10771377
206	0xbbb53436	-0.0055299057
207	0x3d0ad5b6	0.033895217
208	0xbd8060f3	-0.062684916
209	0xbb9664bf	-0.0045896466
210	0x3d7e4847	0.062080648
211	0xbe51d410	-0.20491052
212	0xbdf82faa	-0.12118466
213	0xbe401349	-0.18757357
214	0xbd3858cc	-0.04500656
215	0xbe00f9dc	-0.12595314
216	0xbe4c6db5	-0.19963725
217	0xbdd9183f	-0.10600328
218	0xbe1b07b3	-0.15139656
219	0xbe3ad248	-0.18244278
220	0x3e291cfc	0.16514963
221	0xbe34255b	-0.17592375
222	0xbe035a07	-0.12827311
223	0xbe8628b2	-0.26202923
224	0xbe81968f	-0.2531018
225	0xbe1913bd	-0.14948936
226	0xbc0f1b2d	-0.008734507
227	0x3e4aab37	0.19791876
228	0xbe57e62d	-0.21083899
229	0xbe8af225	-0.27137867
230	0x3e9268c9	0.2859557
231	0xbe47d026	-0.19512996
232	0xbe72306f	-0.23651288
233	0xbe8a2bde	-0.26986593
234	0xbeadb3bc	-0.3392619
235	0x3b76b826	0.0037646382
236	0x3da659aa	0.08122571
237	0xbe4e636a	-0.20155111
238	0x3e243970	0.16037536
239	0xbded4723	-0.11585834
240	0xbc70472c	-0.014665406
241	0xbeadccdc	-0.33945358
242	0x3cb6dea5	0.022322962
243	0x3c150261	0.009094805
244	0xbe9039c3	-0.2816907
245	0x3d4aa391	0.049472395
246	0xbe051fec	-0.13000458
247	0x3dcff264	0.10153654
248	0xbe0c61f1	-0.13709237
249	0xbe6b00b7	-0.22949491
250	0xbe8186eb	-0.25298247
251	0xbcacb3db	-0.021081856
252	0xbe3cebdd	-0.1844935
253	0xbdcddc0e	-0.10051738
254	0xbe7ec625	-0.24880274
255	0x3dbf5f71	0.09344376

model.encoder.0.bias f4 [9]
0	0x3e565ca2	0.20933774
1	0xbe28855c	-0.16457123
2	0x3e31fc75	0.17381461
3	0x3eaf67d4	0.34258902
4	0xbd09c47d	-0.03363465
5	0x3c3323d4	0.010933835
6	0xbe88ba43	-0.26704606
7	0x3cbd42b5	0.023103097
8	0x3dad0c4c	0.08449611

model.encoder.3.weight f4 [2, 9]
0	0xbe7b4236	-0.24536976
1	0x3d9ea1a0	0.07745671
2	0xbe60e5fa	-0.21962729
3	0xbea0358e	-0.3129086
4	0x3dd5e995	0.10444943
5	0xbd02fddc	-0.03198038
6	0x3eb5e2d9	0.35524634
7	0xbdc36855	-0.09541384
8	0xbe4fd2b0	-0.20295215
9	0xbdc04c58	-0.093895614
10	0x3e293e83	0.16527753
11	0x3e0cbf09	0.13744749
12	0xbd3bca58	-0.045847267
13	0x3ec3c586	0.38236636
14	0xbead8139	-0.33887652
15	0x3da6d59a	0.0814621
16	0xbe2562da	-0.1615099
17	0x3ea5dc17	0.32394478

model.encoder.3.bias f4 [2]
0	0xbe86babc	-0.26314342
1	0xbe755f5d	-0.2396216

model.decoder.0.weight f4 [9, 2]
0	0x3ec96ec6	0.39342326
1	0xbebb0f52	-0.36535126
2	0xbe7a0402	-0.24415591
3	0xbeefb7f8	-0.46820045
4	0xbed7520b	-0.4205478
5	0x3ecf7c16	0.40524358
6	0xbdc02343	-0.09381726
7	0xbf317d1c	-0.69331527
8	0xbeb81c22	-0.35958964
9	0x3f092592	0.5357295
10	0xbeccb61e	-0.39982694
11	0xbecb3cab	-0.39694723
12	0x3c8a7053	0.016899263
13	0x3ea46327	0.32106897
14	0x3f1a5d15	0.6029828
15	0x3f0215a3	0.50814265
16	0x3f25a848	0.647099
17	0xbf13fd11	-0.57808024

model.decoder.0.bias f4 [9]
0	0xbde1bc42	-0.110222355
1	0xbf01d0d0	-0.5070925
2	0x3dd6555a	0.10465498
3	0xbe88b5d3	-0.2670122
4	0xbeebea11	-0.46077016
5	0xbedbe3b5	-0.42947164
6	0xbe862e5d	-0.26207247
7	0x3e80edda	0.25181466
8	0xbead5bca	-0.33859092

model.decoder.2.weight f4 [70, 9]
0	0xbe850fa6	-0.259885
1	0x3e045fdb	0.12927191
2	0xbbb66517	-0.00556625
3	0xbd8609ad	-0.06544814
4	0xbd035017	-0.0320588
5	0x3e77fb35	0.24216922
6	0xbd5bc00a	-0.05364994
7	0xbe983f28	-0.29735684
8	0xbdde4837	-0.10853618
9	0x3f00f66a	0.50376
10	0xbe80c74e	-0.25152057
11	0xbdc957f0	-0.09831226
12	0x3ca96572	0.020678256
13	0x3d7aa8b8	0.06119606
14	0x3e51aae0	0.2047534
15	0xbeb03836	-0.34417886
16	0x3db55028	0.08853179
17	0xbd25a5e2	-0.0404414
18	0x3da9ed05	0.08297161
19	0xbe1f55da	-0.15560094
20	0xbe25f6f9	-0.16207494
21	0x3d227b31	0.039668266
22	0xbe9713a7	-0.2950718
23	0xbe16ce1f	-0.14727066
24	0xbdbc39d1	-0.09190715
25	0xbd9dc51d	-0.07703612
26	0xbd54886b	-0.05188791
27	0x3da8e675	0.08247081
28	0x3e4f9c35	0.20274432
29	0xbd266c50	-0.04063064
30	0xbd0090c5	-0.031388063
31	0x3d810ecc	0.063016504
32	0xbe2fa9f6	-0.17154679
33	0xbdfc8f54	-0.12332025
34	0x3e02f09a	0.12787095
35	0x3d8e080f	0.06935131
36	0x3ec3e49c	0.38260353
37	0x3cbeddac	0.02329906
38	0xbe2354c6	-0.15950307
39	0xbe12f1b2	-0.14350012
40	0xbe87e3c7	-0.26540968
41	0xbe11baa7	-0.14231358
42	0xbe81355c	-0.25236022
43	0x3de14a96	0.11000554
44	0xbd9a6f82	-0.075408
45	0x3d0f431b	0.034976106
46	0x3e730126	0.23730907
47	0x3e6c9873	0.2310503
48	0xbe1034b7	-0.14082609
49	0xbe915482	-0.28384787
50	0x3e14bcd7	0.14525162
51	0x3e79dc25	0.24400385
52	0x3f0b2535	0.5435365
53	0x3e0721c9	0.13196482
54	0x3ee965e8	0.4558556
55	0x3e2146cd	0.15749665
56	0xbecd39d1	-0.40083173
57	0x3e390835	0.18069537
58	0x3d2c66e8	0.042090327
59	0x3e27c9c1	0.16385557
60	0x3e2dd332	0.16975096
61	0x3eac34a9	0.33633927
62	0x3eca25db	0.39482006
63	0x3ede229a	0.43385774
64	0x3db3f869	0.08787615
65	0xbebe850b	-0.3721088
66	0xbe68ed32	-0.22746733
67	0xbed825a8	-0.4221623
68	0x3e288f5f	0.16460942
69	0x3c9c2a89	0.019063251
70	0xbd852436	-0.06501047
71	0xbec8b9b0	-0.39204168
72	0x3d06f1d8	0.032945484
73	0xbca8f314	-0.020623721
74	0x3c997ae9	0.018735366
75	0x3e0aa1f1	0.13538338
76	0x3c30b5f3	0.010785568
77	0xbdb061e6	-0.08612423
78	0x3ee536f1	0.4476848
79	0x3ea1d027	0.3160412
80	0x3dc925cf	0.098216645
81	0x3dfef921	0.12449861
82	0xbeec35e5	-0.46134868
83	0xbe80e20e	-0.25172466
84	0x3de459f1	0.111499675
85	0xbed49239	-0.4151781
86	0xbef604a7	-0.48050424
87	0xbe5900bc	-0.21191686
88	0x3c304d4a	0.010760615
89	0x3d3c8fd5	0.046035606
90	0x3e1fba61	0.15598442
91	0xbbe30ac9	-0.006928776
92	0xbe42995d	-0.19003816
93	0x3ec244a7	0.37943003
94	0x3e87c0ce	0.26514286
95	0x3e725e60	0.23668814
96	0x3e3b91f0	0.1831739
97	0xbd541719	-0.05177984
98	0x3d8a222e	0.067448005
99	0x3c591e50	0.013251856
100	0xbddd9391	-0.10819162
101	0xbe8c6de4	-0.2742759
102	0xbd9344aa	-0.07190831
103	0xbe190c36	-0.14946064
104	0xbca58b04	-0.02020789
105	0xbd56b26c	-0.05241625
106	0x3e711eff	0.2354698
107	0x3e3d078d	0.18459912
108	0x3f08612e	0.53273284
109	0xbd8434c0	-0.06455374
110	0xbe893fd5	-0.26806512
111	0xbe150b2e	-0.14555046
112	0xbc74be06	-0.014937883
113	0x3e667879	0.22506894
114	0x3d8db108	0.06918532
115	0x3cab0c60	0.020879924
116	0x3e29bc22	0.16575673
117	0x3de77744	0.11302045
118	0xbecf0471	-0.40433076
119	0x3df628ad	0.12019477
120	0x3d93d326	0.07218008
121	0xbc949d84	-0.018141516
122	0xbed174e0	-0.4090948
123	0xbe3cb2cb	-0.18427579
124	0xbe3ac651	-0.18239714
125	0x3e0bddc0	0.1365881
126	0xbd42a99e	-0.04752504
127	0xbe0a67ea	-0.13516203
128	0xbe7a8293	-0.24463873
129	0xbeff3f75	-0.498531
130	0xbded1585	-0.1157637
131	0xbeaa019f	-0.33204362
132	0x3da33aba	0.079701856
133	0xbdc3b7aa	-0.095565155
134	0x3d017b6e	0.031611852
135	0x3e0b11e1	0.13581039
136	0xbe0e452e	-0.13893577
137	0x3cc45e21	0.023970665
138	0x3d4cc62a	0.04999367
139	0xbe0a544d	-0.1350872
140	0xbea368aa	-0.3191579
141	0xbe4ae45c	-0.19813675
142	0x3e738868	0.23782504
143	0xbdbb687b	-0.091507874
144	0x3e4138a1	0.18869258
145	0xbd4aa609	-0.04947475
146	0xbd18a68c	-0.037268206
147	0x3ead79f2	0.338821
148	0xbe057807	-0.13034068
149	0xbe12ec7c	-0.14348024
150	0x3ea27e4f	0.3173699
151	0x3d1c8047	0.038208272
152	0x3d5f0135	0.05444451
153	0x3e16545f	0.14680623
154	0x3e59bed9	0.21264209
155	0x3ea396e6	0.31951064
156	0x3c7c7399	0.01540842
157	0xbd90bfdc	-0.07067844
158	0x3e967a36	0.29390115
159	0xbeb5b1e0	-0.3548727
160	0x3db6ebf6	0.08931725
161	0xbe6a33ff	-0.22871397
162	0x3ea4a932	0.32160336
163	0xbe810740	-0.25200844
164	0xbee9bd56	-0.45652264
165	0x3df52012	0.119690076
166	0xbecba5a9	-0.39774826
167	0xbead1fac	-0.33813226
168	0xbe97ec0c	-0.29672277
169	0xbe6f717e	-0.23383138
170	0xbcd7ffaa	-0.026367027
171	0x3e8fcaa6	0.28084296
172	0xbee769d3	-0.45197925
173	0xbe7eadc0	-0.24870968
174	0xbe67221f	-0.2257161
175	0xbe337707	-0.17525874
176	0xbe3d293d	-0.18472762
177	0xbe45383c	-0.19259733
178	0xbc76598a	-0.015035996
179	0xbed33b49	-0.41256168
180	0x3de3e7a0	0.11128163
181	0x3ecb78d3	0.3974062
182	0x3e1e4001	0.15454103
183	0x3f4b5418	0.7942519
184	0xbdb1fb72	-0.086905375
185	0x3ec5cc59	0.38632467
186	0xbe90639c	-0.28200996
187	0x3e81351c	0.25235832
188	0xbc307ac6	-0.010771459
189	0x3ddcbf42	0.10778667
190	0xbdff7ec2	-0.12475349
191	0xbd5a306a	-0.053268827
192	0x3d8d15b8	0.06888908
193	0xbeaf9134	-0.3429047
194	0xbc5c567c	-0.013448354
195	0xbeba9624	-0.36442673
196	0x3d941ca2	0.07232024
197	0xbd0be3fa	-0.034152962
198	0x3dda0f74	0.10647479
199	0x3c9170a7	0.017753912
200	0xbee05b8e	-0.4381985
201	0xbe8ae50d	-0.27127877
202	0xbf0de920	-0.55433846
203	0xbdf993f6	-0.121864244
204	0xbea11b8b	-0.31466326
205	0x3e5ce23e	0.2157068
206	0x3d10ae98	0.035322756
207	0x3f313250	0.69217396
208	0xbe12e934	-0.14346772
209	0xbcd79ba0	-0.026319325
210	0xbdd6b441	-0.104835995
211	0x3e233dc8	0.15941536
212	0xbe52e91c	-0.20596737
213	0xbd29ca2e	-0.04145258
214	0x3f02477d	0.5089033
215	0x3db1de70	0.08685005
216	0x3eb3838e	0.35061306
217	0xbe89a6cc	-0.26885068
218	0xbeba7ef3	-0.3642498
219	0xbd959550	-0.0730387
220	0x3d7cf379	0.06175563
221	0xbf0a42d9	-0.5400825
222	0xbf066a83	-0.52506274
223	0x3eda8c98	0.4268539
224	0xbf1f73cb	-0.6228606
225	0x3e658d71	0.22417237
226	0x3e30e927	0.1727644
227	0xbebe8587	-0.37211248
228	0x3e0a917b	0.13532059
229	0xbe52adbc	-0.20574087
230	0x3d92d9e3	0.07170465
231	0x3d4158c6	0.0472038
232	0x3d954fd0	0.07290614
233	0xbea2812b	-0.31739172
234	0x3e84621d	0.25856104
235	0xbcc0829d	-0.023499781
236	0xbe1ca57b	-0.15297501
237	0x3dd57b56	0.10423915
238	0xbee0bae1	-0.43892577
239	0xbda5a7aa	-0.0808862
240	0xbe7f5189	-0.24933447
241	0x3d3cd645	0.04610278
242	0xbe4c4072	-0.19946459
243	0x3dbb5435	0.091469206
244	0xbdb5c71e	-0.08875869
245	0xbdf0832b	-0.11743768
246	0xbb7d495a	-0.0038648457
247	0x3d3559d4	0.04427512
248	0xbe243ee6	-0.16039619
249	0x3ec93e7c	0.39305484
250	0x3e8649ac	0.26228082
251	0xbe82d7b9	-0.25555208
252	0x3e84b02a	0.25915653
253	0xbe0b7fba	-0.13622943
254	0xbeaaea01	-0.33381656
255	0x3f1bbe3c	0.6083715

model.decoder.2.bias f4 [70]
0	0x3e7d8b2b	0.2476012
1	0xbcd65252	-0.0261623
2	0xbdbd9545	-0.092569865
3	0x3d0bb687	0.03410962
4	0xbdb03103	-0.08603098
5	0x3d784a06	0.06061747
6	0x3e55f485	0.20894058
7	0x3cd19568	0.025583938
8	0x3e1035b6	0.14082989
9	0xbdaa7cd6	-0.08324592
10	0x3e758b24	0.23978859
11	0x3caae1e0	0.020859659
12	0x3e06d32c	0.13166493
13	0xbd982301	-0.074285515
14	0x3d19b960	0.037530303
15	0xbd9ca0d9	-0.07647867
16	0x3d741d13	0.05959804
17	0x3e173ebb	0.14770024
18	0xbdce4063	-0.100708745
19	0xbdbdea0c	-0.092731565
20	0x3e02858e	0.1274626
21	0xbe16d936	-0.14731297
22	0x3da256bb	0.07926699
23	0x3e088756	0.13332877
24	0x3dc8ab79	0.09798331
25	0x3d8f9090	0.07009995
26	0xbe198c45	-0.14994915
27	0x3df90c81	0.12160588
28	0x3db0e92c	0.08638224
29	0xbd6d38b2	-0.057915397
30	0x3e2ce043	0.16882424
31	0x3d014aaf	0.031565364
32	0x3d2a324e	0.04155188
33	0xbd8a190f	-0.06743061
34	0xbdcf22b1	-0.10114039
35	0xbd7d6525	-0.061864037
36	0xbc695c0e	-0.014243139
37	0x3e28a493	0.1646903
38	0x3e0886b0	0.13332629
39	0x3d36a903	0.044594776
40	0x3e5f578b	0.21810739
41	0xbd24e4ae	-0.04025715
42	0xbd8bb36f	-0.068213336
43	0xbd861a77	-0.065480165
44	0x3e11cd0e	0.14238378
45	0x3e00a271	0.12561966
46	0x3e3d9ae5	0.18516119
47	0x3d62c307	0.055361774
48	0x3e2dfa28	0.16989958
49	0x3c341522	0.010991367
50	0x3b0aa85a	0.0021157474
51	0xbc35f9e5	-0.011106943
52	0x3e12abab	0.14323299
53	0x3d739495	0.05946787
54	0x3ce376a6	0.027766537
55	0xbd30b3d7	-0.04314026
56	0x3c28b974	0.010298122
57	0xbd86dcca	-0.06585081
58	0x3ae919d6	0.0017784189
59	0x3d312421	0.043247346
60	0x3e38f8bb	0.18063633
61	0xbd2521e3	-0.04031552
62	0x3c34d070	0.0110360235
63	0x3d5bb16d	0.053636003
64	0x3c2ee379	0.010674351
65	0x3da0b7b9	0.07847542
66	0x3b554ce8	0.003254706
67	0x362a4d00	2.5376794e-06
68	0xbd1d5d2e	-0.03841894
69	0x3e0084d8	0.12550676
