torch_model_storage_24_Jun_2025/model_Late_IA_v_Early_RS_Correct_Het postCLNZ_Late_IA.pt (torch, 12817 bytes, 8 tensors)

model.encoder.0.weight f4 [9, 105]
00000000: 8e09 f1bd 10c2 ad3d 82ce cfbc e3b0 0ebe
00000010: d07a 61bd c43a c0bd 25b0 0dbb faba 83bd
00000020: 0377 b73d b830 3cbc afb5 c4bd a87f a23d
00000030: 5696 d7bc 1126 9d3c 0a53 d3bd e6f8 0bbe
00000040: b547 c43c 05b3 85bc 5b99 343d edc3 12bc
00000050: a8c5 1b3e 357a 2c3d b14b 4ebd 336e f83b
00000060: 9958 143d e3e7 e0bd 936f f1bd 8f45 57bd
00000070: e078 063d b33f e8bb e689 fe3b 5196 92bc
00000080: bfdd 9f3b 88c4 17bd 6a3a 01bd 2929 c1bc
00000090: 9aa2 e9bc 1600 05be 842e 403d 8c47 1a3d
000000a0: 99e6 ba3b f20e 62bc 1b60 113c d4c3 dcbd
000000b0: fd7e f5bc 9fff 82bd 3056 29be 71e5 adbd
000000c0: 4934 453d ef8b 08ba 637a bf3b efe5 eebd
000000d0: f0f7 fabd 72b7 f4bd f660 5f3d 10ae 2ebe
000000e0: 9c65 f2bd 2c9f bb3c 6eed e3bd d7b3 22bd
000000f0: f7c7 33bd c02b 48bc e550 c5bd d884 c53d
00000100: 3500 363d c75c 47bc 3949 9cbd cc9c 10be
00000110: e5fd efbd f9ff b33c 612b ba3c ee35 58bd
00000120: 4d68 4fbd 8c3c 053d e8dc a33c 7892 503d
00000130: ec99 0c3d c917 b7bc b74f 0e3c 7469 e23d
00000140: 8261 6a3c 5bbf e43c e4d0 353c 6fa7 a0bd
00000150: eb11 5a3c 08f8 6b3c 9767 623d 1aea bb3c
00000160: c77d 2c3d 3e36 b63c 6379 09be 021e d4bc
00000170: 6083 57bd b5b6 36bd 19a8 5fbd f72a 963d
00000180: e9fb ffbc 69c5 933c b99e 12bd a0ff 59bd
00000190: fd43 eabd 9557 d6bd 9791 c1bd 65d2 9bbd
000001a0: de5b e83c 93ef a83d 18fd 943e 6ac2 473d
000001b0: 553e be3c a11f a8bd fa3c 9f3b 9172 be3d
000001c0: 2029 383d 13cc 593d 6a87 5b3e ae9e 14bd
000001d0: 6564 d93c 5b56 57be 6d20 a63d 3cc5 36be
000001e0: 5b9b cb3d bc72 823e d268 ffbd 0e71 633c
000001f0: faaa 9a3d d842 4e3e c0f3 863d c3e1 2f3e
00000200: 4641 303e a4e6 a93d e98c 10be 17af 603e
00000210: 3644 8c3e 4d53 8cbc 462b ad3d 5a9f 773b
00000220: 7ce6 2c3e 826b 513d 9695 3e3e 6233 0c3e
00000230: 3983 fb3d 050a 6bbe 17c9 0d3e d7bc ae3d
00000240: 6d63 e4bc dee0 ca3d 7ad3 623e 331f a23d
00000250: 6fe1 683d 2bf4 523c 51e5 913d c86a 9dbe
00000260: abb4 483e 48a5 d33d bb1e dfbc 8c03 3f3d
00000270: 1d70 123f 4c46 cd3d a3fa 193e b255 9e3d
00000280: cdb9 a9bd a92b cb3c b779 283c 590e 283e
00000290: 0763 1c3c 3bfb 903c c1fe 6a3d ee60 083e
000002a0: f6ed 80bc 427a 373e bae7 b33c ddda 313d
000002b0: cb81 68be 8ed7 693e fe79 a93e 74c0 b43d
000002c0: 372c 4bbc 7098 d13c d362 9d3d 054f 753e
000002d0: 5b80 5d3d dfea f43c 880a 3c3e f7e8 183e
000002e0: 662e a63d 68f4 693e 0d62 b73b bf18 0d3d
000002f0: 479c 773d 1953 6d3e 9dfa 0e3e cdda dc3d
00000300: f569 a53d 1705 ba3d 4a58 92bc 0cb9 aa3d
00000310: 3993 233e 101b eb3d d469 2a3e 99af 813d
00000320: fa3d 6d3e fc29 d83d 0927 92bd 7d56 1bbc
00000330: b0ac 423d 5dca a53d 0422 033d 8a68 e4be
00000340: 0ad3 073e 7e01 0dbb 3dff 53bc 1215 a1bd
00000350: 4dcd 9b3d 23a2 c43d 52ff 44be 204c b6bd
00000360: a810 41bd 038a 14bd 1933 803d 20c9 b2bd
00000370: 87eb 053e cc45 92be f8eb 233e 60ff 33bd
00000380: 9bd5 033e b93f 973a 6fae e5bc ff56 55bd
00000390: f4ce bcbd 5cb8 3abd 12ee 14be 0795 debc
000003a0: 0c14 3ebd 4b2b 91bd 112d 243c 355a 0c3e
000003b0: 2679 5cbd 0410 f73d f007 13bd a9f5 d03d
000003c0: 416b 34bc 5b3a f03d 574c bd3d ea02 3b3d
000003d0: b324 d03d 9a95 94bd a1ef 333e cdc5 a03d
000003e0: 5212 00be 1edf 9fbd b6ec 1d3b de05 183c
000003f0: a1ad 003d 0f54 3e3e 07c2 08bd dcdd 253e
-0.117694005 0.0848428 -0.025367025 -0.13934664 -0.055048764 -0.09386209 -0.0021619883 -0.06432147
0.089582466 -0.011486225 -0.09604966 0.07934505 -0.026316803 0.01918319 -0.10318573 -0.13669166
0.023959974 -0.016320715 0.044091564 -0.008957845 0.15212119 0.042108733 -0.050365154 0.007581496
0.036217306 -0.10981729 -0.11788859 -0.05255657 0.03283012 -0.0070876717 0.0077679036 -0.017893942
0.004878729 -0.03705266 -0.03154985 -0.023579197 -0.028519917 -0.12988314 0.04691936 0.03766589
0.005703759 -0.013797509 0.008873011 -0.10779539 -0.02996778 -0.06396412 -0.16536784 -0.08491028
0.048145566 -0.000520884 0.005843447 -0.1166495 -0.122543216 -0.11949052 0.05453583 -0.17058587
-0.11835787 0.022903048 -0.111292705 -0.03972229 -0.043891873 -0.012217462 -0.0963457 0.096444786
0.04443379 -0.012168116 -0.076311536 -0.14122313 -0.117183484 0.021972643 0.022725763 -0.052785806
-0.05063658 0.032528445 0.020002797 0.050920933 0.03432648 -0.022350209 0.008685998 0.1105527
0.014305474 0.027923277 0.011097167 -0.078444354 0.013309936 0.014402397 0.055274572 0.022938777
0.042112138 0.022242662 -0.13425212 -0.025893215 -0.052615523 -0.044607837 -0.05460367 0.07332414
-0.03124805 0.018038468 -0.0357959 -0.0532223 -0.11438749 -0.10465924 -0.09451597 -0.07608489
0.028364118 0.0824882 0.29099345 0.048769392 0.023223082 -0.08209158 0.004859564 0.092991956
0.044961095 0.053173136 0.21438375 -0.03628414 0.02653713 -0.21029036 0.081116535 -0.17848676
0.09941741 0.2547816 -0.12471165 0.013881935 0.075521424 0.20142686 0.065894604 0.17175965
0.172124 0.08295944 -0.14116253 0.21941791 0.2739579 -0.017129565 0.084555194 0.003778419
0.16884798 0.051127918 0.1861175 0.13691476 0.12280888 -0.22953041 0.13846241 0.08532112
-0.027879441 0.09906171 0.22150984 0.07916107 0.056855615 0.012875597 0.07123817 -0.3074553
0.1960017 0.10334259 -0.027236333 0.046634242 0.5720232 0.10023174 0.15037017 0.07731189
-0.08287392 0.024801092 0.010282925 0.16411723 0.009545094 0.017697921 0.05737186 0.13318226
-0.015738469 0.17917731 0.021961082 0.043421615 -0.22705762 0.22836134 0.33100885 0.0882577
-0.012400678 0.025585383 0.07684865 0.23955925 0.054077487 0.029897152 0.18363392 0.14932619
0.081143185 0.2284714 0.0055964054 0.034447428 0.060451772 0.2317623 0.13962789 0.107839204
0.0807685 0.09083002 -0.017864365 0.08336076 0.1597413 0.11479771 0.16641933 0.06332321
0.23168173 0.10554883 -0.071363516 -0.00948107 0.04752797 0.08095238 0.03201486 -0.44611007
0.13264099 -0.0021515782 -0.0129392715 -0.07865347 0.076075174 0.096012376 -0.19238022 -0.089012384
-0.047135025 -0.03626443 0.06259746 -0.08729768 0.13078128 -0.28568876 0.16007984 -0.043944716
0.12874453 0.0011539377 -0.028037278 -0.05208492 -0.09219161 -0.045585975 -0.14543942 -0.027170671
-0.046405837 -0.070883356 0.01002051 0.13706286 -0.053826474 0.120636016 -0.03589624 0.10203106
-0.011011899 0.117298804 0.09243076 0.045657076 0.1016325 -0.07255097 0.1757188 0.078502275
-0.12506989 -0.07806228 0.002409739 0.009278743 0.031415585 0.18586753 -0.033388164 0.16197914

model.encoder.0.bias f4 [9]
00000000: 025f 1dba 88c3 8e3e 9fa0 8bb9 ff3f 9a3d
00000010: 3400 93bb 4e4e bbbd d3ec 1abe 9080 4cbe
00000020: 4708 003e
-0.0006003232 0.27883554 -0.00026631818 0.075317375 -0.004486108 -0.09145795 -0.15129404 -0.19970918
0.12503158

model.encoder.3.weight f4 [2, 9]
00000000: 4dd7 163c 4087 c6bd 7fa4 8bbe 9658 aabe
00000010: e254 773d e2be 443e 6fc6 363e 25f0 123e
00000020: 5d86 85be 5f15 18be eb69 a0be 639a 823e
00000030: dd5b 143c 3168 9d3e 1dbe 923e 85ff 77bd
00000040: f51f 713d d316 62bd
0.009206605 -0.09693766 -0.27273938 -0.3327071 0.060383685 0.19213441 0.17849134 0.1434942
-0.26079074 -0.14851902 -0.3133081 0.25508413 0.009055105 0.30743554 0.2866067 -0.060546417
0.058868367 -0.055197548

model.encoder.3.bias f4 [2]
00000000: 1d53 b33d 4730 a53e
0.08756087 0.32263395

model.decoder.0.weight f4 [9, 2]
00000000: 6ada f23d 3226 b4be b1b5 ebbe 41e4 663e
00000010: 8142 743e f699 c23c c517 f3be 8f61 d5be
00000020: 1d61 1c3f 32ab e63d 26c5 123f 6dd5 623e
00000030: 8acc 32bf f3a8 9a3e 9ecb 34bd ccc5 f8be
00000040: fe7e cd3e 876e e6be
0.118580654 -0.3518539 -0.46037057 0.2254801 0.23853494 0.023755055 -0.47479072 -0.41675994
0.61085683 0.11263122 0.57332075 0.22151728 -0.6984335 0.30207023 -0.044139497 -0.48588407
0.4013595 -0.450062

model.decoder.0.bias f4 [9]
00000000: 446c b13e 7199 a63e a07c 8f3d b164 8ebe
00000010: 767a 393e 0a50 8cbe 68d3 60be b3e4 803d
00000020: af68 063f
0.34652913 0.32538942 0.07006192 -0.27811196 0.18113121 -0.27404815 -0.21955645 0.06293621
0.52503484

model.decoder.2.weight f4 [105, 9]
00000000: ecc8 653e 2ebf ffbb 3b2b 7dbd 0853 0abe
00000010: def1 163e 4b23 ecbe 6b4c 1b3d afc2 233e
00000020: 0442 00bd c3ff 643e 6789 003e 66b3 11be
00000030: a698 723e ef38 edbd f383 9e3d 6530 a6bd
00000040: 7586 023e 51ad ae3e 5eb2 0bbe f78b 753c
00000050: 8350 4abe 8b29 063e bf3d e13d 72df 3dbe
00000060: dead d7bd 7db5 a83d f306 20be 1e51 23be
00000070: 10c3 12be ecb5 913e 424f 803d 08c8 34be
00000080: 9961 8cbc c513 933e fdba a7bd 392c cdbc
00000090: 77aa 953e 5bd8 09be f8e9 dd3e 18cb d1be
000000a0: 05fe df3e cba0 cb3d abb6 5bbd 17fa e23e
000000b0: 97f8 94bd 22f7 973d a286 1abd 5c88 9fbb
000000c0: c700 eb3c 53bd eebd 3710 313e 8711 6abe
000000d0: ff2f bebc ef62 95bc 324e 2b3e 3b02 aabd
000000e0: d706 99be 9fe2 1e3e e68b efbe 8c73 d53e
000000f0: 7c84 7fbe d0fc 6fbe 8f2b 3e3e 686b 00be
00000100: 699e 50be 293d 753e 7890 de3d 275f 673e
00000110: 9725 e1be a53a b2bd c736 313e 3b99 6ebd
00000120: 6a0d 7b3d a5f0 aabe a07b c6be 7b55 80be
00000130: 8f5d dfbd f29a 1bbe ee7e 263e e82d dc3d
00000140: 5a3f e0bb b488 7cbd 7d1f a83d 7c4a 00bd
00000150: 8790 e4bd 4496 5d3e 710d e4be 1e28 86be
00000160: 7a26 003f 986a 8b3e b0ec f03d fe30 ce3e
00000170: 78e5 64be 348f 79be ab9d a03d 6dba 18bd
00000180: 91a2 dd3e e23c 823d ed80 31be 88b8 523d
00000190: 4cb5 303d 9ad2 a93e eb0a 4bbd b63a ff3e
000001a0: 5407 df3d 394b 02bf 6e3e f13c 06ef 0c3f
000001b0: 45f1 abbe 9a29 543e b263 d6bc b1dc 58be
000001c0: bee1 183e 5100 1ebe 5762 2e3e 6b57 85be
000001d0: 70c7 6bbe dd73 663e d5a7 60be 93bb a73d
000001e0: 53bb 16be 0af0 aebe 0155 8dbe 6a7e 45bc
000001f0: e169 cabd 13c2 8f3d def6 6d3e 07e9 063f
00000200: 9c36 563e eafc 61be 6b69 fc3d c0fc db3d
00000210: 2891 073f 3237 86be aa7c 41be d4be 973d
00000220: d24b d53d 8a8e d23e be81 843d 274f e63d
00000230: e99b 36bc 1b25 b03d 0a1a 393e 60a2 56bb
00000240: 6e40 8b3e 8bae 0f3d 6907 b33d f973 3bbe
00000250: 152a a63c 5851 a0be 2c21 90bd 57d3 2b3e
00000260: a533 a73e 9d79 d93d b71f 1e3e 8c68 b23e
00000270: 97a4 49be cd94 6d3d 91de 633e de40 eabd
00000280: ca09 03bd 32ed a2bc c08f 50be c858 88be
00000290: c6f1 fd3d 1edc 4fbd f91c dfbd 87bd 803c
000002a0: ef3f 023b de35 72bb 5010 993e 67a4 d93d
000002b0: b70a 733d 4bfc 08bd cb38 00be aa0d c03c
000002c0: c257 7b3c 1f3d 973e 46b9 ba3e fcac c53d
000002d0: eb0e ac3e 5e41 20be 8cc3 dcbd 5b1a 103e
000002e0: d948 a73e 760b d6be ec16 6d3e a127 223d
000002f0: 67c2 d83e 2738 37be a6df 083e fdb9 38be
00000300: f9e2 a0bd d815 943d 5e9e e13d 37b0 bdbe
00000310: 5264 1f3f 450e ccbd a00a f5bc 3cc8 033d
00000320: dc4c 463e c64e f7bb 1e61 a53d 839a 01be
00000330: 1e1c 3a3e b3ea b03e 11c7 393e 9d94 fa3d
00000340: d9c8 77be 6ab9 79be 706a 343e 028d 613e
00000350: a793 b93d a8f7 c43d f936 bf3e e3bc cbbc
00000360: bf7f 863d 9498 723e 87ef 1c3d e80a 46be
00000370: 8ede 74be 1695 15be d835 bbbe d319 f93b
00000380: 5b90 363e 9414 8abe 7a1c cd3d 51ce 7ebe
00000390: 743c 85be 5d1e cc3d 6414 94be 18e9 a33a
000003a0: 2a1f 3bbe 6b78 32be 5beb 163e 4fa4 d53e
000003b0: 1123 173e 3b60 14be 4b8a efbc d7dd 7dbe
000003c0: 6495 bebd aa57 293f 9b65 e43d bfb9 1abd
000003d0: cf53 a43e c0c7 b23e 877c 763e 0663 06be
000003e0: 3308 05bc 87fa 773e 6ea2 203f f26b 80bc
000003f0: 9a3b ba3e 4e89 2dbe f607 58be c537 3bbe
0.22439927 -0.007804773 -0.061808806 -0.13508236 0.14740703 -0.46120676 0.037914675 0.15992235
-0.031312957 0.2236319 0.12552415 -0.14228591 0.23691043 -0.11583125 0.07740011 -0.08114699
0.12746604 0.34116605 -0.1364226 0.0149869835 -0.19757275 0.13101785 0.10998105 -0.18542269
-0.105312094 0.08237741 -0.15627651 -0.15948913 -0.14332223 0.28459108 0.06265117 -0.17654431
-0.017136382 0.2872602 -0.08189962 -0.025045501 0.29231617 -0.1346144 0.43342566 -0.4097526
0.4374849 0.09942778 -0.053641003 0.44331428 -0.07273977 0.07420184 -0.037726052 -0.00486855
0.028686894 -0.116572045 0.17291342 -0.22858249 -0.023216246 -0.018235652 0.16729048 -0.08301207
-0.2988803 0.15516137 -0.46786422 0.41689718 -0.24952883 -0.23436284 0.18571304 -0.12540972
-0.20372929 0.23949112 0.10867399 0.22594891 -0.4397399 -0.08702592 0.17306052 -0.0582516
0.06129209 -0.33386722 -0.38766193 -0.25065216 -0.10906517 -0.15195826 0.16259357 0.107509434
-0.0068434896 -0.061653808 0.08209131 -0.031321034 -0.11160379 0.21639353 -0.44541505 -0.26202482
0.5005871 0.27229762 0.117638946 0.40271753 -0.2235316 -0.24371034 0.07842573 -0.037287164
0.4328809 0.06359269 -0.17334338 0.051445514 0.04314165 0.3316849 -0.04957096 0.4984948
0.108900696 -0.5089603 0.029448714 0.5505222 -0.33582512 0.20718995 -0.026170585 -0.21177937
0.14929864 -0.15429808 0.17029701 -0.26043257 -0.23025298 0.22505136 -0.21939023 0.08190074
-0.14719896 -0.3416751 -0.27603915 -0.012054065 -0.09883476 0.070194386 0.23238704 0.5269932
0.2091927 -0.22069135 0.123247944 0.107415676 0.52955866 -0.26213986 -0.18895212 0.074094445
0.10414852 0.41124374 0.06470059 0.11245566 -0.01114557 0.08600827 0.1807634 -0.0032750592
0.27197593 0.035078567 0.08741648 -0.18305959 0.020283738 -0.3131206 -0.07037577 0.16779839
0.3265659 0.10618899 0.15441786 0.34845388 -0.19691692 0.058003236 0.22252871 -0.11438154
-0.031991757 -0.019888494 -0.20367336 -0.26630235 0.1239963 -0.05074703 -0.10894198 0.015715374
0.0019874533 -0.0036958377 0.29895258 0.106270604 0.05933639 -0.03344373 -0.12521665 0.023444016
0.015340747 0.2953882 0.36469477 0.09652135 0.33605132 -0.15649936 -0.10779485 0.14072554
0.32672766 -0.4180562 0.23153275 0.039588574 0.42335817 -0.17892514 0.13366565 -0.18039699
-0.078557916 0.07230729 0.11016534 -0.37048504 0.6226245 -0.09963659 -0.029912293 0.03217338
0.19365257 -0.0075472323 0.08075164 -0.12656598 0.18174788 0.3455406 0.18142344 0.12235377
-0.24197711 -0.24387136 0.17618728 0.22026446 0.090613656 0.09617549 0.37346628 -0.024870342
0.065673344 0.23691016 0.03831437 -0.19340098 -0.23913023 -0.14607653 -0.36564517 0.0076019554
0.17828505 -0.26968825 0.10015197 -0.24883391 -0.26022685 0.09966729 -0.28921807 0.001250538
-0.18273607 -0.17428748 0.14738218 0.4172692 0.1475947 -0.14489834 -0.029240748 -0.24791656
-0.09305838 0.6614939 0.11152192 -0.037774798 0.3209519 0.34918022 0.24070941 -0.13123712
-0.008119631 0.24216662 0.6274785 -0.015676472 0.36373597 -0.16946909 -0.21096787 -0.18282993

model.decoder.2.bias f4 [105]
00000000: 5765 01bd ac42 91bd 92d1 303e d4fb 5e3e
00000010: 1b31 f23d 6197 623e 8a1c ef3d 438f 7a3d
00000020: eebc 223e 0908 80bd 40ee 6b3d aeb4 8a3d
00000030: e620 7f3e 3986 b53c 649f ac3d e316 45bd
00000040: dd20 a93d fd11 263e 32c1 583e b36c 213c
00000050: b8b9 04be fc38 983d 7873 41bd 5fca 1e3e
00000060: 6e63 acbc 0c84 373e f03b 363d 8165 663e
00000070: 337b e13d d9ed 113d 513e 2e3e ad13 df3d
00000080: 2bdd ff3d d31c 183e 1d0f 81bd ce12 403d
00000090: fa78 d03b 2309 9cbc 0cb4 533e 11ce 5e3d
000000a0: 6229 2a3e a7db 6d3d 1dee 143e e49d 363e
000000b0: 8a74 eebd 56a2 27bd 14a4 e53d e29b 5c3e
000000c0: 9ee8 1fbe bfe4 513e 1f86 8ebd b01b 663e
000000d0: 2ba5 c9bd fd2b 0d3e ec91 1f3e 0c35 2b3b
000000e0: 877b 28bc f990 3d3d d1e6 a23d 76ac cd3c
000000f0: 9390 f8bd 1a54 703e e9ad 2abe 69c8 88bb
00000100: 2afe 2b3e b8ea 113e 7542 c7bd b5d3 963e
00000110: a174 c7bd 33cc 723e 30d9 373e 775b 17bd
00000120: 1d77 19bd 9170 c93d 64af 5b3c c69e 703e
00000130: 7ca0 c0bd e51a 563d 1451 103d 9c0f d53d
00000140: 8ceb f3bd d508 de3d b7ab b4bd b8b2 7fbd
00000150: 9fb5 5b3e ec56 273e e78d 56bd bd0d 113e
00000160: 9af9 0dbe 806a d6bd 041e ae3c 1924 67bd
00000170: 9b0d 7d3d 61a1 08be 6282 103e af1a c6bd
00000180: d305 8a3d cfc0 afbd cf82 74bd 0e52 1d3e
00000190: e454 86bc d5c8 533e bdf0 e63e 24b1 c63d
000001a0: 36cf 143c
-0.031590786 -0.07092795 0.17267445 0.21775752 0.118257724 0.22128059 0.11675365 0.06117178
0.15892383 -0.062515326 0.05760026 0.06772743 0.24914894 0.022158729 0.08428839 -0.04811753
0.08258221 0.162178 0.21167448 0.009852576 -0.12961471 0.07432744 -0.04722926 0.15506886
-0.021043506 0.17921466 0.044490755 0.22499658 0.110098265 0.03562722 0.1701596 0.10892425
0.12493356 0.14854746 -0.06301711 0.046892934 0.006362078 -0.019047325 0.20674151 0.05439574
0.16617349 0.058070805 0.14543958 0.17833668 -0.11643322 -0.0409263 0.11212936 0.2154384
-0.1561608 0.20497416 -0.06959175 0.224715 -0.098459564 0.13786311 0.15583009 0.0026124148
-0.010283357 0.046280835 0.07954181 0.02510665 -0.1213695 0.23469582 -0.16667904 -0.0041742814
0.16796175 0.14249694 -0.097294725 0.29458395 -0.09739042 0.23710708 0.17953944 -0.036952462
-0.03746711 0.098359235 0.013408516 0.23498067 -0.0940561 0.052271742 0.035233572 0.10403368
-0.119101614 0.10841528 -0.088218145 -0.0624263 0.21456002 0.16341752 -0.052381422 0.14165397
-0.13864747 -0.10469532 0.021254547 -0.05643091 0.061780553 -0.13342811 0.14112237 -0.09673058
0.06739392 -0.08581697 -0.05969506 0.15363333 -0.0163979 0.2068208 0.45105544 0.09701756
0.009082606
