torch_model_storage_24_Jun_2025/model_Late_IA_v_Early_RS_Correct_WT CLNZ_Early_RS_Correct.pt (torch, 9161 bytes, 8 tensors)

model.encoder.0.weight f4 [9, 54]
00000000: 412a e63d c02d 96bc 0312 41bc a4e1 bf3d
00000010: f1ba 353e 55d5 063e e14c 2c3e 8d7e 3f3d
00000020: e42b 023e cbfb 963d 5626 09bc be5d 24be
00000030: 09d3 53be 8237 1fbe fe4e e43d 60df 553e
00000040: 326f 013e a971 b8bd 3266 b03d 548d 953b
00000050: 762a 543d e0f5 583e 8598 27bd f1c3 ee3d
00000060: 70c0 1dbf a8f1 9ebd c649 773e 5acb 6b3e
00000070: 00a2 ff3c c70d 86bd 6209 4cbc 7210 133c
00000080: b36f 89bd 7392 af3d 3ee7 883d f1e2 153d
00000090: ab16 163f 2f4c c1bd cd01 ce3e e460 ca3d
000000a0: 2e11 d03d d66d 883e fb5a 803e b4cb 543e
000000b0: 8729 dc3c 36a1 473d 7673 3c3e 7200 be3d
000000c0: 55a0 573d bbd2 383e bc94 b83b 8bd7 c7be
000000d0: 7ef8 0b3e ae5e e2bb 23d5 073d e3db 233e
000000e0: 4fd6 fcbd 1b54 b9bd d811 813e 53c1 793e
000000f0: 410a ae3d f87e bdbd 3a26 28bd f5e6 423d
00000100: 18a2 88bd 2c5b 68bd 8258 2fbb 3175 2ebe
00000110: 60b6 403d 7023 07bd 1568 0b3e 0db0 fc3c
00000120: 6117 423c 751d 073e 3021 063e a7e0 a13d
00000130: 5b4f 33bd e844 6c3e c466 14bf 842d 3dbe
00000140: 15f1 dc3d 1bbd 793e 5589 32bd e57c e63d
00000150: d58f c13d 13ec 36be 07b1 b1bd e510 3f3e
00000160: f600 323e 08c1 e6bd 42ef ab3e b261 003d
00000170: 7104 803d 2a5b 313e fa71 dd3c c515 c6bd
00000180: 252f 6f3e c4a2 cd3d e63c 2abd 2afa 63bd
00000190: bed0 0b3e 39c6 313e f5f1 54be 563a 2a3e
000001a0: e0a3 7fbd 35a0 6fbe 1904 0ebd 22c1 a6bd
000001b0: 0141 3d3d 9ee4 863b 6cd6 23be fbc0 643c
000001c0: 38a8 40bd 3056 3fbe f45f 71bd 0cf5 3dba
000001d0: e8c9 edbd c118 4d3d ab4a 0b3c 19d6 a9be
000001e0: 2419 cbbd 0403 3abe fa7c 8bbd 8dba 1e3d
000001f0: 1cb3 7d3d cea9 43be d4b4 533d 3107 c4bc
00000200: 51b3 aa3b d859 89be 9f58 90be 2399 68be
00000210: 6061 17bf 98fe 48bd 3062 a0be 0df7 e9bc
00000220: aee1 89be be53 7bbe d861 133e a377 a1bd
00000230: 7a28 82be 9d87 573d 9737 f8bd 53b4 d8bd
00000240: eb41 b6be 2522 80be b334 90be 095a 09be
00000250: 4e95 afbd be86 b6bc 904b 98bc 8644 8dbd
00000260: 3441 2ebe 91b8 dfbe 8431 c6bc 431b 93bd
00000270: 0168 50be 1da6 223e 24d8 95be 299c b9be
00000280: e3e0 babd c6eb 733c 7115 1dbd 8066 34be
00000290: f229 4cbe 829a a43c fc1a c3bd f3b4 0dbe
000002a0: 100c 5fbe 0c40 a3bd 98b5 543d 6f80 38bd
000002b0: ca45 99bc 604b 2cbd a43b 29bd b097 4dbd
000002c0: 72a7 38bc 071c 463e e80e f53d 3c17 6fbd
000002d0: e812 103e cdf4 693d 3fca 213e fd68 ad3d
000002e0: 9763 18be 0eef c2be 56d6 243f 369e 9b3d
000002f0: 255e f8bd d0bb 8fbe d3f8 6ebe 6164 363d
00000300: e3c1 e03d 32f7 b33d f218 14bd 451d 2ebc
00000310: cc78 b3bc 51fc 68bd 12d0 c2be bfc3 4fbe
00000320: ca5b 9cbe 68fe 18be 173c 823d 1534 c6bd
00000330: 0f3a ecbc e2d6 d63d c37f f6bd 4585 5a3d
00000340: f1d4 22be 0c4e 46be d2dc 06bc 08f2 36be
00000350: 773a 56bd 3e96 06be d83f 20be 2bbf bbbd
00000360: 9bea e3bc 3649 0dbd 4cd9 ba3d 1c2c 3bbe
00000370: fc8d 5ebd 3051 483d 7dc5 273c ca82 503d
00000380: ba23 95bd c759 a4bd 3ca2 b5bd a5ae 8b3d
00000390: 6ddb dc3d c97a 3d3e 677a 97bd 7cf8 4cbe
000003a0: 5132 a2bd 75e0 103e 2178 90bd 846f 683d
000003b0: 7d98 b33b 7589 d63d 9d79 c33d 0e18 383e
000003c0: de8b 183f 2e68 dfbc c0c9 f7bc 07ea 93bd
000003d0: 1e67 623e fc7d 943d 264c 0bbd f08e ad3d
000003e0: d774 6a3d c899 f53c f41e 9bbd 3afc c23c
000003f0: da44 e13d c03c ee3d 1448 6f3e 3303 a4bc
0.11238528 -0.018332362 -0.0117840795 0.093692094 0.17747094 0.13167317 0.16826202 0.046751548
0.12712055 0.073722444 -0.008370956 -0.16051385 -0.20685972 -0.15548518 0.11147879 0.20885992
0.12640074 -0.09006054 0.08613242 0.0045639668 0.051798306 0.21187544 -0.04091694 0.116584666
-0.6162176 -0.07760936 0.24149236 0.23026791 0.031205177 -0.065455966 -0.012453409 0.008976089
-0.06710758 0.08572855 0.06684731 0.03659338 0.5862834 -0.09438359 0.4023575 0.09881762
0.10159527 0.26646298 0.25069413 0.20780832 0.02687527 0.048737727 0.1840342 0.09277429
0.05264314 0.18049137 0.005632965 -0.39031634 0.13669011 -0.0069082594 0.033162247 0.16001849
-0.123455636 -0.09049245 0.25208926 0.24390154 0.084980495 -0.09252733 -0.04105208 0.04758354
-0.06671542 -0.056727573 -0.0026755636 -0.17036892 0.047048926 -0.03299278 0.13613923 0.030845666
0.011846394 0.1319483 0.13098598 0.07904177 -0.04377685 0.2307316 -0.5796931 -0.18474394
0.1078817 0.24388544 -0.043588 0.112542905 0.09451262 -0.17863493 -0.086763434 0.18658789
0.17383179 -0.112672865 0.33580977 0.03134317 0.06250847 0.17319933 0.027031887 -0.09672121
0.23357828 0.10040811 -0.041561984 -0.055658497 0.13653848 0.17360772 -0.20795424 0.16623816
-0.062412143 -0.23400958 -0.034671877 -0.08142306 0.04620457 0.0041166088 -0.15999764 0.013962026
-0.047035426 -0.18685222 -0.0589294 -0.00072462927 -0.11610776 0.050072435 0.008501689 -0.33171156
-0.099169046 -0.18165213 -0.06810947 0.038752127 0.06193839 -0.19107744 0.051686123 -0.02392921
0.0052093645 -0.26826358 -0.28192613 -0.22714667 -0.5913296 -0.049070925 -0.3132491 -0.028560186
-0.26929992 -0.24543664 0.14392793 -0.07884147 -0.25421506 0.052619565 -0.12119978 -0.10581269
-0.35597166 -0.2502605 -0.28165206 -0.13413252 -0.085733995 -0.022281047 -0.018590719 -0.068978354
-0.1701706 -0.436955 -0.024193533 -0.07182934 -0.20352174 0.1588368 -0.29266465 -0.36251953
-0.09124925 0.014887756 -0.038350526 -0.17617226 -0.19937876 0.020093206 -0.09526631 -0.13838558
-0.21781945 -0.079712 0.051930994 -0.04504436 -0.018710036 -0.04206407 -0.041316643 -0.05019349
-0.011270391 0.19346629 0.11965734 -0.058371767 0.14069712 0.057118226 0.15799807 0.084672906
-0.1488174 -0.3807301 0.6438955 0.07598536 -0.12127332 -0.28072977 -0.23337106 0.044529323
0.10974481 0.08787383 -0.036156602 -0.010627096 -0.021908186 -0.056881253 -0.3804937 -0.20289515
-0.3053878 -0.14940798 0.063591175 -0.096779026 -0.028836278 0.104902044 -0.12036087 0.053349752
-0.15901543 -0.1936571 -0.008231359 -0.17865765 -0.05230185 -0.1314325 -0.15649354 -0.09167322
-0.02782183 -0.034493648 0.09123477 -0.18278545 -0.054334626 0.04890555 0.010239956 0.05090598
-0.07282205 -0.08024936 -0.088688344 0.0682042 0.1078404 0.1850387 -0.07396393 -0.20016664
-0.07919753 0.14148124 -0.07054163 0.056746975 0.0054808245 0.104754366 0.0954468 0.17977926
0.5958842 -0.027271356 -0.03024757 -0.072223715 0.22109649 0.07250592 -0.034008168 0.08474529
0.057240333 0.029980555 -0.07574263 0.023801912 0.109994605 0.11632681 0.2336734 -0.020021057

model.encoder.0.bias f4 [9]
00000000: c92d cebd 463d b63c 9ab0 093e dde8 623e
00000010: 064f 833d 826b e33d 60eb a4bc b916 c93d
00000020: ebd5 e3bd
-0.100673266 0.022246014 0.13446274 0.22159143 0.06411557 0.1110449 -0.020131767 0.09818787
-0.11124786

model.encoder.3.weight f4 [2, 9]
00000000: e37d 77be a92b 83be fac2 f8bd 573f 8a3e
00000010: 5b5f 3d3e 8e92 143e 1b3c 09be cbcf d53e
00000020: a38a 6f3d ed61 433e 66ba 2f3d 9e25 c3be
00000030: e37e 2ebe 1031 0a3e e40b 98be d3b8 3e3e
00000040: a7ac 01be 0415 3f3e
-0.24169116 -0.25619248 -0.12146564 0.2700145 0.18493406 0.14509031 -0.13401835 0.41760096
0.058481824 0.19080324 0.042902373 -0.38114637 -0.17040591 0.13495278 -0.29696572 0.18625192
-0.12663518 0.1866036

model.encoder.3.bias f4 [2]
00000000: d6bc 7e3d 0e90 8dbe
0.062191807 -0.27648968

model.decoder.0.weight f4 [9, 2]
00000000: c2a8 ad3e 479b 463f 6416 af3e 6636 b7be
00000010: fcd1 a3be 4b25 b13e 3c27 eb3e dba1 6d3e
00000020: 2f7b 9f3e a2c6 d33d 5597 abbe a4b9 e93c
00000030: 7f93 e53e bb75 0bbf 6f8d 203f ddee bb3e
00000040: 9f65 f43e ffab 843e
0.33917814 0.77580684 0.3419677 -0.3578369 -0.31996143 0.34598765 0.4592837 0.23206274
0.3114867 0.103406206 -0.33513895 0.028530903 0.44839093 -0.5447652 0.6271581 0.36705676
0.4773378 0.25912473

model.decoder.0.bias f4 [9]
00000000: 5647 68be 7165 45be ebc9 bbbd 5953 8fbe
00000010: fcc7 6ebe dbae ab3e 3995 e6be 4220 82bc
00000020: f61e 263e
-0.22683463 -0.19276978 -0.09169372 -0.27993277 -0.23318475 0.33531842 -0.45035723 -0.015884522
0.16222748

model.decoder.2.weight f4 [54, 9]
00000000: f718 953e 3793 923e 1fb4 b13b 72ae 233e
00000010: 77c9 903e 439e 003e d4e0 01be cd4c 11be
00000020: bd56 3abe 8cee a3be 4769 36be e187 963d
00000030: 4d44 5fbe 279f 5e3e 707b 463e f8c2 a7be
00000040: ccd0 52bc 3444 8c3e bc33 8c3e 1139 b13d
00000050: 663f 7ebe 6f02 9f3d a198 9e3e a7f2 2e3e
00000060: b8fc 98be 7d64 62be 499e 2c3e c6d8 003e
00000070: d667 993d a23e 0abe 32c0 94bd 7909 23be
00000080: e3f1 563e 5d56 d0bd fc0e de3e 19f0 0abe
00000090: ce20 c43e 120f 603e 0edf c63e 4a3b 8e3d
000000a0: 0481 433e 409f cb3d de9b 913e d7ed a6bd
000000b0: e0d3 48be 38a4 4a3e 9b73 6d3e d437 ba3e
000000c0: 7a9b 91bd 0941 773e 8c55 09bd de8f 30be
000000d0: daf5 f6bd b285 843c 1914 523e b4f9 ecbd
000000e0: 4095 a13d 5592 5fbd d475 56bc 9d7f abbc
000000f0: 240a 42be 5f90 913b 562d 96bd e482 b03e
00000100: e496 5fbe d831 aabe 068f 91bd 619c f1be
00000110: 19ab 523e 69fa ee3d 29c3 c53c 2800 0c3e
00000120: bc24 7e3c f678 18bd 1a1c 303e 49e6 c7bd
00000130: 08eb a83e 2793 5dbd d9b5 22be 3088 b13e
00000140: 30a8 b7be dc34 8f3d a491 0bbe 266c 503e
00000150: f198 64bd e0bb abbe e35f 4bbe 1592 173e
00000160: e8b9 49be 8ec4 5e3e d89a 273e 1351 25be
00000170: 0cf8 8dbe 3aa4 27be 2a25 40be d4fe 673e
00000180: 33a8 cdbd 4215 563e 4cc8 afbc c374 b93c
00000190: d01f 75be 036f b3bd bed9 91bd a743 443c
000001a0: 9a99 ee3d 2a60 59be 9885 893e 2561 313e
000001b0: b841 64bc 990b 8abd 08e8 c4bd 2b76 86bd
000001c0: ae9a 223a 0377 34bd 4bb9 a6be 8b14 cbbc
000001d0: ed49 923e acc7 703e 0062 9cbc 4f3f 8ebe
000001e0: 9e1c dd3d 2763 f1be 29d0 763e 3a94 c9be
000001f0: 0f66 a03e 1560 e53d a3a1 713e a76d 423a
00000200: 4f5d 0fbd 4b98 033e 9552 2cbe e336 683e
00000210: 3dcc 453e bcb9 9dbd 8c6d 183e 3c70 b93d
00000220: 3efa 1a3e 6351 283e 08b9 b7bd 898c 8abb
00000230: d293 5f3e 0bb5 5c3e 9fb7 3a3d 5335 373d
00000240: 8155 183e 50d1 de3d e9b1 b2ba ec57 1d3e
00000250: 63c4 d2bd 91b4 903d 3f06 9dbd 2966 97be
00000260: ad06 a0bd 03de 4fbd beb4 b2be c8cc 583b
00000270: d1af 193e f7f5 e1bd 6824 d0bd 4143 08bd
00000280: a0db 0abe 641f 5c3e 60b9 243c 7c27 90bd
00000290: ecd5 f03c f36f f9bd 3486 213d 6b73 263e
000002a0: 290f 0a3d 8885 943e a78e ecbd f9e2 953d
000002b0: 02ce 58be a083 7b3d 61bf 213e 0a63 80bc
000002c0: 8302 273d 79fc 783e 78cb 23bc 7ac4 3e3c
000002d0: b721 fe3d 0d98 6b3e 1c12 303c 1ed4 3d3e
000002e0: f599 e23d 7dd2 303e 5d19 cebd 05ef 99bc
000002f0: e5cb 5dbe ca72 7e3e 3138 02be 4c91 0e3e
00000300: e461 463a 25d2 e43e da60 fb3d b7fa d03e
00000310: b325 9ebe 2f3f 2a3e ed57 d13e 6bec 373e
00000320: 1f78 acbd 801c 793e 6a9e 81be c5a5 a0bd
00000330: 2e27 8cbd f733 e3bd ed2b c4bd aaf0 a33e
00000340: 43ed d6bd 1c11 ba3e f6be 703e 11b9 573e
00000350: 5eea 973e a0f8 30be 0312 4d3e 4ab7 4abd
00000360: aa98 6c3f 2056 aa3e 5b2d 21bf 62ae ec3e
00000370: de2d cb3e d3bb 20be d391 ac3e d627 5f3f
00000380: 16c8 623f 8124 653e e4c5 583e c5fd aabd
00000390: 4ad1 a5be 2782 8c3e bad2 70be 6b8a 43be
000003a0: fb5c b6bd 43d3 05bd d48d be3e 8c28 29be
000003b0: 23b5 173f 7bfa 9b3e 41d5 513d d557 3bbd
000003c0: 5ec0 b6bd be6d 413e e00a b63c 3caa 1c3e
000003d0: f9d4 f8bd 94de ee3e 7d62 ba3e aa53 b73e
000003e0: b70b d03e a692 f7ba 99b2 03bd 9460 9e3b
000003f0: 17bb 773e 0129 b3be 9dc4 703d 1fd1 bd3d
0.2912061 0.2862794 0.0054230834 0.15984514 0.28278705 0.12560372 -0.12683421 -0.14189453
-0.1819715 -0.32017934 -0.17813598 0.073501356 -0.21803398 0.217404 0.19383025 -0.32765937
-0.012867164 0.27395785 0.2738322 0.08653463 -0.24828872 0.07764136 0.30975822 0.17084752
-0.2988031 -0.22108646 0.16857256 0.12582693 0.07490508 -0.13500455 -0.07263221 -0.15921582
0.2099071 -0.101727225 0.43370807 -0.13568152 0.38306278 0.21880749 0.38842052 0.06944902
0.19092184 0.09942484 0.2843923 -0.08150833 -0.19612074 0.19789207 0.23188631 0.36370718
-0.07109733 0.24145903 -0.03352885 -0.17242381 -0.12058611 0.016177032 0.20515479 -0.115710646
0.07889795 -0.054582912 -0.013089616 -0.020934874 -0.18949181 0.004442259 -0.07332866 0.34474862
-0.21834904 -0.33241153 -0.07107358 -0.4718962 0.20573081 0.11668856 0.024140911 0.13671935
0.015511688 -0.037224732 0.1719822 -0.0976072 0.32991815 -0.054095414 -0.15889682 0.34674215
-0.35870504 0.06992504 -0.13629776 0.20353755 -0.05580992 -0.33541775 -0.19860797 0.1480182
-0.19699824 0.21754667 0.16367662 -0.16144209 -0.27728307 -0.16371241 -0.18764177 0.22655803
-0.10041847 0.20906547 -0.021457814 0.022638684 -0.23937917 -0.08761408 -0.07121609 0.01197902
0.11650391 -0.2122809 0.26859736 0.17322214 -0.013931684 -0.06740493 -0.09614569 -0.065655075
0.00062028586 -0.04405881 -0.32563242 -0.02479007 0.28572026 0.23513669 -0.019089699 -0.27782676
0.10796474 -0.4714596 0.24102844 -0.393709 0.31327865 0.11199967 0.23596816 0.0007416852
-0.035001095 0.12851064 -0.16828378 0.22677188 0.19316192 -0.07701442 0.14885539 0.0905461
0.15134522 0.16437297 -0.08970839 -0.004228179 0.21833733 0.21553437 0.04558527 0.04472859
0.14876367 0.10879767 -0.0013633344 0.15365571 -0.10291364 0.0706569 -0.07667207 -0.2957013
-0.07813773 -0.050748836 -0.3490352 0.0033081044 0.15008475 -0.11033242 -0.10163194 -0.033267263
-0.13560343 0.2149635 0.0100539625 -0.07038781 0.02939888 -0.12179556 0.039434627 0.16254966
0.033705864 0.29008126 -0.11550646 0.07318682 -0.21172336 0.061404824 0.15795662 -0.015672226
0.04077388 0.2431506 -0.009997241 0.011643523 0.12408774 0.23007222 0.010746505 0.18537948
0.11064521 0.17267795 -0.100634314 -0.018790731 -0.21659811 0.24848476 -0.12716748 0.13922614
0.00075676874 0.44691578 0.12274332 0.4081628 -0.30888137 0.16625665 0.40887395 0.1796128
-0.08421349 0.24327278 -0.25316173 -0.07844118 -0.068434104 -0.11093896 -0.09578691 0.3201955
-0.10494473 0.36341178 0.23510346 0.21066691 0.29670995 -0.17282343 0.20026402 -0.049491204
0.92420447 0.33268833 -0.6295983 0.46226794 0.3968343 -0.15696649 0.33705005 0.8717016
0.88586557 0.22377206 0.2116924 -0.08349184 -0.32386237 0.27443048 -0.23517886 -0.19095771
-0.08904453 -0.032672178 0.3721758 -0.16519374 0.5926077 0.3046454 0.051228765 -0.04573806
-0.0892341 0.1888952 0.022221982 0.15299314 -0.12149996 0.4665419 0.36403266 0.35806018
0.40633938 -0.0018888309 -0.032152746 0.0048332904 0.24192463 -0.3499222 0.058781255 0.09268402

model.decoder.2.bias f4 [54]
00000000: f552 083e df90 003d 94c3 753d 11ac 2bbc
00000010: 858e 4d3e 093d c83d 7784 433d 62e4 abbd
00000020: 5eee a23d e56d 923d 9c52 abbd 4da8 78bd
00000030: 9090 8dbd b069 bcbd 5721 893d 83bc 373d
00000040: b27e e73d 0505 4b3b cad3 1c3c 2e6e 603d
00000050: 1a4c 003e 31a5 043e 3bcb a53d 7414 d23d
00000060: c720 983e dc30 513e 7483 2b3e 16ec d43d
00000070: dca8 d9bc 022f 183e fc00 b43d e197 d1bc
00000080: 2cf4 3c3d 4ce7 f63d a5fd 8abd 9ae3 103e
00000090: ae60 873e 4679 3ebc 59da 113d 2aba d43d
000000a0: c7d6 c13d ee25 8dbd d798 e83d 9ac6 543e
000000b0: 0fdd 603c bf41 173d a062 bfbd dfb4 67bd
000000c0: 98f4 f5bd b369 adbc b0ff d1bd 0611 e5bc
000000d0: decb ee3d d6ca 8c3d
0.13312896 0.03138816 0.06000097 -0.010478036 0.20073898 0.097772665 0.04773375 -0.0839317
0.07955621 0.07149867 -0.08365366 -0.06070738 -0.06912339 -0.09199846 0.06695812 0.044857513
0.11303462 0.0030978334 0.009571979 0.054792576 0.1252903 0.1295364 0.08095404 0.102578074
0.29712507 0.20428795 0.16749364 0.10396592 -0.026569776 0.14861682 0.0878925 -0.025585117
0.046131298 0.12055835 -0.0678666 0.14149323 0.26440948 -0.0116255935 0.035608623 0.103870705
0.09464794 -0.06892 0.11357277 0.20778885 0.0137245795 0.036927935 -0.09344983 -0.056568976
-0.12009543 -0.021168565 -0.10253847 -0.027962219 0.11659978 0.068746254
