torch_model_storage_24_Jun_2025/model_Early_IA_Error_v_Early_RS_Error_Het postCLNZ_Early_RS_Error.pt (torch, 8313 bytes, 8 tensors)

model.encoder.0.weight f4 [9, 39]
00000000: f84b 39bd c302 82be 1756 1e3d 4dda 91be
00000010: 12e7 11bd 99cf 0b3d 0b63 15be fd09 eebd
00000020: d710 db3d 6d86 2ebd 708c 2dbd 839d a3be
00000030: ec02 163c 88a6 2dbe f05a af3d 125e 79be
00000040: a5ea c43e c729 fbbd f02b 823e 4cee 6c3e
00000050: 34d3 47be 2df3 95bd ab57 083e 0370 ef3b
00000060: 4848 0dbe 86a8 35bd 8beb 223d 4aa6 0cbe
00000070: f789 a1bd c163 73bd 1fd4 563e ef45 11be
00000080: 1636 17bd c0c0 8fbe a81e c33d 7d25 62be
00000090: e97c 14be bf5a fabc ef4f 9f3d bef8 153d
000000a0: c54e 68bd 967e da3d 249b 91bd 666b 023f
000000b0: fd75 c73d 9ebc e13d 4106 1abd 9be0 e23d
000000c0: d6e8 bfbb 439c 743c f3c6 c03d 336a 093e
000000d0: 820b 403e ce76 a23c 787b cbbc 3498 b83e
000000e0: 89f0 a13c 0350 693e 1ffd 683e c1bd 503e
000000f0: 23db 04bd e13a 103e c911 a6bd 9ea0 423c
00000100: 379f 9b3c 97bb 3b3e 70b9 87be 4974 3a3e
00000110: d95d c7bd ce1d b33e 8416 6b3d cb16 143e
00000120: f099 debc 0af8 a73d 5a9e 60bd 3bc9 b93d
00000130: 99ac 19bd 3d14 5c3e 649f 15be aa0b 07bd
00000140: 23cc 88be 9374 273d 0f86 1dbf d30d e8bd
00000150: 480d 88be 3f5e 61be 67a0 9c3d 45f5 8dbd
00000160: d414 9a3d 956b 4ebe e5f5 28bd cb3a 05bf
00000170: 2cd5 143d 49d7 25be b27d 65be 4be4 b5bd
00000180: 959c e03d a693 2e3b 315c 37be 509c a0bd
00000190: 3b45 0dbe 42a5 1a3e c6a9 b5bd 8c1e 9ebd
000001a0: 9ecc 02be 7af9 6d3e d60f a0be 664a 2abb
000001b0: 3ba9 f5bb f3ee 32be 157a bcbd 140d 25be
000001c0: ee6b ddbd 55d6 50be ad0a 5bbe 549c 2bbe
000001d0: b66b 53be 1dd3 15be 1e5c 333e ea69 913d
000001e0: a3bf a93b 6e83 34be 2a1c 993d 6c9f f2bd
000001f0: 299b 0b3d 6975 573d 94b4 74bc 8efd be3d
00000200: 6818 80bd f1a5 49bc 014a f6bd e7d6 0a3e
00000210: e5fa 8d3e 50cd a1be 52de 9bbd 841e 36bc
00000220: 2f38 34be f502 7a3d 675c 9cbd 4893 653c
00000230: 49f8 8abd bce8 17be 9f01 863d 41f1 13bd
00000240: f740 c63d 7762 1fbe e687 6f3c 5d4d bfbe
00000250: 082e a7bd 1b84 04bd 5d5d a3bd 6f60 2e3e
00000260: ecdd 42be 0332 34be f4ca b6bd 7c1f 96be
00000270: 3255 0abe b8f3 61bd 1075 883e 6158 3abe
00000280: 2313 6f3e 6a17 ae3d 13b5 db3c 0e6f 163e
00000290: 6d5c 243e 692e 0fbe d46f 223c 62d0 4e3d
000002a0: 0f57 b3bc 6db7 463e 2250 343e 1d12 163f
000002b0: 733b 0cbe 9456 c83a c5b6 433c 5e26 13be
000002c0: 35a3 093e 6ad6 b8bd 7c01 a7bb 4a4c b53d
000002d0: c9b5 853d 3a36 123e f433 483d 75fd c2be
000002e0: a26c 833d 5fa6 65be 91f0 dd3c 1b42 313e
000002f0: d437 7fbd 3a19 a23e c7d7 0f3d c144 42be
00000300: 3631 303e f85f dfbd d156 223d 7c90 d5bc
00000310: acf9 9c3e f4fe fa3e 1f76 373d a687 8d3d
00000320: f8d4 943d 5436 fabc 5619 ca3e 9d09 9e3d
00000330: f5e5 7b3e 7b43 02bd 66fd 163e 2775 58bc
00000340: f296 bd3e 34f7 9cbd ca02 dc3e f6f5 c0be
00000350: 3777 12bd ee3a 123d 9cec 76be a059 643e
00000360: 5a06 48be e26e 80bd cc63 b43c 4233 a5bb
00000370: 6445 ea3d e233 173e 70c7 15bd 0a16 f23d
00000380: a603 683e b440 81be 07d2 8f3e 1534 bb3d
00000390: fe55 ae3e a958 af3d 4974 2cbe 1911 563e
000003a0: 1b49 4b3d deeb 0bbe 7383 7cbe 4239 78be
000003b0: b26e acbe 1b44 5cbe 84c5 1cbe ca06 6cbc
000003c0: 247f bcbe 10d7 9bbe 503b c53d d849 9fbe
000003d0: ad0a 683e a5c8 b7be ffc6 eb3d 7789 97be
000003e0: cb1e d33e 59d5 53be 00f3 eabd bcc4 82bc
000003f0: 8dc4 43bd 14f6 8cbe 0399 96be 01cf 363e
-0.045238465 -0.25392732 0.03865632 -0.28486863 -0.035620756 0.034133527 -0.14588563 -0.11622999
0.10696571 -0.042608667 -0.04237026 -0.3195611 0.00915597 -0.16958058 0.08562267 -0.24352291
0.3846027 -0.12263828 0.25424147 0.23137778 -0.19514161 -0.07321773 0.13314693 0.007307054
-0.13797104 -0.04435017 0.039775413 -0.13735309 -0.07887643 -0.059421305 0.20979355 -0.14186834
-0.036916815 -0.28076744 0.095273316 -0.22084613 -0.14500774 -0.03056085 0.07778918 0.036614172
-0.056715745 0.106686756 -0.07109669 0.50945127 0.09739301 0.11022304 -0.03760362 0.11077996
-0.0058566136 0.014929834 0.094129466 0.13419418 0.1875439 0.019832041 -0.024839148 0.36053622
0.019768016 0.22784428 0.22752808 0.20384885 -0.032435548 0.1408496 -0.08108861 0.011879114
0.018996818 0.18333279 -0.26508665 0.18208422 -0.09734697 0.34983677 0.05739452 0.1446182
-0.027173012 0.082016066 -0.054838516 0.09071585 -0.037518118 0.21492095 -0.14611584 -0.032970108
-0.26718244 0.04088266 -0.6153268 -0.11330762 -0.26572633 -0.22008608 0.07647782 -0.06931547
0.07523504 -0.20158227 -0.04125013 -0.52042836 0.03633611 -0.16195406 -0.2241123 -0.08881434
0.10967366 0.0026638298 -0.17906262 -0.07842314 -0.1379594 0.15102103 -0.08870272 -0.0772067
-0.12773368 0.23239699 -0.31262082 -0.0025984286 -0.0074969805 -0.17473964 -0.09202973 -0.1611827
-0.108116016 -0.20394261 -0.21390791 -0.16758853 -0.20646557 -0.14631315 0.17515609 0.0710028
0.0051803156 -0.17628261 0.07476075 -0.118468136 0.03408352 0.052602205 -0.014935631 0.093257055
-0.06254655 -0.01230763 -0.12025834 0.13558541 0.2773048 -0.31601954 -0.076107636 -0.011115674
-0.17599557 0.061037976 -0.07634812 0.014012165 -0.06785638 -0.14834875 0.06543278 -0.03611875
0.0968036 -0.15564905 0.014619803 -0.3736371 -0.08163077 -0.032352548 -0.07976792 0.17028974
-0.19029969 -0.17597203 -0.08925429 -0.29320896 -0.13509062 -0.05516407 0.26651812 -0.18197776
0.23347144 0.0850056 0.026819741 0.14690802 0.16050883 -0.13982548 0.009914357 0.050491698
-0.021892099 0.19405909 0.17608693 0.5862139 -0.13694553 0.0015284591 0.011945431 -0.14370105
0.13441165 -0.09025271 -0.0050966125 0.088524416 0.065288134 0.14278498 0.04887767 -0.38083997
0.064172044 -0.22426747 0.02709225 0.17310373 -0.0623091 0.3165987 0.03511789 -0.1897154
0.17206272 -0.109069765 0.039633576 -0.026069872 0.30659235 0.4902264 0.044790383 0.069106385
0.07267183 -0.030543484 0.39472455 0.07716677 0.2459944 -0.031802636 0.14745101 -0.013211525
0.37029225 -0.07664338 0.42970878 -0.37687653 -0.035758223 0.03570073 -0.24113697 0.22299814
-0.19533673 -0.06271149 0.022020243 -0.005041511 0.114390165 0.14765885 -0.03656715 0.1182061
0.22657642 -0.25244677 0.28089926 0.09140793 0.34049982 0.085618325 -0.16841234 0.2090496
0.049630266 -0.13664195 -0.24659519 -0.24240592 -0.33678204 -0.21510355 -0.15309721 -0.0144059155
-0.3681575 -0.30437517 0.096304536 -0.31111026 0.22660322 -0.35895267 0.11512565 -0.29597065
0.4123443 -0.20686854 -0.1147213 -0.01596295 -0.047794867 -0.27531493 -0.29413614 0.17852403

model.encoder.0.bias f4 [9]
00000000: 18a3 b1bc 5a62 81be 7344 e23e 6997 7b3e
00000010: ca86 aebe b0bc d0bd e345 153e bae9 1f3d
00000020: 6351 fbbd
-0.021684214 -0.2527035 0.44192848 0.24569477 -0.3408721 -0.10192239 0.14577441 0.03904126
-0.12271383

model.encoder.3.weight f4 [2, 9]
00000000: 1749 443e 333e c2be 3716 fb3e 4110 4b3e
00000010: 52f4 41be 9928 acbe d5bf 9c3e 45b2 443e
00000020: af00 693b 607a 3c3e 48ad 973e 6bd7 16be
00000030: 802c cfbe 10fc 82bd 0417 a8be 39d1 a93e
00000040: 3b8a 893e b1ae 8b3e
0.19168507 -0.3793808 0.49040386 0.19830419 -0.18940857 -0.33624724 0.30615106 0.1920863
0.0035553386 0.18406057 0.2962439 -0.14730613 -0.40463638 -0.06395733 -0.3283006 0.33167437
0.26863274 0.27281716

model.encoder.3.bias f4 [2]
00000000: 9797 6a3c d4e8 c4bd
0.014318368 -0.09614721

model.decoder.0.weight f4 [9, 2]
00000000: d6c9 9abe 68ea 143f e16d 5d3e cac1 58bf
00000010: cb54 f83e 4e60 5e3f 2882 073f 4445 45be
00000020: 659c b83d 2897 99bc fb81 ecbe fb1e 023f
00000030: bca2 c83e 6d65 793d f39c 12bf 1158 213e
00000040: 8d83 27bf 097c 5abe
-0.30232114 0.58170176 0.21623947 -0.846707 0.48502192 0.868657 0.5293298 -0.19264704
0.09014205 -0.018748835 -0.46192917 0.5082852 0.39186656 0.060887743 -0.57270736 0.15756251
-0.65435106 -0.21336378

model.decoder.0.bias f4 [9]
00000000: 05fd a1be b0f4 d13c 3d07 bcbd 0fa9 3cbf
00000010: 344a 6dbd d5d2 953e 241e bdbe 8bac 8bbd
00000020: 3a0c 99be
-0.3163835 0.025629371 -0.09181068 -0.7369546 -0.057932094 0.29262415 -0.36937058 -0.06820019
-0.2989214

model.decoder.2.weight f4 [39, 9]
00000000: e9c0 5abe fd2a 32be fb01 75be 9e90 c9be
00000010: d195 9bbe f10f 1a3e 91c3 0abd c719 acbc
00000020: 4bb6 bdbd 6f34 1e3d c35d 303f e938 2bbe
00000030: 275f d2bd 9a66 56bd cfcf 3f3e e7ce 80bc
00000040: 2655 bb3e f88d 40be 9b72 edbe 8a70 883e
00000050: f850 5a3e 6c90 a13e 4224 c23e bbd8 bb3e
00000060: 9563 a6ba e46a c03d a584 4f3f 1fd3 51bd
00000070: 4722 963e da81 c0be 1657 39be f9d0 eb3c
00000080: 97d3 953e 2591 243e 8cd3 1fbe c611 31be
00000090: 471e 4d3e 432a 08bf f397 38bd 21f7 59bd
000000a0: 9b5e 913d 1992 593e 2b12 0cbe 6274 1f3f
000000b0: 60e9 ab3e 72de 8e3e 1a26 3dbc 22aa 343e
000000c0: aed8 a93d bbb7 69be 924b 4abe 601b 41be
000000d0: f9d2 953e 5c46 df3d 287c 8c3d 2700 aabd
000000e0: fe19 b2be c1d5 d23d e896 4c3e a628 803e
000000f0: cb8a 983e ad27 8fba 568e c53d af98 f73d
00000100: 97ce 4e3e 18e6 643b 087a a7be a4da 943d
00000110: 1018 46be f06e 0fbd 604a 203e 411a 033f
00000120: c2d4 523d a0ac 8cbd ff7f 683e 276a ae3e
00000130: 3884 433e 4f1a fabc 67c8 823e c331 67bd
00000140: 5f77 ca3e 5bf1 e9bd 5d19 bf3e c182 873d
00000150: 3ceb c3be ecf5 1abe e92c 8f3e ed68 ccbd
00000160: e476 9b3c 6a08 9f3c fd70 bf3d 3d8d 103e
00000170: 3c38 903e fbb8 24be ce83 993c 5f4b 73bd
00000180: 2004 6b3d 9299 a93d 61d5 60bd 4a9a e4bd
00000190: 0c48 f7bd bd06 afbe 9925 143d 90fc bfbb
000001a0: 389c ad3d 313e 203e 4402 853d 017c a83e
000001b0: b7e6 c03e 3d0e e2bd bd51 05be 9487 923e
000001c0: b710 543e f3e2 e9bd a2be 43be e82a 513e
000001d0: 72e2 c5bd 0a4c 033c 3d62 4abd a983 a3be
000001e0: 8b18 09bf 450d 51be d302 983d ac17 aabe
000001f0: 5bf6 c33e b28c dc3e a921 b5bc cbfa 37be
00000200: f13e 15bd cd14 473e a160 7abd 7c70 34be
00000210: bb9d cc3d a19d 243e dd83 a73c 3635 733e
00000220: 9a1a 013f 6125 af3e b71a 2a3e 1b40 cfbb
00000230: db30 debd 9139 ea3d 3474 ea3d d815 4a3f
00000240: 3e3b 123e dc5c fcbe d581 673e 56df 7b3d
00000250: b2a2 b63d d6ca ce3e e97d 2abe 36a1 123e
00000260: bd6e b7be 123d 4ebe 0521 9ebd dbac 4e3e
00000270: 5fea febd 6157 b8be bf1f 1bbe 385c 9cbe
00000280: 674c 613e 9d25 0cbd 2e87 af3e 9bea cf3d
00000290: 9e7f 843e 2597 0e3d 2c84 723e 4304 d13d
000002a0: eab4 473e a315 7a3d 3651 343e cd01 0c3d
000002b0: eae9 fd3b b1a4 003e 54cb 6abe 2a2d 26be
000002c0: 3615 cc3e cc7b f7be 7c2b f4be dbfa 5ebd
000002d0: 0397 283e 715d 003e 4156 9abe 405a edbc
000002e0: dcf3 5cbe 0afa 753e 9f81 7dbe d849 b63d
000002f0: bad5 7b3e 4bf8 d5be dff1 afbe 7c82 79be
00000300: 35d4 253d f664 ecbe a07f 71bc ee9c 323e
00000310: 9938 86bd 5325 edbd fb17 02be f2dd c53d
00000320: a5fe 7d3c ee17 7fbe 7e93 a73d 2c10 d23e
00000330: 4be6 95be c01b 2dbd 20ec 3fbe ea4c c23d
00000340: e16c bc3d a36c 693e a7bd 2f3d 7198 4abe
00000350: db7a 88bd 2ee1 8a3e 6a6a f9bc 13b8 233e
00000360: fc73 3ebe e03d 3abe e257 dcbe 5675 c4bd
00000370: fdeb 133d 7c8a 123e 38aa 5fbe 9f32 9e3c
00000380: 4e1d 9bbd 511c 00be 3337 8a3d 4c49 653e
00000390: 1655 33be 7211 523e 574e 88bd b92b 00be
000003a0: 7337 833e 907e 6f3d 218d e33d 2945 e33d
000003b0: 4c6e cabe 4f42 b1bd f8f1 8abd 3647 bd3e
000003c0: d671 abbe b59d 5b3d 15f7 2d3d 6c77 fabe
000003d0: 2f8b 0b3f 9403 91be ce16 80be b7df a8bd
000003e0: a953 8f3e 5b5a 543e 097a 7dbe 2e38 f0be
000003f0: 6d6e 9e3d d4c2 2ebe 25a3 c1be 07cb 1ebc
-0.21362652 -0.17399211 -0.23926537 -0.39368147 -0.30387738 0.15045144 -0.033877913 -0.021008385
-0.09263285 0.038624223 0.6889307 -0.16720928 -0.10272055 -0.052343942 0.18731616 -0.015723659
0.365884 -0.18804157 -0.463765 0.2664836 0.2131995 0.31555498 0.37918288 0.3668879
-0.0012694473 0.09395388 0.81061774 -0.05122673 0.29323027 -0.3759907 -0.18099627 0.02878617
0.29262993 0.16070993 -0.15608042 -0.17291936 0.20031081 -0.53189486 -0.045066785 -0.053214196
0.07098123 0.21247138 -0.13678806 0.6228696 0.33576488 0.27904087 -0.011544729 0.17643026
0.082932815 -0.22823994 -0.1975539 -0.18858099 0.29262522 0.10902092 0.068596184 -0.0830081
-0.34785455 0.102946766 0.19979441 0.25031012 0.2979339 -0.0010921858 0.09646289 0.12089669
0.20195995 0.0034927186 -0.3271029 0.07268265 -0.19345117 -0.035017908 0.15653372 0.51211935
0.051472433 -0.06868863 0.22705077 0.34065363 0.19093406 -0.030530123 0.2554352 -0.05644394
0.39544198 -0.11422988 0.37324038 0.06616736 -0.38265407 -0.15132874 0.2796395 -0.099809505
0.01897759 0.019413192 0.09347723 0.14116378 0.28167903 -0.1608619 0.018739607 -0.05939805
0.05737698 0.08281244 -0.054890994 -0.11162241 -0.12074289 -0.34184828 0.03616867 -0.005858965
0.08477062 0.15648724 0.06494573 0.32907107 0.3767602 -0.11037872 -0.13019462 0.28619063
0.20709501 -0.1142024 -0.1911569 0.20426524 -0.09662332 0.008013735 -0.049410094 -0.31936386
-0.53553075 -0.20415218 0.07422414 -0.33221185 0.38273892 0.43076092 -0.022110777 -0.17966764
-0.03643698 0.19441529 -0.06112731 -0.17621034 0.09991022 0.16075756 0.02044862 0.23750767
0.50431216 0.34208205 0.16611753 -0.0063247806 -0.10849162 0.11436761 0.11447945 0.7893958
0.14280412 -0.49289596 0.2260812 0.061492287 0.089177504 0.40389127 -0.16649593 0.1431931
-0.35826674 -0.20140484 -0.07721142 0.20183127 -0.124470465 -0.36004165 -0.15148829 -0.30539107
0.22001801 -0.03421556 0.3428282 0.10152169 0.25878614 0.03481211 0.23683232 0.10205891
0.19502607 0.06105579 0.17609105 0.034181405 0.007748832 0.12562825 -0.22929126 -0.16228166
0.39859933 -0.48336637 -0.47689426 -0.054438453 0.16463856 0.12535645 -0.30143932 -0.028973699
-0.215774 0.24021164 -0.24756478 0.08900803 0.24593249 -0.41790995 -0.3436422 -0.24366182
0.04048558 -0.46170777 -0.014739901 0.17442676 -0.06553764 -0.11579385 -0.1270446 0.09661473
0.0155026065 -0.24911472 0.08182429 0.41027963 -0.29277262 -0.042262793 -0.18742418 0.094873264
0.092004545 0.22795348 0.042905476 -0.19784714 -0.06664058 0.27124923 -0.03044625 0.15988187
-0.18598932 -0.18187666 -0.430358 -0.095926926 0.036113728 0.1431064 -0.21842277 0.019311247
-0.07573949 -0.12510802 0.0674881 0.22391242 -0.17512926 0.20514467 -0.06655567 -0.12516679
0.25628242 0.05847031 0.111109026 0.11097176 -0.39537275 -0.086552255 -0.06784433 0.36968392
-0.33485287 0.053617198 0.042471964 -0.48919237 0.5450925 -0.28323042 -0.250174 -0.08245795
0.27993515 0.20737593 -0.24753584 -0.46917862 0.07735906 -0.17066509 -0.37819782 -0.00969196

model.decoder.2.bias f4 [39]
00000000: 5c38 75bd bb69 21bd 50e6 af3d baa8 f5bc
00000010: 7a33 4e3e 66b5 303e 28e5 b93d e566 643d
00000020: 8ebe 753e d19f 35be 89e0 353e 8a33 8c3d
00000030: 84f6 1f3e d010 be3b b20c fe3d db58 6d3e
00000040: 139f 223e 3563 90bd 630c 4f3e 4e71 14be
00000050: 82cd a1bc 2e11 f03c d242 f8bd 9f04 363e
00000060: 0baf d2bd 7a26 563c 6053 efbd d76b c7bc
00000070: 07e5 5d3d 48f2 c23c 7a3d a33e ed26 edbc
00000080: dd78 5a3e 5815 003e a0a3 e8bd d935 423c
00000090: 8d4d dc3d c015 e33d db6a a23e
-0.0598682 -0.039407473 0.085888505 -0.029987682 0.20136824 0.17256698 0.09076911 0.05576219
0.23998472 -0.17736746 0.17761435 0.06845768 0.15621382 0.005800344 0.12404765 0.23178427
0.15880994 -0.07050172 0.20219569 -0.14496347 -0.019751314 0.029305067 -0.1212212 0.177752
-0.10287293 0.013070697 -0.116858244 -0.024343414 0.054173496 0.02379717 0.3188284 -0.028949225
0.21335168 0.12508142 -0.11359334 0.011853659 0.10756979 0.11088133 0.3172215
