torch_model_storage_24_Jun_2025/model_Early_IA_Correct_v_Late_IA_WT CLNZ_Early_IA_Correct.pt (torch, 14025 bytes, 8 tensors)

model.encoder.0.weight f4 [9, 118]
00000000: c3fb 2fbd 6e4a 4cbd 062c 29bd c4b8 11be
00000010: 2d30 d6bd daa4 5fbc 89aa 87bd 1a7a eebc
00000020: 2741 f8bd 9d86 0bbc 1491 b4bd 4c7a cf3c
00000030: a7c4 8ebd c67c a8bc 7ad3 6a3c 61e4 ebbd
00000040: d423 2c3d ffc9 c5bd a946 c13c 175c 85bc
00000050: afd8 38bd 8477 3fbd 5ca6 f9bd a4fb 93bd
00000060: 8557 aebd e7f3 a3ba 98f7 c5bd f202 a2bd
00000070: 91e5 d5bc aa7c 653a 0035 a2bd 244d 87bd
00000080: 1729 e73c 9a50 fcbd 7a09 07be ba67 d7bd
00000090: d6fb 80bd 13e8 f0bd eed5 633b 4f13 e1bd
000000a0: 415b c4bd f938 2dbd ce44 bdbd 7ecc 3dbd
000000b0: b3e0 cebb d4c1 91bb 0434 f2bd 750e e8bd
000000c0: a777 91bd 9384 f5bc 8ad7 fabd 33dc 68bd
000000d0: c9a2 753b 25b5 923c 496b a1bd be2b 763c
000000e0: 32fc 49bd 6e0d 45bd 527a afbc 7421 a7bd
000000f0: d853 0dbe e7ec a7bd 8f6c b9bd 2110 9db8
00000100: 807f babc b6aa 84bd 41f8 e7bc 88ec 02bd
00000110: 6b54 b0bd bdc0 82bd 33eb 61bd 557c d3bd
00000120: 9d15 033c 95f9 45bd 8f0a 22bc f32c 74bd
00000130: ef5c 993c a667 adbd cebf d4bd c079 06be
00000140: 90cd 0fbc eada fcbc 0450 7ebd 3309 eebd
00000150: 6151 1ebd 103c 8dbd cda0 78bd f05d 99bd
00000160: 288a 893d 9767 cebc de7d 81bd e6f1 063b
00000170: feb2 bebd f73f cabd 85fd c2bd 4691 28be
00000180: 197c d4bd 688b 84bd 0cc7 bbbd bf12 a1bd
00000190: 65f3 f13c d32c a5bd 89d2 17bd 0b46 a8bd
000001a0: e59d b4bd f6d3 24ba e71d 7d3c f07a 63bd
000001b0: c377 0bbe e526 9ebd 04c5 59bd 9822 a0bd
000001c0: 7a73 94bc 2935 a9bd eb8c 26be 4d7d 04bd
000001d0: d17c 57bd 9260 81bd f4de 5f3d 0f2f 003e
000001e0: 9656 173e ec52 553e 8612 6fbd 3aa7 5e3e
000001f0: da3e ad3d b31f da3d 6a89 653d b5e9 72bc
00000200: 8854 de3d 9479 c5bc 21ce e13d cbad 6cbd
00000210: d9ed 98bc 81b6 b63e 0e42 053e 7e9c 0a3e
00000220: ddbc 403c 6522 1bbd e4fd b73d 22bc 813d
00000230: 641a 193d a46f b33c 28fb b33e 070f f53c
00000240: f5ec 19bd dd2c cc3d 2c63 103d deac 303d
00000250: 7403 1e3b a254 813d 43dd b13c 9324 1dbd
00000260: 77f2 053e 93f2 3fbc afbf c5bd 89d2 bd3c
00000270: fe67 053d d499 113d 20b9 e93d 4213 953d
00000280: 8983 bfbb f71b 5f3d 1a33 693e 409a 75bd
00000290: 4b8a 9f3d 822e cd3d cb0b 8abc cc9d 563e
000002a0: 5a78 ec3d ee41 793d 2816 c2bc 3d24 e6bc
000002b0: fc2b 22bd 9a15 78bd abbc 8f3e 5e79 eb3c
000002c0: 50b2 853d dec2 103e 598a bebd 61a6 163d
000002d0: 88f4 0f3e 9a20 4b3e ed3c a33e 1080 9f3d
000002e0: 2da3 223d 0bed 973d 365a c63d 659c 89b9
000002f0: b370 c0bc 6689 083e 4060 22bd a4c3 e5bb
00000300: d8ab 63bd b6ee 103d 0716 9ebd 9a36 203d
00000310: 4439 af3d bec2 133c 412f 69bd eb92 193e
00000320: 945e 7cbd c768 2f3c 04fd 06bd c081 8dbd
00000330: 0a33 963d d5dc db3d 2ae2 54bc 8e4a 293d
00000340: 827e 293d 067c 48bd 7932 95bc 659e 573e
00000350: ba97 813a 2ec1 043e ae2d 643d d112 d9bc
00000360: 8d27 d2bc fb5e c4bd b2b5 94bb e8c6 b13e
00000370: 10df 8d3e 8fc7 e4bc 943f 993e 3cc5 5c3d
00000380: edcd cf3d f73b 933d 7b80 793d d353 72bc
00000390: 6872 95bc 16a2 5cbd fbb7 5f3e f11e 703e
000003a0: 65ae 06be 527a 93bd cd81 493c bc24 73be
000003b0: 8182 bd3d 7960 173e b04e 463c f7f7 babd
000003c0: 89b2 693e c091 7c3d 7a81 233e fc43 f33d
000003d0: b7a5 153e 10e7 2f3e 5a91 fe3d cd6c 353d
000003e0: 16f3 c0bb 64f1 bd3d dca9 1a3d 1ac8 373e
000003f0: a07e e5bc 2f1e 603d 932f 963d a3dc 4c3e
-0.042964708 -0.04987567 -0.04130175 -0.14230639 -0.104584076 -0.0136501435 -0.06624324 -0.029110957
-0.12121802 -0.008515981 -0.08816734 0.02532687 -0.06971102 -0.02056731 0.0143326465 -0.11518169
0.042026356 -0.09657668 0.023593264 -0.016279263 -0.04512852 -0.04674484 -0.12189934 -0.07225731
-0.08512787 -0.0012508602 -0.096663654 -0.07910718 -0.026110442 0.0008754233 -0.07920265 -0.0660651
0.028217835 -0.12320061 -0.13187209 -0.10517831 -0.06298034 -0.11763015 0.0034764963 -0.10990011
-0.09587718 -0.04229066 -0.09241639 -0.046337597 -0.0063134073 -0.004448155 -0.118263274 -0.113308825
-0.071029 -0.029970443 -0.12248142 -0.056850623 0.003748106 0.017908642 -0.07881791 0.015025077
-0.049312778 -0.04810851 -0.021420632 -0.081606776 -0.13801515 -0.081994824 -0.09053909 -7.4893476e-05
-0.022765875 -0.06477873 -0.028316619 -0.031963855 -0.086098514 -0.06384418 -0.055155944 -0.10326449
0.0080007585 -0.048333723 -0.009890213 -0.05961318 0.018721072 -0.08467035 -0.10388146 -0.13132381
-0.008777037 -0.030866105 -0.062088028 -0.11622848 -0.038651828 -0.06896222 -0.060700227 -0.0748862
0.06715804 -0.02519588 -0.063228354 0.002059096 -0.09311484 -0.098754816 -0.09521011 -0.16461667
-0.10375232 -0.06471902 -0.091688246 -0.07864904 0.029535005 -0.0806519 -0.037066016 -0.08216485
-0.088191785 -0.0006287688 0.015449024 -0.055537164 -0.13619904 -0.07722262 -0.053166404 -0.07819098
-0.01812147 -0.082620926 -0.16264693 -0.03234606 -0.05260927 -0.063172475 0.054655984 0.12517951
0.14779124 0.20832413 -0.058367275 0.2174348 0.084592536 0.106505774 0.05603925 -0.014826228
0.10855967 -0.024105825 0.11025644 -0.05778293 -0.018668102 0.35686114 0.13013479 0.1353626
0.0117637785 -0.037874598 0.08983973 0.063347116 0.037378684 0.02190382 0.35152555 0.029914392
-0.037579495 0.099694945 0.035250828 0.04313361 0.0024110945 0.063149706 0.021711951 -0.038364958
0.13080774 -0.011715549 -0.09655701 0.02317168 0.032569878 0.035547093 0.11412263 0.07279064
-0.0058445376 0.05447003 0.227734 -0.059961557 0.07790049 0.10018636 -0.016851326 0.20958632
0.11546393 0.06085389 -0.023692206 -0.028093452 -0.039592728 -0.060567476 0.2807363 0.028744396
0.06528151 0.14136836 -0.093037315 0.036779765 0.14058125 0.19836655 0.3188242 0.07788098
0.039706398 0.07418259 0.09685175 -0.000262472 -0.02349124 0.13333663 -0.039642572 -0.0070118476
-0.055583805 0.035383902 -0.07719045 0.039114572 0.085558444 0.009018598 -0.05692983 0.14997451
-0.061613634 0.010706133 -0.03295614 -0.069095135 0.07333954 0.1073548 -0.012993375 0.041330867
0.041380413 -0.048946403 -0.018212544 0.21056516 0.0009887137 0.12964317 0.055707626 -0.02649823
-0.025653625 -0.095884286 -0.0045382613 0.34722066 0.27709246 -0.027927188 0.2993132 0.053899035
0.10146699 0.07189172 0.060913544 -0.014790493 -0.01824303 -0.053865515 0.21847527 0.23449303
-0.13152464 -0.07201065 0.012299013 -0.23744482 0.09253407 0.14782895 0.0121037215 -0.09129327
0.22822012 0.061662436 0.1596736 0.11878201 0.14613996 0.17177987 0.12430067 0.044293214
-0.005888353 0.09274557 0.037759647 0.17947426 -0.028014481 0.054716285 0.07333293 0.20006041

model.encoder.0.bias f4 [9]
00000000: 305d 8fbc 4c85 623c dbb6 003d 8a03 0abe
00000010: b345 f6bd 5810 99be 8af5 9fbd 42f5 2fbd
00000020: c458 16bd
-0.01750049 0.013825726 0.031424385 -0.13477913 -0.12025013 -0.29895282 -0.07810505 -0.042958505
-0.036705747

model.encoder.3.weight f4 [2, 9]
00000000: b31d 173e cc2a 91be f9f0 243c 81a7 2dbe
00000010: f2df 3cbd 206a 46be 53f9 6cbc da72 f73d
00000020: 16f6 f3bb 0dcb ca3c 9bde 243e a2d2 97be
00000030: 491e 5d3e 6e94 673e 6db7 bebd ad72 87bd
00000040: 555a 4a3d 12df 363e
0.14757423 -0.28352964 0.010067218 -0.16958429 -0.04611201 -0.19376421 -0.01446374 0.12082453
-0.007445107 0.024755025 0.16100542 -0.29652888 0.21593584 0.22615215 -0.093123294 -0.066136695
0.049402554 0.17858532

model.encoder.3.bias f4 [2]
00000000: db57 e93e 98cc 67bd
0.4557484 -0.0565916

model.decoder.0.weight f4 [9, 2]
00000000: fd45 c63e e923 1a3f c97a b3be 601d b73d
00000010: da0e 2d3f dfcc 083f 3ea5 503e 3500 4e3e
00000020: 458f 07bf 550a 08bf e4e2 0abf 6d09 0b3f
00000030: 27a1 1a3f be4d 2fbd ef9b 5a3e 4082 ee3d
00000040: 1499 43bf be35 cc3e
0.38725272 0.60211045 -0.35054615 0.0894115 0.67600787 0.5343761 0.20375535 0.20117266
-0.52952987 -0.53140765 -0.5425246 0.5431126 0.6040215 -0.04279875 0.21348546 0.11645937
-0.76405454 0.39884752

model.decoder.0.bias f4 [9]
00000000: 995b bb3d b1a2 8fbe 4e8d 2ebe 3a84 aabd
00000010: 25c9 8b3e cffc 063f 0e4c 0ebf daa9 1b3e
00000020: 2641 d73e
0.0914833 -0.2805381 -0.17046091 -0.083260015 0.273019 0.52729505 -0.555848 0.15201512
0.42041892

model.decoder.2.weight f4 [118, 9]
00000000: 2415 d2be d047 353e 5c88 67be 55cc 4dbe
00000010: 8428 963d b77f 023e e247 3d3e 634b 593d
00000020: ba75 e7bd 0cd6 663d 158c 03bd 4c99 a1bd
00000030: d087 86be 353b d83e cdb5 633e 1639 06bd
00000040: 975a 313d 4bb4 8cbd 4a8b e1be d6f3 733e
00000050: dfa2 a1be 7d4f 67be 8a5c 49be 482f b13d
00000060: f4a5 7ebe 86c4 433e 682f 7d3e 3c32 783e
00000070: 0ad0 483d dff8 eabe 510b 88be e050 ee3d
00000080: a922 f93e 17e1 953b 7460 153d 55c4 ba3d
00000090: 8656 94be 3052 43be 4450 33be 31ee 53be
000000a0: 07ca 4e3e 764c 13be 5697 fcbc a239 8a3e
000000b0: 42d0 bdbd 1dfc ddbd 7498 81be 2c13 70be
000000c0: d06e 98be 172e a13e b024 ca3e b047 79bd
000000d0: a83f 9d3c b1c1 723d 89bd 13be 13ba 9abe
000000e0: 582a 99be 2ec4 6c3e 9c02 993e b69b 383e
000000f0: 8bf0 9fbe 21c1 86bc 5cc6 9cbe c134 3bbc
00000100: 0df3 e1be 34c1 02bf 52b6 81bd 669e 1c3d
00000110: 737b 25be 3407 9dbe e9e3 8fbc 46f5 773e
00000120: d755 b3be b6bd f23c b23c 9fbd 3825 943e
00000130: 0834 3a3e 5f8d c7bd eb59 123e 6aa2 57be
00000140: 171a 093e 897f 49be 56ac 77be fc43 93be
00000150: 7310 f13d 7165 0f3e 7c97 24bc dd7f 603e
00000160: 78c4 903e 5135 ccbd c0a3 ab3e f497 9e3d
00000170: 78a6 73be 403e 49be 3c43 be3e 8f4d 843e
00000180: 0d81 bbbd 494f 12be 2ac9 16be 50c7 e4bd
00000190: 144b 6e3d 2e84 32bd 6cb3 fb3c 31b6 793d
000001a0: 384d fd3d 8dec 5e3a 06b2 fa3d 1bdd 7dbe
000001b0: 5f74 833e a0c4 7cbd b66b a13e 3c2b 5dbe
000001c0: 4327 a13e 4cdc 0d3e e4e2 dcbe ec4d 81bc
000001d0: 5bd1 6e3d 22a9 e3be 8fc6 923e 25cc 643e
000001e0: d11a 123e 8e11 583e ec48 493e 66b3 c23e
000001f0: c443 843c ac9c 87be 6034 983d b32b e2be
00000200: b455 02be 8578 babe 17f3 923c 5a7d debd
00000210: 1ae9 b0be cd25 e03e 0090 b6bc 03f6 703e
00000220: 2565 313d de5b 0cbf 06bb 4cbe 082e 2f3f
00000230: 511a 2dbd b2a9 10bf 5d47 5a3d 1a4d 133f
00000240: 7ecd 713d f1de 5ebd ada4 0fbe 8614 89be
00000250: 075a ba3d 7703 e33d 8101 9d3d 7850 fe3c
00000260: 5447 403e 9634 873e bb6c 253d 51ba 97bd
00000270: 2848 bbbe 08e6 6f3e 04fc c5bd 6c17 9ebe
00000280: a742 e6bd 6b08 c13e d050 f5be 1e33 a93e
00000290: 7b3a 00be 53a2 973d 4234 6fbe 1e0f 2cbe
000002a0: 5283 ccbd a1da 31bc 38b0 da3d 5529 5abe
000002b0: 542a 103e 5590 b2be be07 8f3e 7693 bd3d
000002c0: 62f5 263c adf0 70be c43c 31be 8501 d7be
000002d0: 3a00 1a3e 106e 6f3d d353 a1be b2cc bdbe
000002e0: 5559 d13e 3715 a8bd dee3 39be 9fd1 b03e
000002f0: fc5c 303d 574b f13d 99e2 c0be 0390 51be
00000300: 8d57 4dbe 4671 0a3f bd12 0bbd 40c0 a9bb
00000310: c5e4 4c3c 785b 98bd 42be d2bd 1db7 523e
00000320: ec40 c7bb dbf3 10bc cce8 5c3e 97d5 4d3e
00000330: a9eb 3dbe e24a ccbe bafd 91be 06b7 82be
00000340: d80a d1bd eacb 473d 49ef a7bc da68 183e
00000350: d594 24bd 03bd 0c3e eabb 1a3e 6639 b7bc
00000360: 3ff0 953d 965e 9dbd ef2c f4bd a1f4 09be
00000370: 428c 763e 1570 053f 52b6 01be a615 c03d
00000380: 7986 093f be4b 3abf b4e2 04bc bcd2 10bd
00000390: 40ce b73e 0051 823d d86a 94bd 9a96 13bd
000003a0: f516 07be 81e2 ca3c f228 acbe cdf2 6b3d
000003b0: cf8e 1d3d 79e7 c73e be5e e43d 369e b63d
000003c0: 8ead e7bd c965 b1be e53e a4be cfae 1a3e
000003d0: 7f2d 7a3b e600 8bbe c2cf 373e 4002 a63d
000003e0: c985 c13e feff aabc 616d 013e 6ee5 c0bd
000003f0: a32e 093d 9e5c 483e 9437 5dbe d2ad 01be
-0.41031754 0.17703176 -0.2261061 -0.20097478 0.073319465 0.12744032 0.18484452 0.05305041
-0.113017514 0.056356475 -0.032116015 -0.07890567 -0.26275492 0.4223267 0.2223732 -0.032769285
0.043299284 -0.06870326 -0.44051582 0.23823485 -0.31569573 -0.22588916 -0.19664207 0.08651596
-0.24867994 0.19117936 0.24725115 0.24237913 0.049026527 -0.45893 -0.26571134 0.116365194
0.48659256 0.004573952 0.036468938 0.091194786 -0.28972262 -0.19074321 -0.17511088 -0.20696332
0.20194255 -0.14384636 -0.030833881 0.26997095 -0.09268238 -0.108391024 -0.25311625 -0.23444813
-0.29772043 0.31480476 0.39481115 -0.060859382 0.019195393 0.05926675 -0.1442777 -0.30220088
-0.29915118 0.23121712 0.29884803 0.18028149 -0.31238207 -0.016449513 -0.30620086 -0.011426152
-0.44130746 -0.51076055 -0.06333603 0.038236998 -0.16160373 -0.30669558 -0.01756473 0.24214658
-0.35026428 0.029631477 -0.077752486 0.28934646 0.18183911 -0.09743761 0.14292113 -0.2105805
0.13388859 -0.19677557 -0.24186835 -0.28762805 0.117707156 0.1400354 -0.010045882 0.21923776
0.28274894 -0.09971107 0.3352337 0.077438265 -0.23793972 -0.19652653 0.3716067 0.25840423
-0.09155474 -0.14288057 -0.14725175 -0.11170828 0.05817707 -0.043583088 0.030725203 0.060964767
0.12368244 0.0008503877 0.122409865 -0.24791376 0.25674722 -0.061710954 0.3152749 -0.21598524
0.31475267 0.13853568 -0.43141854 -0.015784226 0.058305126 -0.44464976 0.28667113 0.223435
0.14268042 0.21100447 0.19656724 0.38027495 0.016145594 -0.2648672 0.07431865 -0.44173965
-0.12728006 -0.36420074 0.01793818 -0.10863753 -0.34552842 0.4377884 -0.022285461 0.23531346
0.04330935 -0.5482768 -0.19993219 0.68429613 -0.042261425 -0.56508934 0.053290714 0.5753952
0.059033863 -0.054411832 -0.14027663 -0.2677347 0.090992026 0.11084645 0.076663025 0.03104423
0.1877721 0.26407307 0.040386897 -0.07408584 -0.36578488 0.23427594 -0.09667209 -0.30877244
-0.11243182 0.37701735 -0.47913218 0.33046812 -0.12522309 0.07404008 -0.23359779 -0.16802642
-0.09985985 -0.010855348 0.10678142 -0.2130483 0.14078647 -0.34875742 0.27935594 0.092566416
0.01019034 -0.2352931 -0.17308336 -0.41993347 0.15039149 0.058454573 -0.31509265 -0.37070233
0.40888467 -0.082071714 -0.1815333 0.34534928 0.043057427 0.11781948 -0.3767288 -0.20465092
-0.20052929 0.5407909 -0.033953417 -0.0051803887 0.012505715 -0.07439321 -0.10290195 0.20577665
-0.0060807373 -0.008847202 0.2157318 0.2010101 -0.18546928 -0.3990088 -0.2851389 -0.2553026
-0.102071464 0.048778452 -0.020499842 0.14883748 -0.040181 0.13743977 0.15110746 -0.022366237
0.07321214 -0.076840565 -0.11922633 -0.13472225 0.24076942 0.5212415 -0.12667206 0.09379129
0.53720814 -0.72771823 -0.008110691 -0.035357222 0.35899544 0.06363106 -0.07246941 -0.036032297
-0.13192351 0.024766209 -0.3362499 0.0576046 0.03846627 0.39043787 0.11150883 0.08916895
-0.113124 -0.34647968 -0.32079235 0.15105747 0.003817409 -0.27149123 0.17950347 0.08105898
0.37797382 -0.02087402 0.12639381 -0.0941876 0.033491742 0.1956658 -0.21603233 -0.12663963

model.decoder.2.bias f4 [118]
00000000: cff9 c23d 6897 acbc 78e9 da3d a056 f6bc
00000010: baf9 14bd dbe4 f1bd bf69 65bd 6e55 8a3d
00000020: 1732 203e e06b dfbc 360b acbd 1399 d63c
00000030: d88d f3bd 6749 123e db26 d7bd eb36 93bc
00000040: 129d 11bd dda9 90bd d503 283e 7bb9 873d
00000050: bce4 e5bd 5465 05be 9d39 843d 7663 803b
00000060: 1712 51bd a39d e43d 1b88 fe3d e4cd 093d
00000070: e905 c53d 60c3 623d d0e2 a93d 17ee 9e3c
00000080: e902 623d da2d 813d dae4 e4bd c4e8 bbbd
00000090: 457b b43d 6d76 8ebd bc21 f53d bce7 da3d
000000a0: 31d2 093d a409 113e 894e 383e 78ca 433b
000000b0: 3a21 773d a2b2 583d 7ff1 c33c 8b16 d3bc
000000c0: 40a5 183e 5b40 33bd 54df a83c 5e1e a3bd
000000d0: 1fbe 3d3d 5e69 5c3e c220 003e dc5c dc3d
000000e0: ce2b 723d 252d 7f3d 0949 21bd 73fe 043d
000000f0: cebf ef3d 7025 393e ecb7 843d 74e5 333c
00000100: 7562 793d 3ec0 85bb 2881 563e 7ea3 8cba
00000110: 8f7b 313e b4e1 963d 3f12 c03c 507c 0dbd
00000120: e8fb c5bb 5880 653d c4da 843d b1cb f0bd
00000130: f71f d23d 2cfe 903a a702 4e3e 874f 08be
00000140: 98ee 2a3e a970 c8bd 0021 dd3d 5902 69bd
00000150: abe7 803d 16b4 143d 6f73 163b 0bcf 88bd
00000160: 253a 303d 6fd2 71bd 688f d4bc f128 293e
00000170: dbca 89bc 686b 5ebd 388c e63d d2f7 f5bd
00000180: 756e 3b3e b883 2e3d 20be d33d abc0 2d3e
00000190: b0e6 2d38 8814 a63d e916 5a3e 83b2 113e
000001a0: 4ce9 8cbd 0b66 de3b 66e8 9dbd bc35 a13d
000001b0: be4c 943d 6036 f03d 78c2 313e f699 573d
000001c0: b7b5 12be 1212 0e3e a649 7abc 8646 95bd
000001d0: d5eb 00be c631 2a3e
0.095203035 -0.02106829 0.10689062 -0.030070603 -0.03637097 -0.11811229 -0.05600905 0.06754576
0.15644108 -0.027273118 -0.08400576 0.026196038 -0.11892289 0.14285813 -0.10505458 -0.017970523
-0.035550185 -0.07063649 0.16407712 0.066271745 -0.11225268 -0.13026935 0.06456301 0.0039181067
-0.051042642 0.11162879 0.12428304 0.03364362 0.09620268 0.055362105 0.08295214 0.01940064
0.055178557 0.063075736 -0.111764625 -0.09175256 0.08812574 -0.06956182 0.11969325 0.10688731
0.03364772 0.14163834 0.17998709 0.002987532 0.06033442 0.052904733 0.023918865 -0.025767585
0.14906788 -0.043762546 0.020614304 -0.079647765 0.04632389 0.2152457 0.12512496 0.10759899
0.059123807 0.062298913 -0.039376292 0.032469224 0.11706506 0.18080688 0.06480393 0.010979999
0.06088491 -0.004081755 0.20947707 -0.0010729877 0.1733229 0.07367268 0.0234462 -0.03454238
-0.0060419925 0.0560306 0.06487039 -0.11757601 0.10260003 0.0011062077 0.201182 -0.13311587
0.16692579 -0.09787113 0.1079731 -0.056887005 0.06294187 0.036304556 0.0022956987 -0.06680115
0.0430242 -0.059038576 -0.025947288 0.16519524 -0.016820362 -0.05430165 0.11257213 -0.120101586
0.18303855 0.042606086 0.10338998 0.16968028 4.146126e-05 0.08109385 0.21297802 0.14228253
-0.06880435 0.006787067 -0.07710342 0.07871577 0.072412 0.11729121 0.1735934 0.052637063
-0.14327131 0.13874081 -0.015276348 -0.07288842 -0.12589963 0.1662055
