torch_model_storage_24_Jun_2025/model_Early_IA_Error_v_Early_RS_Error_WT CLNZ_Early_RS_Error.pt (torch, 6259 bytes, 8 tensors)

model.encoder.0.weight f4 [9, 15]
00000000: 5e7c a83e 8322 07be be79 e3be 4d27 0b3f
00000010: 3229 563e 9685 32be 6e6d 8d3e c956 6dbe
00000020: 68d4 8fbe 3b85 debd f761 87be fd0e 873d
00000030: a8c4 033d 5cfc 13be aec8 a23d 6805 20bf
00000040: a3a6 1e3e b579 103f 7955 013e 1e06 d93d
00000050: 8c49 aa3e fb5f 133e 04f5 1b3e 313d 703c
00000060: c845 e33e e806 c33d 7de7 563d 07f7 bbbd
00000070: 218d 943d d59f 8e3d f51e eebd ae2f a6bd
00000080: f85f 763d 44dc f3be 1484 a93a deb1 7f3e
00000090: 0a18 4b3e be9d 6dbd 74d4 b33d 9de6 d73e
000000a0: 4cad 4fbe ae9c 11be 3903 003e 67c6 9e3c
000000b0: 09d4 04be 7915 80be 5eb3 df3e d0a1 ed3e
000000c0: 47c4 9e3e b1ec 30be 0ab5 ec3d f94a 003e
000000d0: c5d1 14be baf1 97bb 6eaa e63e 9e63 07bc
000000e0: 5871 863c fd38 31be 0105 2a3e f1ab 293e
000000f0: c130 1fbe 4e97 3c3c 2a16 d33e eb35 593e
00000100: 0d68 373d 54c1 26bd 4f1f dfbe 03d5 4e3e
00000110: b020 2c3e 3e0a efba 8e39 263e fd36 43be
00000120: f54f b33d ac4d 073d 7d67 003e 9e28 0abe
00000130: f262 443d acb5 c5be bb55 503e a41d f03e
00000140: 361b f5bd aa34 db3d 4bbe c7bd 57c2 6f3e
00000150: 1f39 453f 3fd6 d43c 91f4 5fbe 4277 8c3d
00000160: b49d a53c 67aa 513e b9f7 f33e 9624 b53d
00000170: 497a 17bf 2cc6 babe 255d 813d 2d03 00bf
00000180: ad0b ddbd f413 063e 6676 23be 03b3 29bf
00000190: b2c6 683d 5d0f 3d3e 8a60 1d3e 52e7 f7bd
000001a0: bcbe 09be 6a81 2abf ce6a 0f3f cd5b ddbc
000001b0: 36cb 8cbe 1848 373d ee51 31be 94ab e23d
000001c0: 73e7 503e 0427 e53d cb89 683f 74d5 573d
000001d0: 988f 40be d0df 363e 7f08 08bd eaee 08be
000001e0: 9982 e03e 017d e5be f433 143f ce5e 893e
000001f0: 5142 23bf 98a0 113f 62ad 8cbb a818 9dbd
00000200: 2e7d 903d 7933 13bf d5d1 ef3c 7a10 313f
00000210: 0e77 8a3d a3cf 003e d9bd d73c
0.32907385 -0.13196759 -0.4442882 0.54356843 0.20914152 -0.17433771 0.2762255 -0.23177637
-0.2809174 -0.108652554 -0.2644193 0.06594656 0.032169968 -0.14451736 0.07948433 -0.6250825
0.15493254 0.5643571 0.12630261 0.1059687 0.33259237 0.14392082 0.15230185 0.014663027
0.44389176 0.09522802 0.05246686 -0.09177976 0.07253481 0.06964079 -0.11626998 -0.08114563
0.060150117 -0.47628987 0.0012933039 0.24970195 0.19833389 -0.058011763 0.087807566 0.4216813
-0.20280951 -0.14219925 0.1250123 0.019381715 -0.1297151 -0.25016382 0.43691534 0.46412516
0.31009123 -0.1727779 0.11557968 0.125286 -0.14533146 -0.0046369703 0.45051903 -0.008263497
0.016411468 -0.17306896 0.16603471 0.16569497 -0.15545942 0.011510683 0.41227847 0.21211974
0.044776965 -0.040711716 -0.43578574 0.20198445 0.16809344 -0.0018237305 0.16232893 -0.19063945
0.08755485 0.033033058 0.12539478 -0.13492057 0.047945924 -0.38615167 0.20345204 0.46897614
-0.11968081 0.10703404 -0.097530924 0.23413979 0.77040285 0.025981067 -0.21870638 0.06858684
0.0202168 0.2047516 0.47649935 0.08844869 -0.5917097 -0.36479318 0.06316594 -0.50004846
-0.107932426 0.13093549 -0.15963134 -0.66288775 0.056830116 0.18462892 0.15368858 -0.12104668
-0.13451666 -0.6660372 0.56022346 -0.027021313 -0.27498788 0.04474649 -0.1731641 0.11067882
0.20400791 0.11189082 0.90835255 0.0526938 -0.18804777 0.17858815 -0.033211228 -0.13372388
0.43849638 -0.44821933 0.57891774 0.26830143 -0.63773066 0.5688567 -0.00429313 -0.076707184
0.07055126 -0.57500416 0.02927486 0.69165766 0.06760989 0.12579207 0.026335644

model.encoder.0.bias f4 [9]
00000000: 4270 0fbe 13cc ba3e 816b 1fbe 9a56 bb3d
00000010: d939 4cbe f9ce 833e 8545 7e3e a690 e73e
00000020: 40b7 3fbc
-0.14007667 0.3648382 -0.15568353 0.09147377 -0.19943942 0.25743845 0.24831207 0.45227545
-0.011701405

model.encoder.3.weight f4 [2, 9]
00000000: b637 a73e 73f9 bfbe b26f 12be 1b5d 85be
00000010: e237 12be 0c71 933e b4f5 033f 6f37 43be
00000020: af81 f4be 62b6 503c b743 8abe c43b b33c
00000030: c0ba 94be f242 393d 389d 05bf f25a 2f3e
00000040: bdb1 0dbf 8585 143f
0.32659692 -0.37495002 -0.14300421 -0.26047596 -0.1427913 0.28797185 0.5154679 -0.19064115
-0.4775519 0.012738796 -0.27004787 0.021879084 -0.2904873 0.04522986 -0.5219302 0.17124537
-0.5534933 0.58016235

model.encoder.3.bias f4 [2]
00000000: 9a06 2e3e 1f5f 15bd
0.16994706 -0.036467668

model.decoder.0.weight f4 [9, 2]
00000000: d0f6 383f 28e0 0dbf 9ffc 543f eb07 833f
00000010: 3182 b5be 25b6 78bc 289b c63d 7e54 25bf
00000020: d513 82be 6ef8 223f ed5d 8a3c 06fe 843f
00000030: c004 8f3c d01d a4bd abb6 2cbf 796f e5be
00000040: ad0b 413e 1c41 9bbe
0.72251606 -0.5542016 0.8319797 1.0236791 -0.3545089 -0.015180145 0.096975625 -0.6458205
-0.25405756 0.63660324 0.01689049 1.0390022 0.01745832 -0.08013499 -0.6746623 -0.4481161
0.1885211 -0.30323112

model.decoder.0.bias f4 [9]
00000000: 841d e2bd 044e 12bc da67 0bbf 1fba 8d3d
00000010: c654 dabe c1cb e13d c993 14bf 4eab c5bd
00000020: ae17 de3e
-0.11040786 -0.008929733 -0.5445534 0.069202654 -0.42642802 0.11025191 -0.58038 -0.096518144
0.4337744

model.decoder.2.weight f4 [15, 9]
00000000: 1f4f 193e f3fc 473f b47b 97be f483 733e
00000010: cc97 a93c 909a fe3e cf24 e8be 8a1b babd
00000020: 1280 e6bd f563 9f3e d396 733e ab41 b43d
00000030: 842a 4b3b e408 80be d410 68be a5e4 1abe
00000040: f467 c23e 8107 f4bd 6996 01bf 7297 44bc
00000050: 3499 89bd 6f13 a5be 2561 b13e 6433 acbd
00000060: 1662 6fbe c24b 4b3f 83f6 ccbc 9edd 3e3e
00000070: 56ad 5ebe 6a8c 1f3d d1ab 8bbe b9aa c43b
00000080: 9ef8 433e f57a b6bd f566 303e 806d 1d3d
00000090: a0e4 303f fcf5 e2bc 5644 8f3e 0496 833d
000000a0: 24d5 d73e 3fd8 7ebd 85b9 91be d502 ccbd
000000b0: 99ff 05be 6731 cabe 99d4 c8be d49e 803e
000000c0: af1c 4d3e f334 a8bc 6adc e53e b6c4 93be
000000d0: 9bdf 293e 916d aabe 195c e3bd df90 893d
000000e0: feed b6be 9f83 3d3e 23dd 0d3e 9d13 7bbd
000000f0: eaed 60bd 025d d83c 7d5e 67bd d79b 79bb
00000100: db3f 9a3d ef87 21bd 7084 2bbe e524 24be
00000110: 0e82 443d fd37 26bd 6635 7b3e 6b50 813e
00000120: 7efd 0ebe e293 46be 7e40 bdbe a023 ce3d
00000130: d589 91be 3382 be3e 930b 263e 3102 be3d
00000140: ca1a 5a3e 88a6 5b3e db89 91bd 438d c83d
00000150: 38fa 153f e877 4a3e ffad c13e 17c0 8b3e
00000160: 36c7 8e3e cad3 90bd 9561 3abe 5758 e0bc
00000170: e835 41be b311 203d a64b 72bd 48c7 993c
00000180: 7476 a2be 0ced ca3c acd0 083e ec63 e33d
00000190: 6e07 b1bc 8d9b 1bbe a627 bebd 69d6 183e
000001a0: c324 d23e d811 3dbe 8223 9a3e 30b6 3abe
000001b0: e89f c23e 3b8c fdbd 599a ee3d ec8a afbe
000001c0: 4d18 03be 9e4d ad3e 81c4 6ebd fb41 2e3e
000001d0: bbd3 843e 0bfd 92be cb2a 0abe 3559 adbd
000001e0: 08d3 83bd 702a 7e3d a265 0ebe af6b 12be
000001f0: 064c fcbc 4f48 3f3e 085b d1bc f768 cd3c
00000200: fec6 2e3b 2624 e93d d51f 783e b2bd 91bd
00000210: c743 ea3c d70f 973c 4a22 16bd
0.14971589 0.78120345 -0.29586565 0.23780805 0.020702265 0.49727297 -0.45340583 -0.09087284
-0.11254896 0.3113095 0.23788004 0.08801588 0.0031000683 -0.25006783 -0.2266267 -0.15126283
0.37969935 -0.11915494 -0.5062013 -0.011998998 -0.06718674 -0.3224139 0.34644428 -0.084082395
-0.2337726 0.7941247 -0.02501989 0.18639228 -0.2174581 0.03895227 -0.27279523 0.006001797
0.19137809 -0.08910171 0.17226775 0.038434505 0.69098854 -0.027705185 0.27981824 0.064250976
0.421548 -0.062217947 -0.28461853 -0.09961478 -0.13085784 -0.39490816 -0.392247 0.25121176
0.20030473 -0.02053306 0.44894725 -0.28861016 0.16589205 -0.33286718 -0.111015506 0.06717085
-0.3572845 0.1850724 0.13853888 -0.061298 -0.054914393 0.026411537 -0.056486595 -0.0038087273
0.07531711 -0.039436277 -0.1674974 -0.16029699 0.047975592 -0.04058074 0.24532089 0.25256667
-0.13963887 -0.1939235 -0.36963266 0.10065389 -0.2842547 0.3720871 0.16215353 0.09277762
0.21299282 0.21450245 -0.07106372 0.097925685 0.5858493 0.19772303 0.3782806 0.2729499
0.2788636 -0.070716456 -0.18201287 -0.027385874 -0.1886822 0.03907938 -0.059154175 0.018771783
-0.31730998 0.024771236 0.13360852 0.11103043 -0.021609988 -0.15196057 -0.09284906 0.14925541
0.41043672 -0.18463838 0.30105215 -0.18233562 0.38012624 -0.123802625 0.11650533 -0.34285676
-0.12802239 0.3384828 -0.05829287 0.17017357 0.25942788 -0.2870868 -0.13492887 -0.084642805
-0.064367354 0.06205219 -0.13905957 -0.1429889 -0.03079797 0.18679927 -0.025556102 0.025074465
0.0026668902 0.11383848 0.24230893 -0.0711626 0.028596772 0.01844017 -0.036653794

model.decoder.2.bias f4 [15]
00000000: 9976 303e a1be 5a3d 7a33 573e e7ea 813d
00000010: b265 1c3e cda1 6a3e 4048 4bbd e1ec c3bd
00000020: a2b7 19be e111 d13d 987b 86bd 8bfe f13d
00000030: 8963 8d3b 1343 7d3d d721 ca3d
0.17232741 0.053404454 0.2101573 0.06343632 0.15273169 0.22913285 -0.04962945 -0.095666654
-0.15011457 0.10208488 -0.065665424 0.11816128 0.004314844 0.061831545 0.09869736
