torch_model_storage_24_Jun_2025/model_Early_IA_Error_v_Early_RS_Error_Het VEH_Early_IA_Error.pt (torch, 8179 bytes, 8 tensors)

model.encoder.0.weight f4 [9, 40]
0.08745517 0.28095603 0.22619575 0.24275835 0.21965554 0.24880005 0.12756246 0.326889
0.077560425 0.14390358 0.09790522 -0.13097604 0.14352383 0.2086742 -0.08823275 0.27930918
-0.04567622 -0.02051109 0.05224004 -0.039510444 0.033230573 -0.090085566 0.1166334 0.16681267
0.3590002 -0.07710785 -0.06689015 0.046632968 0.23821837 -0.123096764 -0.041228954 0.28076047
0.06516812 0.07688379 0.10318409 0.21118745 0.07281857 0.0067052017 0.004099935 0.0034028254
-0.06871921 -0.4248435 -0.27780777 -0.13799357 -0.056185458 -0.22780403 -0.100600444 -0.380438
-0.22736728 0.26804236 -0.0930291 -0.10496076 -0.08871375 0.010179229 -0.13502683 -0.21726629
-0.15593354 -0.039788425 0.12003589 0.040811412 -0.009234917 0.18450817 -0.09185168 -0.14869238
0.07418933 0.10230134 -0.20193103 -0.08125149 -0.13737494 -0.11655043 0.07944358 -0.030552862
0.35490993 0.0726596 -0.08390981 -0.10312188 0.07410504 0.005848011 -0.03205096 0.104577005
0.34722847 -0.28173614 -0.08139471 -0.009482604 0.006903276 -0.06760111 0.03487114 -0.2728705
-0.05972408 0.004075525 0.05498724 0.0866408 0.18740313 0.15037495 0.032263305 -0.27017918
-0.01410838 0.07988634 0.15344022 -0.019383334 -0.008553738 -0.065477744 0.11793012 -0.16893822
0.1579298 0.11110452 -0.13569336 -0.07838879 -0.13709238 0.0069710487 0.11954434 0.10861905
0.3296375 0.020750595 0.20720203 0.011979975 0.38028598 0.0765185 -0.1432803 0.2811422
0.19118397 0.20561348 0.28255716 0.30037484 0.26423213 0.30448416 0.19011521 0.64374775
0.23811452 0.19517094 0.42809698 0.11981317 -0.03169451 0.120985985 0.10121503 0.4009579
-0.08843475 0.019733971 -0.15724626 0.027981889 -0.02161729 0.04788098 0.13350219 -0.07328698
0.3076001 0.046953697 -0.0767625 0.18692829 0.11722945 0.09886514 -0.02868505 0.11419031
-0.12292201 0.019470358 -0.029996991 0.08418482 -0.12171864 0.15291981 0.024995005 -0.06468127
-0.24852468 -0.1426992 -0.17656702 0.04003861 -0.24406771 -0.03535014 -0.090892635 -0.41687799
-0.15816891 0.03509551 -0.21498165 -0.29386926 -0.21032156 -0.1794301 -0.07798829 -0.24717735
-0.04719024 -0.04068009 0.13625188 -0.09438936 -0.26946113 -0.116897136 0.062365994 -0.11286346
-0.21796663 -0.17053506 -0.1353899 -0.04272599 -0.26263824 -0.051318016 0.004228459 -0.19470745
-0.08886497 -0.16437165 -0.15306675 -0.028858991 0.06502097 -0.14286901 -0.10171326 0.09792567
-0.06096085 -0.19200937 0.01712317 0.020610161 0.04089814 -0.12671253 -0.20689179 -0.09468697
0.09864182 -0.042863388 0.024834007 -0.23600313 -0.22183049 -0.025975846 0.10076826 -0.054420598
0.08595813 0.04083675 -0.026995433 0.004881312 0.14431238 -0.13877122 -0.033207707 0.11889006
0.1178135 0.110597454 0.018639276 0.06443059 -0.16841997 -0.3115761 0.14327249 0.34114125
0.2482089 -0.22212204 -0.061530802 -0.20478562 0.09883438 0.09566627 0.107677415 0.10406331
0.6112345 -0.0049671466 0.014586148 -0.12538482 0.09653496 -0.064485684 -0.16441101 0.13146733
0.12145852 -0.025103448 -0.12903088 -0.09027371 0.31906655 0.019457042 0.11906968 -0.17227717
00000000: b21b b33d 78d9 8f3e dc9f 673e a595 783e
00000010: 62ed 603e 71c5 7e3e bc9f 023e ff5d a73e
00000020: 00d8 9e3d 765b 133e 8882 c83d 951e 06be
00000030: e9f7 123e b1ae 553e 5fb3 b4bd 9d01 8f3e
00000040: fd16 3bbd e006 a8bc a7f9 553d b4d5 21bd
00000050: c81c 083d c87e b8bd 7edd ee3d f1d0 2a3e
00000060: e0ce b73e b8ea 9dbd b4fd 88bd 3602 3f3d
00000070: 84ef 733e 281a fcbd b1df 28bd d6bf 8f3e
00000080: dd76 853d 4075 9d3d 2e52 d33d 8641 583e
00000090: e721 953d 4fb7 db3b bf58 863b f001 5f3b
000000a0: a8bc 8cbd 1685 d9be d23c 8ebe 304e 0dbe
000000b0: b922 66bd 7645 69be 9b07 cebd c5c8 c2be
000000c0: f8d2 68be d93c 893e 0a86 bebd abf5 d6bd
000000d0: 8eaf b5bd c8c6 263c 7944 0abe 0e7b 5ebe
000000e0: 0bad 1fbe 30f9 22bd 60d5 f53d de29 273d
000000f0: 0d4e 17bc b6ef 3c3e bc1c bcbd d142 18be
00000100: 93f0 973d 5d83 d13d 02c7 4ebe 2e67 a6bd
00000110: 04ac 0cbe feb1 eebd 51b3 a23d ff49 fabc
00000120: c1b6 b53e 8ece 943d e8d8 abbd 9031 d3bd
00000130: 62c4 973d aca0 bf3b de47 03bd 782c d63d
00000140: eec7 b13e b83f 90be 45b2 a6bd ed5c 1bbc
00000150: e034 e23b 7372 8abd 0ad5 0e3d afb5 8bbe
00000160: 3da1 74bd fb8b 853b 4d3a 613d bb70 b13d
00000170: 9be6 3f3e e4fb 193e 8726 043d ed54 8abe
00000180: d626 67bc 739b a33d 6f1f 1d3e ccc9 9ebc
00000190: fa24 0cbc 3219 86bd 5985 f13d 24fe 2cbe
000001a0: 59b8 213e c48a e33d 33f3 0abe 4d8a a0bd
000001b0: f261 0cbe 656d e43b aad3 f43d aa73 de3d
000001c0: 3fc6 a83e 27fd a93c c52c 543e a847 443c
000001d0: d8b4 c23e bbb5 9c3d 12b8 12be dff1 8f3e
000001e0: bbc5 433e 578c 523e 55ab 903e bbca 993e
000001f0: 6f49 873e 59e5 9b3e 90ad 423e a7cc 243f
00000200: 4bd4 733e e4da 473e 872f db3e 9b60 f53d
00000210: 1ad2 01bd 80c7 f73d d349 cf3d 5b4a cd3e
00000220: 471d b5bd 23a9 a13c 2a05 21be 463a e53c
00000230: be16 b1bc d91e 443d ccb4 083e 7c17 96bd
00000240: c37d 9d3e 8552 403d a835 9dbd 216a 3f3e
00000250: fe15 f03d ce79 ca3d e9fc eabc 9cdc e93d
00000260: 89be fbbd 4d80 9f3c 40bc f5bc 1769 ac3d
00000270: 9f47 f9bd 0397 1c3e 53c2 cc3c 9d77 84bd
00000280: 417d 7ebe bd1f 12be fccd 34be 87ff 233d
00000290: e3ec 79be 4fcb 10bd eb25 babd 0871 d5be
000002a0: 08f7 21be 4fc0 0f3d 2624 5cbe 0876 96be
000002b0: 895e 57be 86bc 37be 53b8 9fbd 0f1c 7dbe
000002c0: 8e4a 41bd 2ba0 26bd 9d85 0b3e 354f c1bd
000002d0: cff6 89be c467 efbd 7c73 7f3d f524 e7bd
000002e0: a532 5fbe bea0 2ebe a6a3 0abe 7301 2fbd
000002f0: 8578 86be d732 52bd e38e 8a3b 6461 47be
00000300: d6fe b5bd 0b51 28be 88bd 1cbe b169 ecbc
00000310: b729 853d 414c 12be 0b4f d0bd 418d c83d
00000320: 16b2 79bd 1b9e 44be e445 8c3c a4d6 a83c
00000330: cf84 273d eec0 01be 71db 53be 3eeb c1bd
00000340: b904 ca3d 8591 2fbd b070 cb3c ceaa 71be
00000350: 8827 63be 4ccb d4bc 975f ce3d 22e8 5ebd
00000360: d10a b03d 7044 273d 8725 ddbc 6af3 9f3b
00000370: a0c6 133e 0b1a 0ebe ce04 08bd a27c f33d
00000380: 3448 f13d eb80 e23d 65b1 983c 2ff4 833d
00000390: 4976 2cbe e786 9fbe 06b6 123e 11aa ae3e
000003a0: 792a 7e3e f673 63be b907 7cbd 52b3 51be
000003b0: ae69 ca3d adec c33d fa85 dc3d 251f d53d
000003c0: dd79 1c3f 72c3 a2bb bdfa 6e3c e164 00be
000003d0: 1fb4 c53d 1211 84bd 5c5b 28be 5f9f 063e
000003e0: 3fbf f83d bfa5 cdbc ac20 04be 6ce1 b8bd
000003f0: b15c a33e 6064 9f3c ceda f33d 6d69 30be

model.encoder.0.bias f4 [9]
-0.17552738 -0.00012138291 0.09229436 0.011197119 0.09857873 -0.0547364 -0.14061835 -0.14833035
0.12597214
00000000: 73bd 33be f48e feb8 d304 bd3d 1f74 373c
00000010: a5e3 c93d 4633 60bd 42fe 0fbe e9e3 17be
00000020: d7fe 003e

model.encoder.3.weight f4 [2, 9]
-0.09887053 0.30800954 0.3159003 -0.065744765 0.033245575 0.14720878 0.44373256 0.42135522
-0.4342647 0.18151191 -0.19904181 -0.16796333 0.39977404 -0.34306905 -0.23259926 -0.095096104
-0.27294433 -0.027568176
00000000: a27c cabd 6db3 9d3e afbd a13e 31a5 86bd
00000010: 832c 083d e6bd 163e ea30 e33e dfbb d73e
00000020: f157 debe 42de 393e 9ed1 4bbe 94fe 2bbe
00000030: 2faf cc3e bfa6 afbe 802e 6ebe bfc1 c2bd
00000040: 5cbf 8bbe a8d6 e1bc

model.encoder.3.bias f4 [2]
0.015056422 -0.15097241
00000000: 36af 763c 8398 1abe

model.decoder.0.weight f4 [9, 2]
0.8614928 0.2467169 -0.63370025 0.43620342 -0.37034672 0.046988476 0.039989013 -0.88019216
0.052245732 0.13406986 0.12765563 0.28662628 0.41065785 0.37865028 0.39401302 0.6975526
0.32352632 0.7139684
00000000: cb8a 5c3f 5ba3 7c3e 2e3a 22bf 0e56 df3e
00000010: 169e bdbe fd76 403d 85cb 233d 4654 61bf
00000020: 9fff 553d 9c49 093e 28b8 023e aec0 923e
00000030: bf41 d23e 73de c13e 13bc c93e cf92 323f
00000040: 3ea5 a53e a2c6 363f

model.decoder.0.bias f4 [9]
0.05389206 -0.42883632 -0.024869706 0.054391205 0.114399455 -0.19205281 0.22888489 -0.47678038
0.21263872
00000000: ecbd 5c3d 6f90 dbbe 8ebb cbbc 50c9 5e3d
00000010: 434a ea3d 7ea9 44be cd60 6a3e 8f1c f4be
00000020: f7bd 593e

model.decoder.2.weight f4 [40, 9]
0.703532 -0.4913164 -0.065575525 -0.29551592 -0.023274206 -0.040864673 0.4369845 -0.0044300635
0.20947392 0.11921472 -0.018378306 0.43120712 -0.7113823 -0.2026753 0.110333405 -0.34353387
0.14534742 0.100992925 0.03331323 -0.21730097 -0.04797761 -0.2894018 0.3748677 -0.20239142
-0.042662397 0.1271921 0.35625854 -0.028882978 0.274301 0.085840836 0.047233567 0.24541166
0.2177369 -0.10913514 0.20838945 0.14584538 0.23664847 -0.15573628 -0.19898888 -0.065256014
0.0440777 -0.24773791 -0.014798432 0.10896326 0.4692003 -0.11030362 0.13425629 0.012200305
-0.22057232 -0.079270646 0.3294873 -0.11997658 -0.124228865 0.3740725 -0.038283654 0.05481134
-0.019461667 -0.003224301 -0.0012549909 0.20874783 -0.116002806 -0.24875753 0.36696506 -0.14062394
0.25367734 -0.32836416 -0.68060786 0.19899721 0.09452238 0.33553767 0.5371579 0.2603257
0.0043241815 -0.099431805 -0.21547365 -0.36621764 0.0933035 0.080984525 0.27711657 0.16145106
-0.028596725 -0.187931 -0.059646923 0.08605877 -0.04360144 -0.29117158 0.22694147 0.21863225
-0.1244594 0.19945103 -0.0372389 -0.0028474594 -0.286547 -0.012515845 0.49473774 0.0042346423
-0.07178881 0.08414799 0.51038915 0.14945357 -0.0947399 0.19631925 -0.20347522 0.2965087
-0.19476469 0.0663722 -0.39418304 0.18694001 0.48807985 -0.0020424952 -0.09997045 -0.3676494
-0.094840646 0.27064162 0.045000218 -0.06642782 -0.15711957 -0.2910465 -0.2831528 -0.25100175
-0.04472396 0.018202975 0.0805171 0.39616248 0.11817623 0.1598402 0.07023762 -0.08749057
-0.061201043 -0.17307362 0.27982837 -0.15292415 0.28751168 0.005887642 -0.10047387 -0.12616602
0.18912783 0.18444242 -0.54341114 -0.010931477 0.18213168 0.035739318 -0.30028132 0.36363465
-0.046914004 -0.11201364 -0.3537102 -0.012866693 0.2340008 -0.27316782 0.030768197 -0.017363068
-0.029023763 0.010698074 -0.028018767 0.07673665 0.058156133 0.08163245 0.15215862 -0.006100455
0.24099982 -0.034695264 -0.38783067 -0.35573784 0.018911928 0.36889547 -0.15201986 -0.16905622
0.25424862 0.09985699 0.16092151 0.12142273 0.1465523 0.13775887 -0.078422 0.2492248
0.04943488 0.0849948 -0.44998565 -0.086448684 0.08018262 0.031320028 -0.28924167 -0.12047875
-0.13550602 -0.38910913 0.19486159 -0.25143713 0.1681284 0.18398392 0.057278123 -0.28651944
0.0067144656 -0.2592027 0.3263954 0.10669607 0.12435459 0.03411878 0.05349538 0.010184963
0.03250548 0.06965778 0.15460391 0.17917776 -0.20829175 0.051947866 0.14258154 0.026045308
-0.12482254 0.09463956 -0.029063895 -0.34173056 0.2165331 0.0492873 -0.18150912 0.14559762
0.55791837 -0.06689079 -0.018606797 -0.15567863 -0.04114574 0.14613724 -0.09052576 0.09878879
0.43541828 0.11978198 0.17241523 -0.18649252 0.039943226 0.26984608 -0.051668495 -0.14967552
-0.18769394 0.13861461 -0.12837526 -0.23163922 0.0046423594 -0.009935961 -0.27941036 0.069330715
0.28711906 -0.11019607 0.05357861 0.01897072 0.22226024 0.015376829 0.13666813 -0.15232691
0.056848917 0.20541377 0.026228197 0.15810066 0.31590033 0.30228803 -0.46237838 -0.75553393
00000000: ac1a 343f d38d fbbe 764c 86bd dd4d 97be
00000010: 8ca9 bebc b761 27bd 6fbc df3e 112a 91bb
00000020: 5580 563e d926 f43d 1a8e 96bc 2ec7 dc3e
00000030: 271d 36bf 1d8a 4fbe 7bf6 e13d ace3 afbe
00000040: f4d5 143e 61d5 ce3d 7473 083d 2584 5ebe
00000050: 2c84 44bd 792c 94be a9ee bf3e b23f 4fbe
00000060: c4be 2ebd a53e 023e 8567 b63e ff9b ecbc
00000070: 2e71 8c3e 52cd af3d fc77 413d 324d 7b3e
00000080: 6cf6 5e3e 3f82 dfbd 0b64 553e 7e58 153e
00000090: fa53 723e 5579 1fbe bec3 4bbe f2a4 85bd
000000a0: d18a 343d 02af 7dbe 1f75 72bc 2128 df3d
000000b0: 063b f03e dde6 e1bd 7b7a 093e cae3 473c
000000c0: b6dd 61be a658 a2bd 8fb2 a83e 48b6 f5bd
000000d0: b46b febd 6e86 bf3e 52cf 1cbd db81 603d
000000e0: 136e 9fbc cb4e 53bb 827e a4ba fec1 553e
000000f0: e192 edbd 4bba 7ebe d8e2 bb3e b9ff 0fbe
00000100: ffe1 813e 591f a8be 513c 2ebf edc5 4b3e
00000110: f394 c13d 98cb ab3e 2e83 093f 6949 853e
00000120: ddb1 8d3b e7a2 cbbd 20a5 5cbe e180 bbbe
00000130: e815 bf3d 37db a53d 39e2 8d3e 6d53 253e
00000140: ae43 eabc fc70 40be 5550 74bd 953f b03d
00000150: 6c97 32bd 7114 95be 5863 683e 22e1 5f3e
00000160: 92e4 febd e43c 4c3e d187 18bd 719c 3abb
00000170: 4ab6 92be 420f 4dbc 444e fd3e c1c2 8a3b
00000180: 0306 93bd c855 ac3d dda8 023f 5b0a 193e
00000190: fe06 c2bd ea07 493e cf5b 50be fdcf 973e
000001a0: 6570 47be 26ee 873d 5cd2 c9be 346d 3f3e
000001b0: 9ae5 f93e 62db 05bb 4fbd ccbd 8b3c bcbe
000001c0: d03b c2bd 8a91 8a3e 2652 383d 4f0b 88bd
000001d0: f4e3 20be 0c04 95be 67f9 90be 4d83 80be
000001e0: 7930 37bd 681e 953c 26e6 a43d cfd5 ca3e
000001f0: 6106 f23d 26ad 233e bed8 8f3d 422e b3bd
00000200: f2ad 7abd 363a 31be aa45 8f3e 2698 1cbe
00000210: bb34 933e 1fed c03b 3fc5 cdbd aa31 01be
00000220: baaa 413e 79de 3c3e fe1c 0bbf f019 33bc
00000230: ba80 3a3e 6463 123d 79be 99be 522e ba3e
00000240: e628 40bd 6867 e5bd 8119 b5be d2ce 52bc
00000250: e89d 6f3e a7dc 8bbe 960d fc3c fe3c 8ebc
00000260: 3ec3 edbc f946 2f3c 9d87 e5bc 1b28 9d3d
00000270: 2035 6e3d ea2e a73d 78cf 1b3e 53e6 c7bb
00000280: a8c8 763e 9f1c 0ebd be91 c6be 4523 b6be
00000290: 30ed 9a3c dedf bc3e 18ab 1bbe 131d 2dbe
000002a0: e02c 823e d281 cc3d 9cc8 243e 7bac f83d
000002b0: ce11 163e a910 0d3e b79b a0bd c934 7f3e
000002c0: 3b7c 4a3d c111 ae3d 8564 e6be 020c b1bd
000002d0: c936 a43d 6e49 003d 7c17 94be 90bd f6bd
000002e0: 17c2 0abe 5039 c7be cc89 473e 5ebc 80be
000002f0: da29 2c3e 4866 3c3e 779c 6a3d adb2 92be
00000300: 0505 dc3b 37b6 84be 4c1d a73e 7883 da3d
00000310: 9fad fe3d 22c0 0b3d f91d 5b3d d5de 263c
00000320: 7724 053d bda8 8e3d 7d50 1e3e 607a 373e
00000330: 6f4a 55be 49c7 543d e500 123e f85c d53c
00000340: f6a2 ffbd 63d2 c13d 6817 eebc 4ff7 aebe
00000350: daba 5d3e 7be1 493d 87dd 39be 8b17 153e
00000360: bdd3 0e3f 0afe 88bd 486d 98bc 386a 1fbe
00000370: 6f88 28bd 00a5 153e 9265 b9bd c751 ca3d
00000380: 25ef de3e 4150 f53d 9e8d 303e e5f7 3ebe
00000390: 829b 233d 4429 8a3e 58a2 53bd 8a44 19be
000003a0: d732 40be fdf0 0d3e ce74 03be d532 6dbe
000003b0: ef1e 983b 71ca 22bc e00e 8fbe 43fd 8d3d
000003c0: 4501 933e 7aae e1bd 3f75 5b3d 7c68 9b3c
000003d0: 3098 633e 18ef 7b3c bbf2 0b3e 96fb 1bbe
000003e0: 69da 683d fd57 523e 84dc d63c 24e5 213e
000003f0: b0bd a13e 7fc5 9a3e dcbc ecbe ac6a 41bf

model.decoder.2.bias f4 [40]
-0.12598237 0.27782252 -0.0460813 0.14635706 -0.060155045 0.1153993 -0.02522179 0.17553923
0.03644351 0.002752394 -0.033443023 -0.14015096 0.083470404 -0.055840746 0.0037542991 0.049241636
0.05131635 0.10220122 0.006050758 -0.005841981 -0.11005566 0.08686957 0.032199904 -0.027886705
0.035845056 -0.004672384 -0.075940125 0.026981177 0.16262697 0.10889309 0.15662812 -0.06996615
-0.097397536 0.14224972 -0.03136333 0.21604373 -0.009696826 0.049254574 0.03254333 -0.074840546
00000000: 8601 01be c13e 8e3e bfbf 3cbd a0de 153e
00000010: 2365 76bd 7856 ec3d ed9d cebc 8ec0 333e
00000020: ca45 153d 8261 343b 8dfb 08bd bc83 0fbe
00000030: 88f2 aa3d 44b9 64bd b00a 763b 99b1 493d
00000040: 1831 523d e04e d13d 7045 c63b 176e bfbb
00000050: dd64 e1bd ace8 b13d 0ce4 033d a972 e4bc
00000060: 44d2 123d cc1a 99bb 7f86 9bbd a107 dd3c
00000070: af87 263e 5703 df3d 1f63 203e 6a4a 8fbd
00000080: 5c78 c7bd e9a9 113e d676 00bd 913a 5d3e
00000090: 70df 1ebc 2abf 493d 284c 053d 0046 99bd
