torch_model_storage_24_Jun_2025/model_Early_IA_Correct_v_Early_RS_Correct_Het postCLNZ_Early_RS_Correct.pt (torch, 10509 bytes, 8 tensors)

model.encoder.0.weight f4 [9, 64]
00000000: be6e 6ebe 7ce9 bebb 478e 20be adaa d3bd
00000010: 8959 1bbd cbe7 7a3e 2365 0dbe b9e0 4ebe
00000020: 8112 b03e a37f f73c 1a31 0cbe c743 9a3c
00000030: 18e8 4c3d 6d27 5d3e f6d8 bdbd 31f5 24bb
00000040: 5fa2 a6bc 0e6e 88bd d287 09be adc4 08be
00000050: 2211 08be 80cc 0a3e b6f5 113d 63f1 68bc
00000060: 15ce 9e3b 7e4e f1bd cf9b f2ba 738a e93d
00000070: 988e d8bd 04f9 b43d 94c3 cb3c 53e0 1d3e
00000080: cd14 783e 90df fabd 78a2 1e3e ed2a a2bd
00000090: 01cd 83bd 58c5 02be 2d59 fbbc adbf dbbd
000000a0: e7d0 94bd 1ddc bc3d 51e5 79bd 0169 d83d
000000b0: 3080 ba3d adc6 8b3d 2085 16be ee80 10bc
000000c0: 8ccd 31be 4816 ccbb 5c09 603d d66d 1ebb
000000d0: ddbb d63d 2e21 afbd 8e5b d93d a7ee 003c
000000e0: f661 1cbd 1045 5fbc d046 53bc 4ac4 cd3d
000000f0: 0767 c5bd 6583 d13c 3101 fb3c bbd5 c7bb
00000100: efcf 0f3d cb86 2f3d a85c 30be 6a12 06bd
00000110: c627 3dbd ef4e d13d b735 54bc 337a 88bd
00000120: d740 353e 7105 043e 92be 9dbd bc1e fabc
00000130: ee29 813d eb78 3fbc 50ad 52be 6d6b 5b3d
00000140: ba3c acbd 5ce5 7d3c bb75 a3bd 0b3e 05be
00000150: fedf e5bd 2e81 90bd d9a8 acbd 737c 9cbd
00000160: c1a2 efbd 748f 81bb e23e 28be 95b3 5eba
00000170: 273c 58ba a572 e6bb 8c1b 5fbd f0a4 383e
00000180: d27c 183e fddf 203e abb9 d23d 1705 013d
00000190: 0439 a53d f8fb f4bd d6b9 04bd bb77 d9bc
000001a0: 6485 4fbd a95a 443e e02e cbbd 652d e33c
000001b0: b0bd 8fbb 5ccb 8fbc 11a1 eeba e57f 77bd
000001c0: adb1 07be de2d 013e cacc febb fb52 c43d
000001d0: 2fd4 16bd 97a0 89bd 3227 833d 540d 63bd
000001e0: b918 7abd a88e b13a 0f2f 17be b495 ef3d
000001f0: 4f90 1ebe 6b35 4abe 802a 9ebd 146e 44be
00000200: 3a63 713d 84e5 0fbc 60f7 22bd 2572 cfbd
00000210: 9127 ebbd 2675 7e3e 66e7 9dbc bed5 1dbe
00000220: 5e00 e63d e8d4 163d 75e2 09be d8f7 9c3b
00000230: f0d9 9c3d 22e3 fc3d 732d 31be 8c4d 0dbd
00000240: be01 a3bd 76eb e0bd 1e51 38be 4ebb 103c
00000250: 91d6 e1bd bc12 9dbc 20d1 eabd bef5 943a
00000260: d04c 0bbe 41e3 433d f93f 0e3c 5436 c4bd
00000270: 26ee a2bc 1956 47bd e40a 1d3d cb18 af3d
00000280: 4442 673e 15cc 163d 8824 4f3e c792 283b
00000290: debc 96bd 52d7 dabd 2fb0 10be 6569 31bc
000002a0: de1b 38be 58f4 0e3e 027b 8d3c 9498 04bb
000002b0: 3ba6 803d 1f47 173d 3915 33be 3040 813b
000002c0: d183 0fbe 7246 5f3d 53f8 b4bd d71f 4fbd
000002d0: 3a7d 96bd 4c91 70bd f0bf 0b3d 35e6 d2bd
000002e0: c885 873c 5651 e5bc 346b 5c3c 5369 973d
000002f0: 4e6b 60be eb4a 9ebd 29a2 81bc 2979 9abc
00000300: dc62 3d3e e1b5 463d eb4c f63d 804d 783c
00000310: 1dab 48bd ca0f 623c 6010 2b3e 60c7 b83e
00000320: a07b 52be 9bc2 8f3d 22ed b73e 6933 3f3e
00000330: 57f2 a13d 9d51 89bc 42e6 0b3e c166 883d
00000340: 74d1 a63e e597 9fbd f5ae 3f3e a7e9 453e
00000350: fbe0 603e 8f98 86bc 22df d3ba b36b 653e
00000360: f12c b2bc d0db fc3d d2f2 f63d 89ed bfbd
00000370: 6464 2dbe 4251 233c 6673 3a3e fe46 68bd
00000380: f17f 02be 8387 4d3e c735 8bbd 8994 263d
00000390: ac2d 323e aa00 063e 6ee4 253d 68b7 443e
000003a0: 54a5 1f3d 7f97 23bc 86eb 40bd 652e de3d
000003b0: c416 643e 33ab 2b3d 7144 c23d 8be4 86bc
000003c0: 7b88 993e 206c f83d f37a 9c3d c8f4 793c
000003d0: 2152 06be 5ad0 a7bc eb14 e63d 65e0 103e
000003e0: 7abf 893d baef 07bd 50c8 67be e68d 273d
000003f0: db2e 4d3e 4b9d 1f3e 689e 763d 4ecb c43d
-0.23284432 -0.0058261734 -0.15679274 -0.10335288 -0.037927184 0.24502485 -0.13808112 -0.20202912
0.34389117 0.03021223 -0.13690606 0.018831147 0.05002603 0.21597071 -0.09269898 -0.002517056
-0.020341096 -0.06661616 -0.13430718 -0.13356276 -0.13287786 0.13554573 0.03563472 -0.014217707
0.0048463442 -0.11782549 -0.0018509569 0.1140336 -0.105740726 0.088365585 0.024873532 0.15417604
0.24226685 -0.122496724 0.15491664 -0.07918344 -0.06435586 -0.12770593 -0.03068217 -0.10729919
-0.072664075 0.09221671 -0.06100971 0.10566903 0.09106481 0.06825004 -0.1469922 -0.008819802
-0.17363566 -0.006228242 0.054696426 -0.0024174354 0.10485051 -0.085512504 0.10613166 0.007869399
-0.03817936 -0.013627306 -0.012895301 0.10047205 -0.096387915 0.02557535 0.030640217 -0.0060984767
0.03511041 0.042853158 -0.17222846 -0.032732405 -0.04618051 0.102201335 -0.01295226 -0.06663933
0.17700516 0.128927 -0.07702364 -0.030532233 0.063068256 -0.011686544 -0.20573926 0.053569246
-0.0841002 0.015496578 -0.0798144 -0.13011949 -0.11224364 -0.07055889 -0.08430643 -0.07640924
-0.11700965 -0.0039538685 -0.16430238 -0.0008495388 -0.00082487095 -0.0070327097 -0.05446963 0.18031669
0.14891365 0.15710445 0.102893196 0.031498995 0.080675155 -0.11962122 -0.03240379 -0.02654635
-0.05066432 0.19175209 -0.0992105 0.027731607 -0.004386626 -0.017553024 -0.001820596 -0.060424704
-0.13251372 0.12615153 -0.0077758776 0.0958614 -0.036823448 -0.06720083 0.0640396 -0.055432633
-0.061058734 0.0013546543 -0.14764045 0.116984755 -0.15484737 -0.1974694 -0.0772295 -0.19182616
0.05893252 -0.008782748 -0.039786696 -0.10129193 -0.11482156 0.24849376 -0.019275378 -0.15413567
0.11230539 0.036824137 -0.13465293 0.0047902875 0.07658756 0.1234801 -0.17302494 -0.034497783
-0.07959317 -0.109824106 -0.17999694 0.008833719 -0.110272534 -0.019173972 -0.11465669 0.0011364741
-0.1360352 0.047824148 0.008682244 -0.09580675 -0.019888949 -0.048666093 0.038340464 0.08549651
0.22583872 0.03681572 0.2022878 0.0025722252 -0.07360242 -0.106856 -0.14129709 -0.010828351
-0.1797938 0.13960397 0.017270569 -0.0020232545 0.06281706 0.03693306 -0.17488565 0.0039444193
-0.14015128 0.05451054 -0.088364266 -0.050567474 -0.07348104 -0.058732316 0.034118593 -0.10297815
0.016543284 -0.027992886 0.013453294 0.07393136 -0.21915933 -0.07729133 -0.015824394 -0.018856602
0.18494743 0.048513297 0.1202639 0.015155196 -0.04899131 0.01379771 0.16705465 0.3608961
-0.20554972 0.0701954 0.35923105 0.18671955 0.07907551 -0.016762549 0.13662055 0.06660224
0.32581675 -0.077926435 0.18719085 0.19327413 0.21960823 -0.016430167 -0.0016164521 0.22404365
-0.021749945 0.123466134 0.12058033 -0.09371478 -0.16932827 0.009968104 0.18208084 -0.05670833
-0.12744118 0.20071225 -0.067973666 0.040668998 0.17400235 0.13086191 0.04050105 0.19210589
0.03897603 -0.00998485 -0.047099613 0.10848693 0.2227431 0.041911315 0.094857104 -0.0164664
0.2998694 0.12129998 0.07640638 0.015256114 -0.13117267 -0.020485092 0.112344585 0.141481
0.067259744 -0.033187605 -0.22635007 0.04090681 0.20037405 0.15587346 0.06020966 0.0960909

model.encoder.0.bias f4 [9]
00000000: 74d8 3d3e 2ece 5b3e c671 e83d 0172 183d
00000010: be65 23be dcd5 5bbd 08ba 193c daa2 4e3d
00000020: abb4 8a3d
0.18539602 0.2146537 0.113498256 0.037218098 -0.1595678 -0.05367075 0.009382732 0.050448276
0.06772741

model.encoder.3.weight f4 [2, 9]
00000000: 797e cc3c b2b1 47be 7796 91bd 7c82 c33d
00000010: 24e9 4b3c fe37 2b3e 9eab 883e 5cf7 79be
00000020: da9e 39be f5fa b8be 0974 b7be 74d2 0dbe
00000030: 52d5 483e 4233 8d3e a5b3 87be 0e97 19be
00000040: 4010 5fbb 9427 9dbe
0.02496265 -0.19501379 -0.07108777 0.09546372 0.012445722 0.16720578 0.26693434 -0.24410766
-0.18127003 -0.36128965 -0.35830715 -0.13849813 0.19612625 0.2757817 -0.26504245 -0.14999029
-0.0034036785 -0.30694258

model.encoder.3.bias f4 [2]
00000000: 5f6f 593d 764f c1bd
0.053084727 -0.09438984

model.decoder.0.weight f4 [9, 2]
00000000: 39fe 6a3e 9111 033f b08e 213f 39a5 7abe
00000010: 642b 293d 5643 0b3f 04d4 d0be d497 793b
00000020: 5cb7 fa3c c486 eb3e 090c 81be 43be ccbd
00000030: 4b77 013f 9c30 8d3e db8e 2e3e 4a00 75be
00000040: d51c a53c 00b8 963e
0.22948541 0.5119868 0.6310835 -0.2447709 0.041301146 0.5439962 -0.40786755 0.0038084881
0.03060501 0.46001256 -0.25204495 -0.09997227 0.5057265 0.2757615 0.17046683 -0.23925892
0.02015535 0.29437256

model.decoder.0.bias f4 [9]
00000000: 0f05 e33c 6556 73be 3e33 bc3e d40a 343e
00000010: efd4 0a3e e705 b9be 4098 053f 4fd8 2fbf
00000020: 23a7 53be
0.027712373 -0.23763426 0.36757845 0.17582256 0.1355779 -0.36137316 0.5218544 -0.68689436
-0.20669226

model.decoder.2.weight f4 [64, 9]
00000000: d022 623c 805d 3dbe ce2c 4e3e e148 083f
00000010: 5db3 dc3d edf9 44be 2278 533e 653d a1bd
00000020: efcd b8bd 70df b9bd 1c94 e73e b8ed 11bd
00000030: 9974 d7be 1e78 5dbe 49c3 37be bdcd f9bc
00000040: d6af 91be b8e1 603d 2b85 a53e 5307 a13d
00000050: 324f 9c3d 38dd 32be 09a9 8d3d b115 b03b
00000060: 1e57 8b3e 70bb 1fbe 112f a2be 73c0 9e3d
00000070: 72d9 48be 7d65 a4bc 859d b5bd 966d 5fbe
00000080: 3529 17bd ea1b 813e 2ffd b63e 907c a53d
00000090: d05b 16bc 645c 8dbc ddf7 82be 8fd7 40be
000000a0: 727c 5a3d 525f 54bd 1ef0 273e 09e7 653e
000000b0: f1a6 ad3c 3c33 65bd 0195 4f3e 37f9 17be
000000c0: 9482 07be be2f 58be 0567 1bbd f36e 1bbe
000000d0: e3db 423e 75a9 9fbd cf2e a73d 7231 013d
000000e0: f9a1 943d b41f 59bd 5f07 083e ce22 a9be
000000f0: 1de1 6c3e 7567 273e f21b 333e 0176 1d3f
00000100: 5eef a23e 3d5c 8b3e c9b3 bebe bc46 8abd
00000110: 352d eb3d 5288 0ebc bee6 ee3c 1091 143e
00000120: ab2f 9fbe 5f92 ff3e 5bbe 19bf 7e03 62be
00000130: 1b20 07bf 93f0 61be ca38 c1bd 966f b73d
00000140: 5247 b8be 76a2 ecbc 8b5e 083f 9a5c 0bbe
00000150: 6163 4bbe 4234 4e3e 99ee 463e 3231 00be
00000160: e390 6f3e 7872 1a3d 957f ca3e 46fe 393e
00000170: 144e 6e3e f465 05bf b279 c33e 6471 e83c
00000180: 6967 4d3d 428a 8a3d e49c 8cbd 597c c5bd
00000190: da83 d53e 9e11 123e 851c 2bbe 2e3f aa3d
000001a0: 742e a33b 10a7 3c3e f751 953e dd90 d33c
000001b0: c737 61be 5d74 61be 1738 f0bb a0db 58be
000001c0: 0f10 38be 97f9 81be 04ee 313d 86ef fc3d
000001d0: cc37 abbe 429f ef3d 8b35 1a3f 645f 6cbe
000001e0: 08bf d5be 3112 5cbe 0141 473d ec4d 22be
000001f0: 8c3c 6b3d 668e 12be 9a99 583d 229b c83e
00000200: d69a 493e caf4 f6be a2e2 153e ea6e 143e
00000210: 8498 423e b0b3 f9bb 320c fc3d 3b96 1d3e
00000220: f329 b23e fc76 a43d c681 78be cdd2 bcbd
00000230: fca3 403e b82b 1bbe a915 83be c8a1 c3bd
00000240: 2173 df3e ffe7 eb3e 627b 173e 75fe 603d
00000250: f0da 203e 16af 883e da54 22bd d0d8 db3c
00000260: b2b8 863e fc64 f73d 90a8 07bd 6473 7bbe
00000270: 8069 99bd ae6c fdbd 3b1f 30be 2580 703e
00000280: b341 13be b853 41be 2e41 213e f160 47be
00000290: 5f35 5f3e 5b4b bbbd 04d2 5e3e cd97 553d
000002a0: 9d51 a73e ba87 63be efcd 9cbe dbed 803e
000002b0: e9cc 683e 90c6 9a3e e5f8 60bd ec7b a13e
000002c0: 24e9 cbbe c28a 0abe e6e7 3e3e 52d0 c2be
000002d0: bbb2 a63e c4eb 96bd c993 ca3e 7792 433d
000002e0: 360e 57be e8dc 4dbe 4eff b13d 898e e6be
000002f0: 4622 59be b23b 703e 6770 9e3e ae78 8f3e
00000300: c325 f3bd c163 74be 83f0 52bd 5ec1 7fbe
00000310: 3c41 d03e 6633 683d 5895 a53e 11dd 4b3f
00000320: f2e4 4cbe c0f5 fc3b b782 93be c435 0ebe
00000330: 897d d23d 0056 afbd fae8 89be c827 babc
00000340: 27e8 893e 10a8 c93e dc44 183e a993 263e
00000350: 7196 abbd 83c3 fbbd 5655 113c 288c 93bd
00000360: 72e8 713e 2253 513e 72ac 263d 4d51 9bbe
00000370: 3017 99be 51e9 d63d ef26 703e 2eb6 ca3d
00000380: 4501 6a3d f8a3 1839 fb76 a93c 1c24 4b3c
00000390: c709 39be 6d84 043f 5394 a2be 99ad 8c3b
000003a0: dff8 b1bc 4964 2dbe 125b bcbd df99 e43d
000003b0: f950 a03e b085 debd ec3a 33be 24ee ef3d
000003c0: f8bf 323e d4dc 203d 84cd d8bd d897 8ebd
000003d0: 9d38 59bd 61a9 8dbe 03d3 813d 6222 cdbd
000003e0: 20ea a93c 97eb 923e 47ce d93d 7a3f ed3e
000003f0: 7a79 ca3d 25cf 59be 0f4f 55be 4883 c2bd
0.013802245 -0.18492699 0.20134279 0.53236204 0.10776398 -0.19235964 0.20651296 -0.07873038
-0.09023654 -0.090758204 0.45230186 -0.035627097 -0.42081144 -0.21627852 -0.17945589 -0.030493611
-0.28454465 0.054902762 0.32328162 0.07862725 0.07632293 -0.17467201 0.069170065 0.0053736796
0.27214903 -0.15598845 -0.31676534 0.077515505 -0.19614199 -0.020067925 -0.08867935 -0.21819147
-0.036904532 0.2521661 0.3574004 0.08080399 -0.009177163 -0.01725597 -0.2557973 -0.18832229
0.053341337 -0.051848717 0.16400191 0.22451414 0.021197768 -0.055957064 0.20271684 -0.14841162
-0.13233405 -0.21111962 -0.037940044 -0.15179043 0.19029193 -0.07795993 0.08163225 0.031541295
0.07257456 -0.05300875 0.13284062 -0.33034366 0.23132749 0.1634806 0.17491129 0.61508185
0.31823248 0.2721881 -0.3724654 -0.06751773 0.11483232 -0.0086994935 0.02916276 0.14508462
-0.31091055 0.4991636 -0.60056084 -0.22071645 -0.52783364 -0.22064428 -0.0943466 0.0895683
-0.35991913 -0.028886061 0.5326926 -0.13609543 -0.19862129 0.20137122 0.19426955 -0.12518767
0.23395114 0.037706822 0.39550462 0.18163404 0.23271972 -0.52108693 0.38178784 0.028374381
0.050147448 0.06764652 -0.06865862 -0.09642858 0.41702157 0.14264533 -0.16710098 0.08312832
0.004979903 0.18423104 0.29164097 0.025825912 -0.21993934 -0.22017045 -0.007330905 -0.2117753
-0.17974876 -0.25385734 0.04343988 0.12350373 -0.33441007 0.11700298 0.6023795 -0.23083264
-0.41747308 -0.21491314 0.048645977 -0.15850037 0.05743079 -0.14312133 0.05288086 0.39180857
0.19687971 -0.48233634 0.14637235 0.14495435 0.19003493 -0.0076202974 0.123070136 0.1538934
0.3479763 0.08030507 -0.24268255 -0.092198946 0.18812555 -0.15153396 -0.25602463 -0.09552342
0.43642524 0.46075436 0.1479316 0.05493017 0.15708518 0.2669608 -0.039631702 0.026836783
0.26312786 0.12079808 -0.033119738 -0.24555737 -0.07490826 -0.12374245 -0.17199413 0.23486383
-0.14380531 -0.18879592 0.1574752 -0.19470574 0.21797703 -0.09145232 0.21759802 0.05214672
0.32679453 -0.22219744 -0.30625865 0.2518147 0.22734417 0.30229616 -0.054924864 0.31539857
-0.3982631 -0.13529494 0.1864315 -0.3804956 0.32558236 -0.073691875 0.39565876 0.0477471
-0.21001515 -0.201038 0.08691274 -0.4503062 -0.2120448 0.23460272 0.3094513 0.2802176
-0.11872437 -0.23866178 -0.0514989 -0.24976107 0.4067477 0.056689642 0.32340503 0.79634196
-0.2000921 0.0077197254 -0.28810665 -0.13887697 0.1027785 -0.08561325 -0.2693556 -0.022724047
0.2693493 0.39386034 0.14870018 0.16267265 -0.08378304 -0.1229315 0.008870443 -0.07204467
0.23623827 0.20441869 0.0406918 -0.30335465 -0.29900503 0.1049372 0.23452352 0.09898029
0.057130117 0.00014556933 0.020686617 0.012398746 -0.18070136 0.51764566 -0.31753787 0.0042931554
-0.021725116 -0.16932787 -0.09197058 0.11162161 0.31311777 -0.108653426 -0.17502946 0.117153436
0.17456043 0.039273098 -0.10586074 -0.06962556 -0.053032506 -0.27668288 0.063390754 -0.100163236
0.020741522 0.28695366 0.106350474 0.4633749 0.09886451 -0.21270426 -0.2083094 -0.09497696

model.decoder.2.bias f4 [64]
00000000: d847 95bd 8830 8f3d 3fcf 05be b6e9 4a3c
00000010: 6bb5 8e3d 41fd 763e 8b53 853b 2303 c93d
00000020: afd1 7a3e d0ca 8e3e b014 aa3d a2b8 913d
00000030: ed77 9a3e 95a5 7e3e 873a ccbb e70a 8f3d
00000040: b2f1 3e3e 5414 b9bd 73e7 15be 1413 933c
00000050: e9b9 7ebd 7202 5c3e c3d0 8c3c ac78 af3d
00000060: c57d ca3c 654b 3f3c 70b4 91bd 9ec4 2d3d
00000070: 9474 2abe 9f9d 0c3e 0b71 1a3e c64f 043e
00000080: 6c57 bc3e 883a da3d d7df 893e b62b 22bd
00000090: 6d54 703d 1dc0 81bd 60e9 50bd c5b1 02bd
000000a0: 25e7 9ebd 3d74 683d 2e0f 9cbd a0fd 823e
000000b0: bc49 c6bd bcd3 183d ae64 2e3d 15f8 423c
000000c0: 2043 c7bc ba65 fb3b f10d 883d 9309 1f3e
000000d0: f99b c73d d68c ab3b 06af 153d 80df 7fbd
000000e0: bb61 873c bb2b 15bd a95f 93bd 74ef 1d3e
000000f0: 2f73 c8bd 1a04 f53d 1f53 d2bd b33c 38be
-0.07289094 0.069916785 -0.1306734 0.012384823 0.069681965 0.24120046 0.004068797 0.098150514
0.2449405 0.2788911 0.08304727 0.07115294 0.3016962 0.24867852 -0.006232563 0.06984501
0.18646887 -0.090370804 -0.14639072 0.017953433 -0.062189016 0.21485308 0.01718939 0.08567938
0.024718175 0.01167569 -0.07114494 0.042423837 -0.16646034 0.13732003 0.15082185 0.12921056
0.36785448 0.10655695 0.2692859 -0.039592467 0.058674265 -0.06335471 -0.051003814 -0.031907815
-0.07758931 0.05675148 -0.07620083 0.25584126 -0.096820325 0.0373113 0.042576484 0.011899968
-0.024324 0.007672039 0.06643284 0.15530996 0.09746546 0.005235295 0.03654387 -0.062469006
0.016526094 -0.036418658 -0.0719598 0.15423375 -0.097875945 0.11963673 -0.1026976 -0.17991905
