torch_model_storage_24_Jun_2025/model_Early_IA_Correct_v_Late_IA_Het postCLNZ_Early_IA_Correct.pt (torch, 16143 bytes, 8 tensors)

model.encoder.0.weight f4 [9, 145]
00000000: 00e0 c5bd f031 30b9 f992 e93d e0cf 263e
00000010: 571c 04bd 3581 db3d 9fac cd3d 5ffc 51be
00000020: 8ba9 11bd 34d7 1bbd dd05 dd3d f682 75be
00000030: 4a95 383d 725e 77bd 40fd 523d c065 db3c
00000040: 921d 95bc 5fd7 00bc 7945 98bd ba6e 3bbb
00000050: b9ab e33d 78c4 34be 4826 a5bd e9a0 80bd
00000060: 406b c03d 30c6 c9bd 24fa d8bd 1471 813c
00000070: f9bc c93d 4e49 663b b669 f63c b1e3 1e3d
00000080: 717e 73bd f299 95bc dc51 bdbc 83fb da3d
00000090: 593a 08be 31e5 3dbe e6b6 02be dda4 34be
000000a0: 1867 1bbd c3df 09be 8872 7ebd 82d1 773d
000000b0: 34b9 f0bd dd4f a03d 93cd 10bd 28ae 31be
000000c0: 3ad2 e4bd 23c3 09be 9cfb 99bd 79ad 1e3d
000000d0: b80b 78bc 4c37 533d e993 06be 587b 4cbd
000000e0: 3731 fdbb 7bb4 a9bc 79df 3dbe 8468 a23d
000000f0: 76c5 ec3d 4451 fd3c 0189 693b d074 4abe
00000100: ffe3 2ebc e93e 81be 3cb8 a8bd 5634 f1bc
00000110: 46d0 0abe 14c2 edbd 5f0f d43d 098c 853d
00000120: ad34 93bd 7012 683d 2327 643d 2dd9 e4bd
00000130: 77dd 2e3d 3356 69bd 2273 5a3b 45ea bd3d
00000140: 2239 303e 1d4a 31be 31fa bcbd 76e7 2bbe
00000150: 3ae1 d6bd 2592 06be e72c 1bbe d792 663d
00000160: cd2c 46bd 60e1 f83d 898e 97bd 0af3 9bbd
00000170: 0ef1 4c3c 11dd 04bd ddaf 15be ee3d e23d
00000180: e62c 40bd 9552 07be 6a03 733d 8e55 b0bc
00000190: ec94 8bbd 59bb 503c 8bcf f73c 49bf 723c
000001a0: bb50 d63d 448d d13d 4765 52be 8465 0d3e
000001b0: 5892 773b c6ba 15bc 1995 98bd 4118 0dbd
000001c0: 6499 213e a6b4 d1bb 6be3 fd3c 6afa 84bd
000001d0: 8592 a9bc cd52 0c3c 316b 70be b764 08bd
000001e0: 657d 9cbd fbc6 be3d b2c4 353e 0496 b93d
000001f0: 89de 0c3d 3214 9cbd ca7e fd3c 86b7 373c
00000200: 3faf 60bd 68dc 36bd 948d 04bd d40a 5b3d
00000210: 7f70 0bbe ea82 08be e1fa 2e3e b39f ae3c
00000220: fb5f 34bd 6e38 23bd 77c6 bcba 9b5e 5bbd
00000230: 3e70 a8bb b292 423d 2124 bcbd 8ce2 05bd
00000240: e41c 393d ade3 0d3e baf8 463e 6eb6 90bd
00000250: fefe 5fbe 271c d33d a9d5 ae3c e9b7 cfbd
00000260: 097e 9fba bfa1 a53d 7482 3d3c 0603 443d
00000270: 8105 153d 69d0 b9bd f247 6f3d 7aa7 043e
00000280: dfcc 83bc db0d 47bd 2ad0 b7bd 8a41 f23a
00000290: 1d76 013c 6966 123e 4032 2f3e 335c b93c
000002a0: 18d3 e23c 8050 e2bd 8f25 3dbe 9167 363e
000002b0: 9a07 1abe a3c6 d13c 531c 95bd 4351 d23d
000002c0: 1d40 643d 836c 3a3e 2b00 f3bc 99c9 76bd
000002d0: c7f0 d3bb 613b 6d3e a6c1 593e 25ef c9bd
000002e0: e6f8 88bd 3671 ecbd d53b e93d 343d 0b3d
000002f0: ea57 fd3d 9ea7 65bc 0e0f a53d 7229 4a3d
00000300: 8c3d 853d 06d5 cc3d ebcd 7e3e 99c5 0f3e
00000310: 46c5 17bc ed85 9a3c 07f8 1c3e d73d ba3d
00000320: 3b7d 893e 2192 5e3d ea8e c3bc ac28 a0bd
00000330: b10b 073e 1c1c e6ba 454b f3bc 3082 3dbe
00000340: faee 853e 5bc6 d23d e6ac 133e 59ed c6bc
00000350: 5895 1f3e e2df c2bc 3a70 bcbc 4e4d 66bd
00000360: e84d 4ebe 2a05 74bd c7af 003e f16e ac3d
00000370: a7f4 683e f512 633d b8de e53d ad63 85bd
00000380: e1f9 60bd 6012 133e 497e 603e ad76 783d
00000390: aa23 633d f52c bfbd 80cf f5bd ff6f aa3c
000003a0: 733a d2bd bda7 b03d d716 6e3e 7efb 1cbe
000003b0: 3cbd 4fbe f27a d4bc f93e a13d e4a6 c93d
000003c0: c4a6 1a3e b5db 7f3d 37ac 5a3e 7864 2b3e
000003d0: 0605 ec3c f637 153d c878 7e3e b7ab 8cbc
000003e0: b4bf 2e3d 14ed 21be 1e49 de3d 4ad2 fb3d
000003f0: 6825 053e ec20 9d3e b848 8a3d 7336 ac3e
-0.09661865 -0.00016803271 0.11404986 0.16290236 -0.03225359 0.10718004 0.100426905 -0.20506428
-0.03556208 -0.03804703 0.10792134 -0.23975739 0.04506425 -0.060392804 0.05151105 0.026781917
-0.018202577 -0.0078638485 -0.07435126 -0.0028599934 0.11116738 -0.17653072 -0.08063942 -0.06280691
0.09395456 -0.098522544 -0.105945855 0.01580099 0.09850497 0.0035138908 0.030079704 0.038791362
-0.059446756 -0.018261883 -0.023110323 0.10692503 -0.13303508 -0.18544461 -0.12765083 -0.17641015
-0.037940115 -0.13464265 -0.062120944 0.060502537 -0.11754075 0.07827733 -0.0353523 -0.17351592
-0.1117291 -0.13453345 -0.07518694 0.038739655 -0.015139513 0.051566407 -0.13142361 -0.049922317
-0.007726814 -0.020715943 -0.1854228 0.07930091 0.115611 0.03092254 0.003563464 -0.19771123
-0.010674476 -0.2524331 -0.08238265 -0.029443901 -0.13556013 -0.11609283 0.10354494 0.0652085
-0.071877815 0.05665821 0.055701386 -0.111742355 0.042691674 -0.05696697 0.0033332785 0.09273199
0.17209294 -0.17313428 -0.09227408 -0.16787514 -0.10492177 -0.13141687 -0.15153848 0.05629238
-0.04838257 0.12152362 -0.07400233 -0.076147154 0.012508644 -0.032437388 -0.14617868 0.110469684
-0.04691782 -0.13215096 0.059329428 -0.02152517 -0.06815514 0.01273998 0.030250331 0.014816114
0.10464617 0.102320224 -0.20546447 0.13808256 0.0037776437 -0.009138769 -0.07450313 -0.03444696
0.1578117 -0.006399709 0.03099223 -0.06493075 -0.020699749 0.008564663 -0.2347839 -0.033299174
-0.076411046 0.09315296 0.17750815 0.09061816 0.034391914 -0.076210395 0.030944247 0.011213189
-0.054854628 -0.04464379 -0.032361582 0.053477123 -0.13617133 -0.1333119 0.1708789 0.021316385
-0.044036847 -0.039848737 -0.0014402409 -0.05355702 -0.0051403334 0.04750318 -0.091865785 -0.032686755
0.045193568 0.13856383 0.19430819 -0.07066046 -0.21874616 0.10308104 0.021342115 -0.101425
-0.0012168299 0.08087491 0.011566747 0.047854446 0.036382202 -0.09072954 0.05841822 0.12954512
-0.016088901 -0.048597198 -0.08975251 0.0018482667 0.007901696 0.14296879 0.17109013 0.022626972
0.027688548 -0.110505104 -0.18471359 0.17812945 -0.15041962 0.025607413 -0.07280793 0.10269406
0.055725206 0.18205456 -0.029663166 -0.060250852 -0.006467912 0.23167183 0.21265277 -0.09860066
-0.066880986 -0.11545031 0.11388365 0.033993915 0.12370284 -0.014017014 0.08059512 0.04935593
0.0650588 0.100015685 0.24883239 0.14040221 -0.009263342 0.018862689 0.1532899 0.09093826
0.26853356 0.054338578 -0.023871858 -0.078202575 0.13188054 -0.0017555985 -0.029698977 -0.18506694
0.26158887 0.102917396 0.14421424 -0.024283098 0.15584314 -0.023788396 -0.023002733 -0.056226067
-0.20146906 -0.059575237 0.12567054 0.08419598 0.22749577 0.055438 0.11224121 -0.06513152
-0.054925803 0.14362478 0.21923174 0.060660053 0.055453934 -0.09334747 -0.12002468 0.020805357
-0.102650546 0.086257435 0.232509 -0.15330312 -0.20287031 -0.025937531 0.07873339 0.09846285
0.15102679 0.06246539 0.21354757 0.16737545 0.02881099 0.03643032 0.24850762 -0.017171724
0.04266329 -0.15813094 0.1085379 0.12295969 0.1300255 0.3068918 0.06752151 0.3363529

model.encoder.0.bias f4 [9]
00000000: cb48 84be 2bfd 873d 5cc9 3cbc e446 2abe
00000010: ed15 33be 7324 aebd 934d f23d 165e 32be
00000020: 46c7 8abe
-0.25836787 0.06640085 -0.011522617 -0.16628605 -0.17488833 -0.08503046 0.11831202 -0.17418703
-0.2710516

model.encoder.3.weight f4 [2, 9]
00000000: 45dc 1cbd 6561 c33e 53b0 843d c0f9 75be
00000010: 8f53 d5be 4bf5 4fbe ea2c 743e d5fc 1abe
00000020: 5456 8dbd b089 82be 4ac7 93be 769e 7dbd
00000030: 18a3 3bbe 1b83 963d 2998 73be be47 313d
00000040: 82c1 503d 874d 90be
-0.038296003 0.38160244 0.06478944 -0.24021053 -0.41665313 -0.20308416 0.23845258 -0.1513551
-0.069012314 -0.25495672 -0.28862983 -0.0619187 -0.18323934 0.07349225 -0.23788513 0.04328131
0.050965793 -0.2818415

model.encoder.3.bias f4 [2]
00000000: 2cf8 0dbc e361 99bd
-0.008665126 -0.074893735

model.decoder.0.weight f4 [9, 2]
00000000: 1fa4 cd3e 0b9e 3e3f 05a2 6abe cb4e 8abe
00000010: 9bad bcbe dd32 393e 3921 963d a7a2 623d
00000020: 672b ba3e 92a0 853e 16a6 633e a4a6 49be
00000030: 5902 a6be f87b df3e ee83 0f3e 82b1 9abe
00000040: b8b1 b7be de6e d5be
0.40164277 0.74459904 -0.22913368 -0.2701324 -0.368512 0.18085809 0.073305555 0.0553309
0.36361238 0.26099068 0.22231326 -0.19692475 -0.32423666 0.43649268 0.14015171 -0.30213553
-0.35877776 -0.41686147

model.decoder.0.bias f4 [9]
00000000: 4fe6 903d 6869 a4be 0a54 cd3e c52c 013d
00000010: 4504 65be 6e9a 603e 7474 0e3e 31b5 96be
00000020: 98af c23e
0.07075178 -0.3211167 0.4010318 0.031536836 -0.2236491 0.2193391 0.13911611 -0.29435113
0.38024592

model.decoder.2.weight f4 [145, 9]
00000000: 3254 293d b021 8a3d e16b dc3c 1e9b 1abe
00000010: 4435 7dbe b911 5d3e b73c 86be 44e1 8cbd
00000020: 8f44 a23d adff ec3d 685e fc3d 58a0 e5be
00000030: 0eeb 963e 7165 c9bc 77e5 16be 2322 bdbe
00000040: d642 2ebe 2bfd 103e 62c9 1fbe 2f07 9d3e
00000050: 55e3 a5be 99ee 16be 8a11 163e bb81 07be
00000060: 6221 b13e ac31 8f3a b382 1d3e 30d3 88be
00000070: 8ee0 a1be 25d6 d03e 4cc4 60be cad8 49be
00000080: c0b1 adbd 95c8 893d 375d 2b3e d38b ae3e
00000090: ce5c b3be 03f4 e33c 04df 273d 3eae 003e
000000a0: 9ea3 393e 3b7c 0b3e cb5b 673e e002 de3e
000000b0: 144e babd 67e4 8bbe dc94 9f3e 8154 04bc
000000c0: 24ac 32be 77da 513c 8036 233d 18be 09be
000000d0: 36f2 0dbd fd37 c43c d7c6 41be bca7 08be
000000e0: 9687 903e 373b 843c 43f2 63be 402a 24be
000000f0: a780 92be 9885 613e 514b f03e 2e2f 4e3f
00000100: 2aaf 47be eff0 a2bd e209 a33e cfd4 013c
00000110: 0462 7f3d 82ba 1e3c 2ccf 103e 40fb 9f3e
00000120: bc93 89be c8af b13e 358d e5bd 08a9 493d
00000130: df4a 1cbe 0cf5 bfbd 2466 66bd d3c3 a03e
00000140: 507e 96bd 9ec8 05bf e5d8 69bd 1fd4 b4bd
00000150: d3ec 90bc 7ce3 82be c00a 99be 8410 70be
00000160: 8af8 13bd 15c3 cabd 007f 9a3d d27a 963e
00000170: 6486 d6be bbba d23c 8296 3abe f271 93be
00000180: a1d1 1cbe d929 06bd eafc e43b e62e f1be
00000190: 4a39 41be 78d1 65bd 1734 53bb d54f 2bbd
000001a0: 9592 8d3b 19a7 7bbc 7b45 68be 8419 7bbe
000001b0: 11d9 d9be c91f bd3e 2eda 013e 4692 123d
000001c0: 29ef 8cbd baab 88bc b24b 643e 02da 5b3e
000001d0: 9af7 5e3e 7cd7 cc3e d739 ebbd b451 963e
000001e0: 57c3 e43e 6a2e c93e cd38 863e 2b4a 16be
000001f0: 4e3a 503d d8cc 623e a6bd d2be 081a 733e
00000200: 1fe7 05be 53ff 72be f4df 76bd cf1b 163e
00000210: b75b 74be f797 33be cbab c43e e6e3 a1bd
00000220: 1386 613e 94e3 00be 1644 aa3d 2739 943c
00000230: 8247 9e3d 5eb5 70bd 13b6 1bbe 1a21 e03e
00000240: 6f66 92be ff1e b5be a560 d53e 15ac 313d
00000250: ab7f e6be 0736 60bc 11ec f1be 6569 24be
00000260: 8950 4d3d fdb8 843e 0e2f 6abe a28f a33e
00000270: a989 8c3e 2a98 20be 2df9 103e 7d8b 6bbd
00000280: 4e0d 61be 064b 943e 4ed7 e5be d06a 0b3e
00000290: baa2 793e e1e0 7fbe 8e77 853e 1a2a 0e3d
000002a0: 827b 363e 1936 b33e 62ea 63be 0bdf debe
000002b0: 36f5 83bd c0ac 1ebd f22f 58be 354c c53d
000002c0: c979 54be 881b 053d ea1a 473e 0a36 5cbe
000002d0: fbe5 7fbe fa9c 56be e10a 1bbe 7f97 eb3d
000002e0: 9e4d 7ebb 45bc 443e 93fb c2bb 3108 223e
000002f0: 1663 f43e c483 d1be 7b39 2bbe 7615 71be
00000300: 5b8b bcbe 70dc 793d 889f 04be 7939 cabd
00000310: 8bf0 e4bd 760c 2fbe b5bd 2bbe 2a1a 81be
00000320: 98d7 14be 91ec 49be adec 8dbe ea75 47bc
00000330: c8eb b33d c407 35bc 0a57 2cbe 130d ef3d
00000340: c9e5 8ebe 2902 b33e 3bf1 59be 843c 72bd
00000350: 2e31 0d3e 7cfb 90be 7020 243e 73ec bc3e
00000360: 2b9c 70be 04ad e93d 1f00 373e 3baa 0ebe
00000370: ee89 43bc af1c b9bd 6142 c5bd f24a 5fbe
00000380: c778 303e 31d8 f7bd a428 1cbe 197f b03e
00000390: 565a b4bd af6f e6be ab6a 273d 3ca3 913d
000003a0: 4c75 a6be e3ea 933e d3b4 253f b37a 7ebe
000003b0: 3e7f 34bc e23d 433e a406 c8bd 32d6 d83e
000003c0: f8d9 95be 5055 073e 1131 403e 9f25 3cbd
000003d0: 580a eabd aae3 993e 155b 103e 46db c9be
000003e0: 80af ba3e dc81 003e b82a 79be 4587 e93e
000003f0: 9b04 b4be bc11 4d3e 04f6 55be 6589 40be
0.04134006 0.06744707 0.02690691 -0.15098235 -0.2472735 0.21588792 -0.26218197 -0.068789035
0.07923233 0.11572204 0.12322694 -0.44848895 0.29476207 -0.024584504 -0.14735971 -0.36940107
-0.17017683 0.14159076 -0.15604165 0.30669543 -0.32400003 -0.14739455 0.14655128 -0.13233082
0.34595782 0.0010924838 0.15381889 -0.26723623 -0.31616634 0.4078838 -0.21949881 -0.19711605
-0.08481169 0.06727711 0.16734777 0.34091052 -0.35031742 0.027826315 0.04098417 0.12566468
0.18128821 0.13621609 0.2259361 0.43361568 -0.090969235 -0.27322695 0.31168258 -0.008076788
-0.17448479 0.012808434 0.039846897 -0.13451421 -0.03465482 0.023952479 -0.18923508 -0.13345236
0.28228444 0.016141517 -0.22260384 -0.16031742 -0.2861378 0.22023618 0.46932462 0.8054074
-0.19500414 -0.07956111 0.31843477 0.007924273 0.062349334 0.009688022 0.1414153 0.31246376
-0.26870525 0.34704423 -0.11208574 0.049233466 -0.15262936 -0.09372911 -0.056249753 0.31399402
-0.07348311 -0.5225924 -0.057091612 -0.088295214 -0.017691052 -0.25564182 -0.29891014 -0.234438
-0.036125697 -0.0990049 0.075437546 0.2939058 -0.41899407 0.025723806 -0.18221477 -0.2879787
-0.15314342 -0.032754753 0.0069881575 -0.47106093 -0.1886951 -0.056107968 -0.0032227093 -0.04182418
0.0043204525 -0.015359663 -0.22682755 -0.24521452 -0.4254842 0.36938313 0.12680885 0.03578403
-0.06881554 -0.016683448 0.222945 0.21469882 0.2177414 0.40008152 -0.114856414 0.2935921
0.44680282 0.39293224 0.2621521 -0.1467673 0.050836854 0.22148454 -0.41160315 0.23740399
-0.13076447 -0.23730211 -0.060272172 0.14659046 -0.23863111 -0.17538439 0.38412318 -0.07904796
0.22023802 -0.12586814 0.083137676 0.018093659 0.07728483 -0.058766715 -0.15206175 0.43775254
-0.28593776 -0.3537521 0.41675296 0.043377 -0.45019278 -0.013684756 -0.47250417 -0.1605583
0.050125632 0.25922385 -0.22869512 0.3194552 0.27448776 -0.15683046 0.14157553 -0.057506073
-0.21977732 0.28963488 -0.44890827 0.13614964 0.24378482 -0.24988128 0.26067775 0.03470812
0.17820552 0.3500221 -0.22257379 -0.43529543 -0.06443255 -0.038738966 -0.2111204 0.09633676
-0.20749582 0.03249696 0.1944386 -0.2150499 -0.24990074 -0.2095832 -0.15140869 0.11503505
-0.0038803588 0.19212444 -0.0059504 0.15823437 0.47731847 -0.40920842 -0.16721146 -0.23543343
-0.3682507 0.06100124 -0.12951481 -0.09874243 -0.111786924 -0.17094597 -0.16771586 -0.25215274
-0.14535367 -0.19719149 -0.27719632 -0.012174109 0.08785206 -0.011049215 -0.16830078 0.116724156
-0.27909687 0.34962586 -0.21283428 -0.059139743 0.13788292 -0.28316867 0.16027999 0.36899146
-0.23497073 0.11409953 0.1787114 -0.13932125 -0.0119347405 -0.09038674 -0.096318014 -0.21805933
0.17233573 -0.12101782 -0.15249878 0.34471968 -0.08806293 -0.45007083 0.04087321 0.071112126
-0.32511365 0.28890142 0.6472904 -0.24851494 -0.011016665 0.19066575 -0.097668916 0.42350918
-0.2926786 0.13216138 0.18768717 -0.045934316 -0.11427754 0.30056506 0.14097245 -0.39425105
0.3646202 0.12549537 -0.24332702 0.45611015 -0.35159764 0.20026296 -0.20894629 -0.18802412

model.decoder.2.bias f4 [145]
00000000: f626 56bc 260b 0f3e 5208 223e 2996 84bd
00000010: 6439 fb3d a8c0 d83d 4581 4cbd 0927 893c
00000020: 1639 5b3e 870f 613e f6c3 3d3e cab1 ba3d
00000030: b06f 143e 878c aabd c382 1b3d 6f1b 133a
00000040: 7fb9 293d 2be7 65bd 06ed 143e 5af5 3b3e
00000050: 0299 a1bd 3303 0d3e fe8f 0f3d a48f 09be
00000060: 7fc0 7c3c da14 393e 92b8 19be 27b8 dfbd
00000070: e619 253e e53c 3b3e 73fb 983c 8005 8dbd
00000080: 97a9 dd3d 8841 b23d bb7b fbbd fb3c e0bd
00000090: 108e dbbd b9ee f03d 498f 013d e285 3e3e
000000a0: cd5d ca3b 3620 5b3d d8c4 0f3d dea4 2ebe
000000b0: 8316 d8ba 0c9d 46bd 8648 22be 566e 683e
000000c0: 8732 7b3d 7114 2a3e f29d d93c 66d6 f93d
000000d0: 8621 103e d131 da3b e0de 67bd f7d3 203e
000000e0: c7e6 a23e 0728 523d 00fb 323d 4230 14be
000000f0: 18b8 933d db56 75bd 003e 84bd 1475 2f3e
00000100: 9ca1 d1bd 1dc6 443e e75d 973b 6ee8 043e
00000110: e9b4 f63d 92b8 aa3d 75dd cbbd 9466 92bd
00000120: a549 1abe c5bd 9fbd b8c2 96bd 29da 153e
00000130: 36ee a43c dd11 d53d c92e 253e fbb0 bfbd
00000140: 3ec6 bc3c b8bd 5a3e 5b28 a5bd 2b04 c43b
00000150: 0f43 5b3e 7074 cdbc 1f97 1d3e af15 a83d
00000160: 8486 9c3d 5d09 2f3e 5a3d 5d3d 5e07 9e3d
00000170: 245f e2bd 642a 53bd 191f 903d 82af 783d
00000180: d54b ee3b 760c 3d3e e8dd 043d ffd8 2b3e
00000190: 0514 473d 339a ee3d f4e3 fd3d 717b ae3d
000001a0: 74cb 573c c3ae f4bd bc2f 00be 3f6e c6bd
000001b0: b6b1 0a3c 2bb7 3e3d f09a 523e ac2a ea3b
000001c0: 89b5 00bd a0a4 9e3d 0384 0bbd db08 3c3e
000001d0: cd2c 583d 317b efbd c239 ed3c 58da 1b3e
000001e0: 1c19 363d 66b6 cd3d 958c b1bc 3f6d e13c
000001f0: 3ec3 5e3e c696 72bd ec79 8a3e 1892 f4bc
00000200: aa04 34bd d8c7 243e a8e5 b53d f15d c8bd
00000210: de7d bd3d 7a8f 633d 533f 12be 6525 e73d
00000220: 5a9f bebc 7e6a f23d 2c98 473d 930d 00be
00000230: 5f3f de3d e79d cfbd 4916 57bd cac9 163e
00000240: fe59 193e
-0.013070812 0.13969097 0.15823486 -0.06473953 0.12266806 0.10583621 -0.04992797 0.016742246
0.21408495 0.2197858 0.18531784 0.09115942 0.1449573 -0.08327585 0.0379665 0.0005611693
0.04143667 -0.056128662 0.14543542 0.18355313 -0.07890512 0.13770752 0.03504943 -0.13433701
0.015426754 0.1807436 -0.15011814 -0.10923796 0.1612316 0.18284948 0.018674588 -0.06885815
0.10823362 0.08703905 -0.12279459 -0.10949131 -0.10720456 0.11764283 0.031630788 0.1860576
0.0061757327 0.053497516 0.035099834 -0.1705508 -0.0016486201 -0.048489615 -0.15847978 0.2269834
0.061327484 0.1660936 0.026564572 0.121990964 0.14075288 0.0066587706 -0.056609035 0.15705858
0.31816694 0.051307704 0.043696404 -0.14471534 0.072128475 -0.059897285 -0.06457138 0.17134506
-0.10235903 0.19216199 0.0046193483 0.1297929 0.120462246 0.08335985 -0.09954349 -0.071484715
-0.15067156 -0.077998675 -0.073613584 0.14634003 0.02013312 0.10403798 0.16131128 -0.09359928
0.023043748 0.21361434 -0.08064338 0.005981942 0.214123 -0.025079936 0.1538968 0.08207261
0.07642844 0.17093416 0.054013588 0.07716249 -0.11053303 -0.0515541 0.070371814 0.060714252
0.0072722235 0.18461785 0.03243819 0.16781996 0.048603076 0.11650505 0.12396994 0.08519638
0.013171066 -0.11947396 -0.12518209 -0.096889965 0.008465221 0.0465614 0.20566916 0.0071462
-0.031423125 0.077462435 -0.034061443 0.18362753 0.0527771 -0.11693419 0.028958205 0.1522001
0.04445754 0.10044555 -0.02167348 0.027517913 0.21754166 -0.05922582 0.27046144 -0.02985482
-0.04394976 0.1609186 0.08881694 -0.09783543 0.09252523 0.05555675 -0.14281969 0.11286429
-0.023269344 0.11836718 0.048729107 -0.12505178 0.10851931 -0.10137539 -0.052511487 0.14725414
0.14975736
